pth_no_normalize/shared_bottom_model.pth (torch, 103008 bytes, 10 tensors)

shared_bottom.0.weight f4 [128, 58]
000000 87 d1 a5 3e 4e 48 24 be 92 0c a9 3d af 10 85 bd
       0.3238642 -0.16043207 0.08254351 -0.06497323
000010 69 f6 01 3e 05 38 0c 3e a8 24 05 bd 6c 4d 91 3d
       0.12691654 0.13693245 -0.03250566 0.07094845
000020 1a f3 d8 be 98 2f cc 3e 5d 17 a1 3c 41 da 45 be
       -0.42372972 0.3988006 0.01966446 -0.19321539
000030 59 97 b6 3e e3 fc 79 3e b5 4a 9b 3e 1d f8 dd 3e
       0.35662344 0.24412875 0.30330434 0.43353358
000040 47 25 6d 3e 6e ea 82 3e 01 19 75 3e 81 ea 1c 3e
       0.23158751 0.2556948 0.2393532 0.15323831
000050 fb c2 39 3d 65 a4 c8 3e e7 da f6 3d 5b df 21 3e
       0.045351963 0.39187923 0.12053471 0.1580786
000060 5c d9 27 3e 61 fc 57 3d 77 ae 72 3c 11 23 b8 3d
       0.1639151 0.05273092 0.0148121035 0.089910634
000070 e8 42 01 3e 91 76 4e 3e 41 20 3e 3d 3e f0 6d bd
       0.12623179 0.20162417 0.04641748 -0.05809044
000080 05 33 70 3d fa 5c da 3d f3 d0 0b 3e 31 76 6e 3a
       0.058642406 0.10662265 0.13653927 0.00090965914
000090 55 ba b8 bd bc 52 e6 bd 82 da 03 3c 34 ac 3b 3d
       -0.09019915 -0.11246249 0.008047702 0.045818523
0000a0 9f 20 5b 3c 57 69 cc bc a6 de ba 3d 52 26 33 3e
       0.013374477 -0.024952574 0.09124498 0.17495087
0000b0 de 3d cc 3e 1c c0 12 3e 20 6c 0b 3e 4b 79 c2 3d
       0.3989095 0.14331096 0.13615465 0.09495791
0000c0 7b f6 36 3e 38 0b a7 3e 52 a5 9f 3e 10 7f 82 3e
       0.17867462 0.32625747 0.31180817 0.25487566
0000d0 ca 63 a8 3e f2 15 88 3e 0b 26 b7 3e e7 32 c8 3e
       0.32888633 0.26579243 0.35771212 0.39101335
0000e0 6e 22 b7 3e 91 ce 29 3e 40 68 0d bc 35 51 a9 3d
       0.35768455 0.16582705 -0.008630812 0.08267442
0000f0 87 5b 93 bd 88 1f ed bc 24 60 b8 bc 02 d8 78 bd
       -0.07195192 -0.0289457 -0.02250678 -0.060752876
000100 94 7c 1d 3d 5f b0 d7 3d c7 fb 8d 3d 0e f1 44 be
       0.038448885 0.10531687 0.06932788 -0.1923258
000110 ae 67 1b be a7 ae 0d bd 9a 3d 63 be 94 e6 8f be
       -0.1517627 -0.03459039 -0.22191468 -0.28105605
000120 b6 f7 e2 bd 3f a1 dc 3b 30 cd 39 be 56 0f 91 bd
       -0.11082403 0.006733089 -0.18144679 -0.07083003
000130 48 6c 05 bc 3f 26 2b be f4 17 86 bd bd ba ac 3c
       -0.008143492 -0.16713808 -0.065475374 0.021085138
000140 1c ad 58 3d cb 79 79 be c1 48 85 bc 37 2b 2b 3d
       0.052899465 -0.24362867 -0.016270043 0.04178926
000150 70 7e 47 bc 74 14 4c bd e4 66 0b be 74 d8 66 be
       -0.012176141 -0.049824193 -0.13613468 -0.22543508
000160 be 55 29 be 7f 69 a1 bd 3f bc 97 bc 5d b7 d4 3c
       -0.16536614 -0.0788145 -0.01852238 0.02596634
000170 81 4e 85 3d fa 85 5a bd b6 39 8d 3d e9 ae a6 bd
       0.06509114 -0.053350426 0.06895773 -0.0813883
000180 6c ff 5c 3d 80 7b 34 bb 28 d1 d3 3d ef 68 5e bd
       0.053954527 -0.0027539432 0.10342628 -0.05429929
000190 f8 f5 55 bd a4 25 be bd c4 b9 cd bd 97 43 08 bc
       -0.052236527 -0.09284523 -0.100451976 -0.008316896
0001a0 76 c6 47 be 83 df 44 be 53 d6 d0 bd f8 90 1d bd
       -0.195093 -0.19225888 -0.10197129 -0.03846833
0001b0 c4 95 ac bd 4f 4b 86 3c 07 6e a5 bd bd 6b db bd
       -0.08427003 0.016393332 -0.08077627 -0.10713909
0001c0 38 77 46 3d ed df 35 be 81 df 55 3d e8 cf 5d bd
       0.04845354 -0.17761202 0.052215103 -0.054153353
0001d0 d2 ae 52 bd ec 39 11 3e 95 86 1e bd 80 e6 86 ba
       -0.051436253 0.14182252 -0.038702566 -0.0010292083
0001e0 14 6f 07 3e b0 d4 e9 3b f6 f4 93 3d f2 5a a4 3d
       0.13225967 0.00713595 0.07224457 0.08025159
0001f0 ee d3 05 be 88 47 99 3d 70 9b e3 bd 32 ce b6 bd
       -0.13069126 0.07484347 -0.11113632 -0.089260474
000200 20 42 03 bd 2d af d4 bd 7e 46 fa bd ff 8c fc bc
       -0.032045484 -0.10384975 -0.122204766 -0.03082895
000210 a7 e9 47 3d 2d 36 d6 bd 88 f3 0d bc 68 f9 96 bc
       0.048806813 -0.10459552 -0.008664019 -0.018429473
000220 50 74 de bd ee 18 00 be 72 b8 2f bd 7d d4 f7 bd
       -0.108620286 -0.1250951 -0.04290051 -0.12101076
000230 18 93 0a be d8 0c b0 3c 7c 41 94 3d cb 0c b3 3d
       -0.13532674 0.0214905 0.07239053 0.087426744
000240 08 e7 b7 bd 6d 54 a4 3d fe 13 63 bd 54 dc 7d 3b
       -0.089796126 0.080239154 -0.055438988 0.0038736062
000250 18 07 8f 3d a4 a0 b1 3d b7 80 4b bd 3c 71 18 bd
       0.06983775 0.08673218 -0.0496833 -0.037217364
000260 5e 8c 9a bd 19 18 06 be 20 71 a3 3c f7 fe cc bd
       -0.07546304 -0.1309513 0.019951403 -0.10009568
000270 49 18 88 bd 8c 1f 15 be b9 5e 1b bd 04 d3 1b 3d
       -0.06645257 -0.14562815 -0.03793213 0.038043037
000280 7d fb cb 3d a2 66 e4 bd df f7 b0 3d 66 9e 9a 3d
       0.09960077 -0.11152388 0.08641028 0.07549743
000290 91 17 54 3c f6 21 ce 3d d1 4d b8 bd 46 75 64 bd
       0.012945072 0.10065071 -0.08999217 -0.055775903
0002a0 4e 9e 97 bd f5 f0 c8 bd da f4 0c 3d 20 6a ef bd
       -0.07403241 -0.09811584 0.034413196 -0.116901636
0002b0 b9 ec 2e bd 68 2a 44 3d 07 e5 10 be 50 ff bb bd
       -0.042706225 0.047892004 -0.14149867 -0.09179556
0002c0 16 0c 59 be 70 bc 51 bd 10 e9 90 bd f1 e1 cd bd
       -0.21196017 -0.0512051 -0.07075703 -0.100528605
0002d0 38 fd c1 bc 9e 07 d4 bd 0c d0 03 bd da fa 4b be
       -0.023680314 -0.10353015 -0.03218083 -0.19919911
0002e0 e5 f9 08 bd 68 d4 9b 3d bf 34 24 be 22 c1 9b be
       -0.033441443 0.07608873 -0.16035746 -0.30420786
0002f0 9f 3f 56 be b1 a0 a9 be c6 35 f4 bd 7e 76 62 be
       -0.20922707 -0.3313041 -0.11924319 -0.22115514
000300 7c 84 ee 3c 7d 15 e3 bc 8b fd 2d bd 1d ce da bd
       0.029115908 -0.027720207 -0.042478126 -0.10683844
000310 3b 8b 9e 3d 8c 16 86 be 44 1a 3e be ac 36 63 3c
       0.077414 -0.26189077 -0.18564707 0.013868015
000320 f2 31 a8 3d d3 24 04 be 40 d4 77 3d 9b f1 2b be
       0.08212651 -0.12904672 0.06050515 -0.16791384
000330 fd da f3 bd b1 ea 00 bd c7 c9 87 bb 38 f2 a4 3d
       -0.11907003 -0.03147382 -0.004143927 0.08054012
000340 75 33 c2 3d 2a de 8d bd b5 45 0e be 9c e3 e6 bc
       0.09482471 -0.0692714 -0.13893779 -0.028184704
000350 fc 4b d9 bc 00 71 8c ba c8 4c b8 3d ec f4 04 3d
       -0.02652549 -0.0010714829 0.0899902 0.03246014
000360 9a ee 5d 3c 61 64 8a be a3 4e a4 be 60 39 e1 bd
       0.013545657 -0.27029708 -0.32091245 -0.109972715
000370 be 32 17 3d f6 2e 34 bc 6c d3 a5 bd 3a 1c eb 3c
       0.036913626 -0.0109975245 -0.08096966 0.028699983
000380 b8 58 10 be ee 6e 05 3d 7c 27 c3 3c 3d 5c 6f bc
       -0.14096344 0.032576494 0.023822539 -0.014609394
000390 71 20 2d be 18 15 4c be 36 87 73 bd 1e 4c 31 be
       -0.16906907 -0.19929922 -0.05945512 -0.17314193
0003a0 91 a6 a9 bd b8 29 6d bd 92 bb d9 bd 58 f8 1e bd
       -0.08283723 -0.057901114 -0.10631479 -0.038811058
0003b0 c0 44 86 bd 20 3c 1a 3d a4 fb 1b 3d c4 52 ca 3c
       -0.06556082 0.037654996 0.03808178 0.024697669
0003c0 a0 65 bc 3d 2d 60 f6 bd 4a 48 b6 3d aa 74 cd 3c
       0.09199071 -0.12030063 0.08900507 0.025080044
0003d0 39 90 ce bc 68 fa aa bd a1 cf 36 be d8 9e 32 bc
       -0.025215255 -0.083485425 -0.17852642 -0.010902129
0003e0 fd 59 d4 bc db bc 52 be 2f 9d af bd d4 46 22 bc
       -0.025921816 -0.20579855 -0.08574902 -0.009904582
0003f0 e4 91 16 be 36 a0 07 3c bc 61 53 3d 45 1d 4e 3d
       -0.1470409 0.008277943 0.05160688 0.050320882

shared_bottom.0.bias f4 [128]
000000 bf f7 93 3e ac aa 97 bc 45 38 cc 3d d2 a6 1b be
       0.28899953 -0.018514 0.0997167 -0.15200356
000010 c0 99 77 bd ee 4a 96 bd e4 4c ce 3d 79 24 96 bd
       -0.06044936 -0.073385105 0.100732595 -0.07331175
000020 cc 7f 14 3d 72 8f 68 3d ec d8 b9 3d 30 42 c2 3d
       0.03625469 0.056777425 0.09074578 0.094852805
000030 f7 07 47 be e7 40 d5 bd e8 46 74 bd 71 9d 3d 3d
       -0.19436632 -0.1041277 -0.059637934 0.046292726
000040 5b 1b 89 3e 37 95 01 be d6 ff 2d be 5c a6 0c bc
       0.26778683 -0.12654577 -0.16992125 -0.008584585
000050 f7 23 48 be ef 73 5a bc 07 40 17 3f 1b 84 41 be
       -0.1954497 -0.013333305 0.5908207 -0.1889805
000060 1e cc 47 bd bb 9a d7 bd 02 95 8c be 87 3a 72 3d
       -0.048778646 -0.10527559 -0.27457434 0.059137847
000070 91 00 67 bd e1 50 16 bc 8b 4b 45 be 4d 44 01 be
       -0.056397025 -0.0091745565 -0.19267099 -0.12623711
000080 96 1b 88 bd bf 15 3b be 8a d7 10 3d db b6 09 be
       -0.066458866 -0.18270014 0.035361804 -0.1344866
000090 26 58 9d be 8e a6 fc bd da d0 3f 3e 60 30 a4 bc
       -0.30731314 -0.12336455 0.18732014 -0.020042598
0000a0 5f 60 02 be ea 42 ff ba df 4b 86 3d c4 ad 65 be
       -0.12732075 -0.0019474898 0.0655744 -0.22429568
0000b0 84 c2 ab bd 8a e5 14 bd 58 f1 d1 bd 6d 9c a6 bd
       -0.0838671 -0.036351718 -0.10251111 -0.081353046
0000c0 3e 35 aa 3e 98 40 bf bd 5b f6 1c bd 2e 01 82 be
       0.33243746 -0.09338492 -0.03832088 -0.25391525
0000d0 29 cd 60 be 3c 82 95 3c ed b2 7b bd 2c e9 dc 3d
       -0.21953262 0.018250577 -0.061449934 0.107866615
0000e0 c3 15 61 bd a9 00 06 be a3 74 fd 3c d9 62 df 3e
       -0.054952394 -0.1308619 0.030939406 0.43630102
0000f0 39 ff e1 bd 8a ca 08 be 54 8f 4d bd 69 0c 69 be
       -0.11035008 -0.13358513 -0.050185516 -0.2275864
000100 fd 04 59 be cb 5c d2 3d 42 59 6b be 09 ec 5e be
       -0.21193309 0.10271605 -0.22983268 -0.21769728
000110 ce dd d1 bd 19 91 85 be a6 f0 aa 3e 41 38 94 3d
       -0.10247384 -0.26087263 0.33386725 0.07237292
000120 3a 67 5b be b5 53 75 be 44 2a 8c bd 9a 8e 02 be
       -0.21426097 -0.23957713 -0.06843999 -0.1274971
000130 59 08 54 be cf 0a 86 be 15 8e 72 be d7 b8 ad bc
       -0.2070631 -0.2618012 -0.23687012 -0.021206303
000140 bf 33 d5 3a 2f 3d 14 be 0a 48 14 bd b1 ec 5b be
       0.0016266032 -0.14476465 -0.036201514 -0.2147701
000150 8b 81 8f bd 3d 8b 27 bd a0 b8 4a 3e ff 3c 06 3f
       -0.0700713 -0.040904272 0.19796991 0.5243682
000160 75 2a da bb ec f2 87 be 71 cd 96 bc 06 e3 ce bd
       -0.0066578933 -0.26552522 -0.018408509 -0.10101895
000170 46 69 5e be 9a ce 2d be df d4 44 be cb 94 14 3e
       -0.21719846 -0.16973343 -0.19221829 0.14509885
000180 eb 8c 4f be d6 f2 39 bb 0c a1 0e bd 3b de f7 bd
       -0.202686 -0.0028373501 -0.034821555 -0.12102934
000190 88 ec 7f 3d 1d 1c c8 bc ce 0b ea bd 10 72 7c bd
       0.062481433 -0.024427468 -0.11428033 -0.061632216
0001a0 70 c9 e1 bd f6 1f c2 bd 2d 94 6d be 2c 61 29 3d
       -0.11024749 -0.09478752 -0.23201056 0.041352436
0001b0 9d 8d 60 be 75 43 87 3c 8f e0 2d bd 5c 10 b6 bc
       -0.21929021 0.016511658 -0.042450484 -0.022224598
0001c0 25 82 2c 3e 12 9d d7 ba 10 81 fd bd 66 80 69 bb
       0.16846521 -0.0016450009 -0.12378132 -0.003562951
0001d0 1b 7e bb 3e 89 87 44 3c 6f 32 59 3d a6 eb c1 3e
       0.36619648 0.011995205 0.053026613 0.37875098
0001e0 81 0c af 3d 36 be 06 3d 9f a7 e8 bd 1b f2 13 bd
       0.08547307 0.032896243 -0.11360096 -0.03611956
0001f0 b5 24 07 be ce f9 f7 bd 15 0c 39 3c b2 0a e2 3d
       -0.13197596 -0.12108193 0.0112943845 0.11037196

emotion_branch.0.weight f4 [64, 128]
000000 70 a4 72 bd 18 db 46 bd 6d de 4d bd f3 3d 10 3d
       -0.05923885 -0.048548788 -0.05026095 0.03521533
000010 9c af 77 bc e5 90 57 3b b0 e9 63 bd 94 d8 1f bc
       -0.015117552 0.003289276 -0.055642784 -0.009756226
000020 e0 d1 2e bd 1a 9b 40 3d 99 46 07 bd a7 39 2a 3d
       -0.04268062 0.047022916 -0.03302631 0.041558888
000030 f3 9a 8f bc 11 38 bd 3c ef 9d 80 3c 98 35 10 3b
       -0.01752994 0.023098024 0.015700309 0.00220046
000040 21 91 cb bc 85 f9 56 3c 69 21 20 bd 94 ca a4 3c
       -0.024849476 0.0131210135 -0.039094362 0.020116128
000050 3e 86 d5 bc 12 df 50 3c 90 2a 9d bd b7 b1 33 bd
       -0.026064988 0.012748497 -0.07674134 -0.043870654
000060 ec cf e6 b9 72 e2 d4 bd 55 59 1b 3d 54 5b c4 bc
       -0.00044023932 -0.103947535 0.03792699 -0.02396933
000070 37 f9 83 3d 79 f4 88 39 3d 14 8e bd fa 60 9a bd
       0.06444018 0.00026122088 -0.06937454 -0.07538028
000080 6d 7d 02 3c a0 9f 25 bc 73 b3 16 3d 8e 21 82 3d
       0.007964474 -0.010108858 0.03679223 0.06354056
000090 7e 8a 0e bc 57 3f 98 3d 45 9e 8e bd 02 ab 48 3d
       -0.008700011 0.07433956 -0.06963781 0.04899121
0000a0 46 5b 40 bd eb c0 1f 3c 8d 3f 8b bd 20 18 84 bc
       -0.046962045 0.009750585 -0.06799231 -0.016124785
0000b0 38 14 88 bd ae ce cd bc 69 d8 b5 bd 64 a6 12 bd
       -0.066444814 -0.025122967 -0.088791676 -0.035803214
0000c0 88 f7 a4 bb 8e d6 28 3d 2c 0f c0 3d 01 19 09 bd
       -0.005034391 0.04122024 0.09377894 -0.03347111
0000d0 6a 72 a0 bd 5d 7a cf bd 00 8a 94 bd b1 f5 8e bd
       -0.07834323 -0.10130761 -0.07252884 -0.06980456
0000e0 d1 fd 9f bd 92 40 bb 3c 7b d9 89 bd de f6 70 bd
       -0.078120835 0.022857938 -0.06730934 -0.05882918
0000f0 dc 60 99 3b fe 85 68 bd fb 1f 03 3c 47 4a 8c 3d
       0.004680736 -0.05676841 0.00800323 0.06850105
000100 aa 29 bb bd 79 07 2d bd 53 18 48 bd 01 04 5b bc
       -0.09138806 -0.042243455 -0.048851322 -0.013367654
000110 98 08 7c 3d cb d2 39 bd c0 40 69 bd 2a 1f 75 bd
       0.061531633 -0.045367043 -0.056946516 -0.059844173
000120 03 8d 37 bd 45 b3 e1 b8 fd 15 53 bd 71 41 a1 bc
       -0.044812214 -0.000107622276 -0.05153464 -0.019684525
000130 c8 f6 10 3c d7 34 a8 bd 65 6d dc 3b d9 34 2d 3b
       0.0088479 -0.082132034 0.006726908 0.0026429205
000140 32 96 75 3c 06 45 9e bc 4a 55 d3 3b 90 75 65 bd
       0.014989423 -0.019320022 0.0064493762 -0.05602032
000150 75 b6 87 3d 42 9e a6 bd fa 80 af bd 4c a9 fc bd
       0.06626598 -0.08135654 -0.08569522 -0.12336978
000160 c3 54 0e 3b 69 1b 40 bd ff c2 38 bd d8 40 1f bd
       0.0021718002 -0.04690114 -0.045107838 -0.0388802
000170 75 49 d8 3b 46 c3 04 bd b1 f6 e4 bc 4d c0 ad 3b
       0.0066005536 -0.03241279 -0.027949663 0.005302465
000180 16 48 ab bd 5b a3 32 bd 03 8e 5f bb e9 aa db 3c
       -0.08363359 -0.04361282 -0.0034111745 0.026814895
000190 a6 3e 79 3d 31 5c 13 3d 38 66 85 3d 86 a5 c3 3c
       0.06085076 0.035976592 0.06513637 0.023882639
0001a0 8b 22 1a bd 10 46 70 bc 94 1c 15 bc 83 bd 5b 3c
       -0.0376306 -0.014665142 -0.009101052 0.013411882
0001b0 23 75 4f 3d 96 69 00 bd 52 18 7d bd f6 57 a0 bc
       0.05064882 -0.031350695 -0.06179077 -0.019573193
0001c0 b1 12 23 bd 88 c3 82 bc 6f 82 af bd 6f 8e 57 3d
       -0.039812747 -0.015962377 -0.085698 0.05262607
0001d0 cf 19 85 bd 77 66 15 3c aa 5c 3e bd 9d 04 a4 bc
       -0.06499063 0.009118668 -0.04647509 -0.020021731
0001e0 f5 21 2c 3c f4 3b 1a 3d db 47 34 bd 56 f7 b3 bd
       0.010506143 0.037654832 -0.04401384 -0.0878741
0001f0 27 7a 82 bc 54 32 c3 3c b0 d1 2c bc e3 b3 12 3d
       -0.015927387 0.02382771 -0.01054804 0.035816085
000200 83 1f 97 bd a0 fb 87 bc 56 e0 ae 3d 5b 42 5c 3c
       -0.07379057 -0.016599476 0.085388824 0.013443555
000210 24 b9 20 bc 82 4f dd 3c 90 a4 cb bd 7a 23 4e 3d
       -0.009809766 0.027015451 -0.09943497 0.0503268
000220 aa 23 ff bc aa 91 5c 3d a4 4c a3 bc 1f e1 c1 bc
       -0.031144936 0.053849854 -0.019934006 -0.023666916
000230 25 25 a2 bd b2 cb 22 3c 7d e3 8c 3d 6b ab 11 bd
       -0.07917241 0.00993626 0.068793274 -0.035563868
000240 4c 67 e2 bd 23 5b 73 3d 24 f2 c1 bd 07 12 1b bd
       -0.110548586 0.059413087 -0.09470013 -0.03785899
000250 69 17 5b bd f2 9c b0 bd aa cb 66 bd 50 f3 c8 bd
       -0.053489123 -0.08623685 -0.056346573 -0.09812033
000260 ac 34 02 3d 23 6e 71 bc 67 dc a7 bd c8 19 1d 3d
       0.031788513 -0.014735731 -0.08196335 0.038354665
000270 a5 d8 a1 3d fe d7 76 3d 3d 79 06 bd cd 6a 02 3d
       0.0790265 0.06026458 -0.032830466 0.031840134
000280 d5 11 8f bd 79 c0 4a 3c 84 84 2d 3d d8 94 d2 bd
       -0.06985823 0.012374991 0.042362705 -0.10282296
000290 a0 40 0c 3d 8c 77 8a 3c 5a a2 4c bd e4 7e 0d bd
       0.03424132 0.016902708 -0.049959518 -0.03454484
0002a0 ca 2b 9a 3d e5 8a 70 bd 55 7e 6f 3d 44 36 94 ba
       0.07527883 -0.05872621 0.05847009 -0.0011307676
0002b0 43 89 60 bd 6e a9 c3 bd f4 ba 63 3c ca 98 87 3d
       -0.054818403 -0.095538005 0.013899554 0.06620939
0002c0 1f 9c 3b bd 3b 86 5b bd 69 06 0f bd 4b d9 23 bd
       -0.045803186 -0.05359481 -0.034918223 -0.04000215
0002d0 10 f0 05 bd 29 69 31 bb 79 22 90 3c 0c 64 58 bd
       -0.032699645 -0.0027070737 0.017594563 -0.052829787
0002e0 ca 83 69 3d 2b 96 78 3a 0e 16 dc bc 3d 8b a0 bd
       0.05701045 0.0009482826 -0.026865985 -0.078390576
0002f0 8e b3 04 bc eb 31 8f 3d bc bc ae bd f5 c9 c2 3c
       -0.00809945 0.06991943 -0.08532092 0.023777941
000300 18 80 b6 3b 82 60 9c bd 14 0c bb bd ee e6 03 bd
       0.005569469 -0.07635595 -0.09133163 -0.032202654
000310 0d 21 ad bd 62 e6 17 bd 99 c1 c7 bc a6 31 00 3c
       -0.084535696 -0.037084945 -0.024384307 0.007824337
000320 d6 7c 23 3d a7 10 9b bd fb 08 a9 bd 4e 99 7e bc
       0.039913975 -0.075715356 -0.08253666 -0.01553948
000330 04 46 ed bc 7e 72 05 3d 62 48 d8 bc 33 cd 88 3c
       -0.02896405 0.03257989 -0.026401702 0.01669941
000340 ac 68 8b bc 5a 9a d1 bc 2c df 0a bd 33 5d d3 bd
       -0.017017685 -0.025586296 -0.03390424 -0.10320511
000350 32 3e a4 3d cc 68 9a bc bc ef 3e bd 1c e7 8b bc
       0.08019675 -0.0188488 -0.046615347 -0.017077975
000360 c1 ed 0c bd 74 a6 89 bd e7 b5 8b bd d1 d0 c6 bd
       -0.034406427 -0.067212015 -0.068218045 -0.09707797
000370 69 53 02 bc b7 18 9e bc 8d 3a 2a 3c c3 31 9a bb
       -0.007954457 -0.019298894 0.010389936 -0.004705639
000380 3c 84 21 bd db 52 9e bd b1 ba 59 bd 99 b1 85 bd
       -0.03943275 -0.07730647 -0.05315656 -0.06528015
000390 04 aa 8a bd 00 80 a8 bd 2a 0b 2e 3d 09 82 04 bd
       -0.06770709 -0.08227539 0.042491116 -0.032350574
0003a0 14 e9 52 bd 30 8d 8c 3b 47 3e 37 3d 8c 1f c7 bd
       -0.051491812 0.004289292 0.044737127 -0.09722814
0003b0 27 11 84 bd b6 24 d3 bc 31 85 88 3d bb cb be bd
       -0.06448584 -0.025774341 0.06666029 -0.09316202
0003c0 e5 0c 41 bd 96 ca a7 3c 7e 92 80 bb 9f cf 24 3c
       -0.047131438 0.020482343 -0.003923713 0.010059266
0003d0 7d bb 35 bd eb 8b e0 bb 04 e8 c7 bd 04 3d 44 bd
       -0.044368256 -0.006852617 -0.0976105 -0.04790975
0003e0 fb 5b 6b bd e1 52 42 bd e9 9e 3b 3c 7d da 3b 3d
       -0.057460766 -0.04744232 0.011451461 0.045862664
0003f0 8c 1f 2b 3d 05 de 6e 3d f2 bb 86 bd a3 f0 49 bc
       0.041778132 0.058317203 -0.065788165 -0.012325439

emotion_branch.0.bias f4 [64]
000000 ad b8 33 be c4 18 0d be 31 d6 9b bd 43 9c fa bd
       -0.17550917 -0.13778979 -0.07609213 -0.12236836
000010 31 88 ab bd 82 da 66 be e4 d5 6a be 5a 0e 98 be
       -0.08375586 -0.22544292 -0.22933155 -0.2969845
000020 51 77 3c be 21 dc f0 bd 44 89 1e be 30 4b 0b be
       -0.1840489 -0.11760736 -0.1548205 -0.136029
000030 5f 99 45 be f6 87 2f be 67 bb 9d bd a7 db 5e bd
       -0.19296788 -0.17141709 -0.0770176 -0.054408696
000040 79 a7 0b be 6c 7e d3 bc de 36 3e be d3 d5 e7 bd
       -0.13638104 -0.025817119 -0.18575618 -0.113200806
000050 df c6 fe bd 2a 03 15 be 63 c1 3f be b6 11 1f be
       -0.124402754 -0.14551988 -0.18726115 -0.155341
000060 6c 87 2d be 26 ae 06 bd 6a 68 17 be 1c 62 a9 be
       -0.1694619 -0.032880925 -0.14785925 -0.33082664
000070 56 e8 36 be e4 0b 39 bc 6a 47 cf bd d6 42 0b be
       -0.17862067 -0.011294339 -0.10121043 -0.13599715
000080 3d 16 6c be 6c d9 43 be 06 35 b3 bd b6 ce 0b be
       -0.23055358 -0.19125909 -0.08750348 -0.13653073
000090 28 7f 17 be 35 d2 1f be ea a0 37 be 97 12 fd bd
       -0.147946 -0.15607531 -0.17932478 -0.12357061
0000a0 e8 a8 b4 bd d6 ff 19 be 5a 6c b4 bd 4f 7b fa bd
       -0.08821279 -0.15039 -0.08809729 -0.122305505
0000b0 ed bb 5d be 06 e1 64 be 8a 90 1f be 67 4f 8c 3b
       -0.21653719 -0.22351465 -0.15582481 0.0042819264
0000c0 70 2c 4f be fe d1 06 be b1 0b 19 be 46 dc 11 be
       -0.20231795 -0.13166043 -0.14945866 -0.14244184
0000d0 3e 0c d4 bd d5 fa d5 bd 83 5f 5a bc c9 5a b8 bc
       -0.103538975 -0.10448233 -0.013328436 -0.022504227
0000e0 f3 59 17 be e8 ac 46 be 49 10 02 be d5 af 61 be
       -0.14780407 -0.19401896 -0.12701525 -0.22039731
0000f0 63 6c e6 bd 66 3d 53 be 6f d9 31 be c2 74 68 be
       -0.11251142 -0.2062889 -0.173681 -0.2270079

emotion_branch.2.weight f4 [8, 64]
000000 b7 33 82 3d e0 29 2b 3d e7 28 a8 3d bc fb 34 3d
       0.0635752 0.041787982 0.082109265 0.044185385
000010 4c ae 03 3d fb f8 3f 3d 49 52 42 3d ab 3b c8 bd
       0.032148644 0.046868306 0.047441754 -0.09777006
000020 d2 83 57 3d e8 e7 e5 bd 26 73 f9 3c c0 45 05 bd
       0.052615948 -0.11225873 0.030450415 -0.032537222
000030 a5 5b aa 3c d5 f1 81 3d 01 60 82 3d ae 43 88 bc
       0.020795653 0.06344954 0.063659675 -0.016633835
000040 16 df f4 3c 41 4d d1 bd 2b 72 02 3c fe 31 ed 3c
       0.029891532 -0.10219813 0.00796179 0.028954502
000050 c1 75 6d bd bc 4f 97 bd 33 b0 13 bc e4 33 8f bb
       -0.057973627 -0.07388255 -0.009014177 -0.0043701995
000060 03 9f e2 bc 6e 68 14 bd 86 89 72 3c 6a 72 4b 3d
       -0.027663713 -0.036232404 0.014803296 0.04966966
000070 8e bf 49 bc bf b1 ce 3c 37 bc a7 3d b4 27 2f bd
       -0.012313737 0.02523124 0.08190196 -0.042762473
000080 4c bf 85 bc e0 a5 ca 3a df 18 84 bb 14 81 64 bd
       -0.016326569 0.0015460812 -0.004031285 -0.05578716
000090 95 96 ca bd 71 fc ba bd 6e 8f 1a bc a2 75 62 3d
       -0.098920025 -0.091301806 -0.00943361 0.055287965
0000a0 89 20 b8 bd f0 d4 60 3d d6 9e 36 bd a5 a9 76 bd
       -0.089905806 0.054890573 -0.04458507 -0.06022038
0000b0 57 f9 62 bb 48 28 6c 3b 4e 29 43 3d b6 e8 63 3d
       -0.0034633481 0.0036034752 0.047646813 0.055641852
0000c0 e8 7d 01 bd 53 e1 9f 3d c9 68 c2 3c 47 46 7c bc
       -0.031614214 0.07806649 0.023731606 -0.015397615
0000d0 25 26 b8 bd ea d2 68 3d 6a 43 59 3d c6 a1 41 bc
       -0.089916505 0.05684177 0.053042807 -0.011818355
0000e0 9e 75 80 bd bb 99 27 3d 8a e6 9a 3d c8 86 59 3d
       -0.06272434 0.040918093 0.07563503 0.053107053
0000f0 30 7f f0 bd b5 7a e5 bd aa 5e 5c 3d 6b 94 e8 bd
       -0.11743009 -0.11205045 0.053801216 -0.113564335
000100 c4 c1 22 bb d9 5d de bb 6f 7f aa 3d d0 ba 26 3b
       -0.0024834732 -0.00678609 0.08325087 0.0025440939
000110 1b b8 8e bd 79 83 64 3d 1c 7f c3 bd 95 46 4d 3d
       -0.06968709 0.055789445 -0.095457286 0.05011614
000120 70 ac 0a bd 5c 99 99 3d e2 6e 7b bd 1a bf db 3d
       -0.033855855 0.07499954 -0.061385043 0.10729809
000130 36 2c 4c bd 57 0f 24 bd 9a 67 6f bd 11 c8 fe 3c
       -0.04984685 -0.04005369 -0.05844841 0.031101258
000140 fe 17 11 bd 99 32 98 bd c0 63 d0 bd cf e0 ac bd
       -0.03542327 -0.07431526 -0.10175276 -0.08441316
000150 f3 e3 1b bd 0b 6a 33 3d 0f 89 d1 3d 8d 3c 1b bd
       -0.038059186 0.043802302 0.1023122 -0.037899543
000160 1d 84 65 3d b9 35 07 3d 1b 9f 31 bd 75 5b f0 3c
       0.056034196 0.03301022 -0.043364625 0.029340485
000170 bc 50 5b 3d 34 5c ae bd cf e0 e6 3d df d8 a4 3d
       0.05354379 -0.0851368 0.112733476 0.080491774
000180 db 60 7c 3d 9a 65 52 3d e9 a2 a0 3d 02 d5 96 bc
       0.061615806 0.051366426 0.07843573 -0.018412117
000190 f3 0f 3c 3d c8 0e d3 bb 4b d9 b9 bc 88 ab 1f bc
       0.045913648 -0.006440971 -0.022686621 -0.009745486
0001a0 c5 88 82 bd fa 1f 65 bb 24 4b 90 bc 31 fa e2 3d
       -0.06373743 -0.0034961686 -0.017613955 0.110828765
0001b0 51 ef b6 bd 0c be 30 bd 42 78 ba bd b8 00 a3 3c
       -0.08932365 -0.043149993 -0.091049686 0.019897804
0001c0 7f c4 64 bc 0b 96 17 bd ec ef 3a 3c ad 85 f6 3c
       -0.013962864 -0.037008327 0.011409741 0.030093038
0001d0 b4 55 9e 3d b8 9f 5c 3d d2 ba 66 3d 15 6b 00 3d
       0.0773119 0.053863257 0.05633051 0.03135212
0001e0 39 0e 83 3d 91 5c c0 3c 16 af cc bd 31 50 92 3d
       0.06399197 0.02348164 -0.099943325 0.071442015
0001f0 ef 7e c1 bd 0f 1c c3 bd 26 a6 21 bc 97 89 99 3d
       -0.09448039 -0.09526836 -0.009866273 0.07496946
000200 1b 6e 8d 3d 39 ba 13 3d 52 62 a6 bd 59 fc 48 ba
       0.069057666 0.036066268 -0.08124222 -0.0007666997
000210 a4 e4 ac bd dd 54 7c bd 9b 69 71 bd 98 db 00 be
       -0.08442047 -0.06160437 -0.058938604 -0.12583768
000220 e1 09 88 3d 83 26 96 3d d7 ed a5 bd 3d dc ee 3d
       0.06642509 0.07331564 -0.08102005 0.11663101
000230 ba 8e c4 3b cf f0 6d 3b 37 bb 0e bd ad e0 d7 3c
       0.0059984596 0.0036306863 -0.03484651 0.026352251
000240 f9 8f 93 3c f7 9f a0 3c 85 3e 27 bd d5 92 bd bd
       0.018012987 0.019607527 -0.040831108 -0.092565216
000250 a9 7a 04 3d 2c c5 c0 3c 2b 5d 91 3d b6 93 2b 3c
       0.03234354 0.023531519 0.070978485 0.010472229
000260 a4 27 78 3c 91 07 0e 3d 34 aa 4e 3d 88 04 8e bd
       0.01514617 0.034675185 0.050455287 -0.06934458
000270 0c f5 9e bd 79 d0 f0 bd d2 14 6d 3c 6a a5 c3 3d
       -0.07761583 -0.11758513 0.014470296 0.095530346
000280 53 0d 4f 3d b2 68 68 3c 07 25 44 3c 43 06 30 3d
       0.050549816 0.014185118 0.011971719 0.04297472
000290 c7 0d a5 3d 8b 22 bc 3c d1 db 95 bd a7 d8 a5 bd
       0.080592684 0.02296569 -0.07317317 -0.08097964
0002a0 ef ca a9 bb e5 8d 03 3d 41 42 62 3d af 28 f8 bd
       -0.0051816623 0.032117743 0.055238966 -0.12117135
0002b0 df d2 b0 3b ad 5f 27 bc 9f 46 3a 3d 00 17 a1 bc
       0.0053962315 -0.010215682 0.045477506 -0.019664288
0002c0 62 ff 90 bd ce ec 9f 3d aa f0 0d 3d 55 5b 2b bc
       -0.070799604 0.07808839 0.034653343 -0.010458787
0002d0 45 f6 b5 3d 8c 0a bb bd af 32 77 3d 02 be c8 bd
       0.08884863 -0.09132871 0.06035107 -0.09801866
0002e0 d2 2b 9a bd e2 bf ad bd a0 9d c4 bd 10 a1 ae bd
       -0.07527889 -0.08483864 -0.09600377 -0.08526814
0002f0 88 6c 24 bd 64 2f ff bc 40 2d b2 bd ac bf 40 bd
       -0.040142566 -0.031150527 -0.08700037 -0.047057793
000300 c1 57 84 bc 72 47 2f 3d 62 f1 b9 3d 4c 16 9d 3c
       -0.016155126 0.042792745 0.09079243 0.019175671
000310 7e 31 df ba 13 f2 d2 3d bd 55 b2 bd b4 a3 b3 bd
       -0.00170283 0.10300078 -0.087077595 -0.08771458
000320 90 52 04 3d a2 2f 9f bd 60 74 19 3b 3c bf cd 3d
       0.0323053 -0.07772757 0.0023415312 0.10046241
000330 a8 24 82 bd 46 05 5f 3d fe 4d 84 3d ff 5e 18 3c
       -0.06354648 0.05444839 0.06460188 0.009299993
000340 39 ea 92 bd 27 62 d5 bd ee 97 c2 3c 23 ce cd bd
       -0.07173581 -0.10419112 0.023754086 -0.10049083
000350 4c 87 b4 3d 10 97 12 bd c6 ad d6 3d 74 49 2d bd
       0.08814868 -0.035788596 0.104823634 -0.04230638
000360 58 74 99 3c f3 c6 2d 3d 5e bc ac bd b7 28 a0 3d
       0.018732235 0.04242606 -0.08434366 0.07820266
000370 00 63 32 bb 9c 33 c2 ba 8f 81 84 bd 47 e5 6e 3d
       -0.0027219653 -0.0014816406 -0.06470024 0.058324125
000380 18 4d 1d 3d fc 13 84 3d 2c 8d 35 3d 51 3c 4a 3c
       0.0384036 0.06449124 0.044324085 0.012343482
000390 ae 56 0d 3b c3 d5 b7 bd da 01 a0 bd 18 e6 8b 3d
       0.0021566558 -0.08976319 -0.07812853 0.06830996
0003a0 3d 2d 99 3d 55 3b 08 3c fc 92 23 3d ed 2c ab bd
       0.07479332 0.008314927 0.039935097 -0.08358178
0003b0 4a 90 d7 3c 93 48 78 39 bd d0 51 bd 1d ee a5 bd
       0.02631392 0.00023678159 -0.05122446 -0.08102057
0003c0 b1 0b 81 bc 65 25 96 3d a8 71 0c 3d b8 e0 8c bb
       -0.015752645 0.07331351 0.03428808 -0.0042992495
0003d0 bc 12 94 bd 55 a1 29 bd 1f bb 7b 3c 66 c3 92 3c
       -0.07230136 -0.041413624 0.015364437 0.017915439
0003e0 47 c2 8f 3d 44 a4 29 bc ab c9 fe 3c a1 63 c9 3c
       0.07019477 -0.010354105 0.031102022 0.02458364
0003f0 07 4b 40 3c 7d 30 36 bc b3 e1 87 bd d6 99 7b bc
       0.011736638 -0.011119959 -0.066348456 -0.015356502

emotion_branch.2.bias f4 [8]
000000 39 f6 25 bf 43 ac b5 3e ba 29 d4 be ca 9d d4 be
       -0.6482883 0.35482988 -0.41438085 -0.41526634
000010 04 5d 66 bf 34 15 34 3f ae dc 61 be 32 b4 7d be
       -0.8998568 0.70344853 -0.22056839 -0.2477577

focus_branch.0.weight f4 [64, 128]
000000 e1 4d 71 bd 4b 98 bf bd 6a 8b 3c 3d 54 b7 f3 3c
       -0.05891216 -0.093552195 0.046031393 0.029750504
000010 1c 50 59 bc 83 8c c9 bb 32 16 e7 3b d6 b5 7b 3d
       -0.0132637285 -0.0061507835 0.0070522064 0.06145271
000020 ed fa 56 bd e1 bd 4c bd 55 83 ae 3c be 0f 65 bd
       -0.052485395 -0.04998577 0.021302858 -0.055923216
000030 53 12 b6 bd 73 ef 0e bd 94 4d ae 3d 18 ad be bd
       -0.08890214 -0.034896325 0.085108906 -0.09310359
000040 1e cb 2e bd a6 f0 65 3a 86 45 b4 bd 15 61 3c bc
       -0.042674176 0.0008771516 -0.08802323 -0.011497756
000050 27 61 ba bc 22 f6 3b 3d 9c e9 cc bd 1c 84 bb 3c
       -0.022751404 0.045889027 -0.10005495 0.022890143
000060 de 1b 9f bb 4d a1 8a bc bf cb 60 3d a0 3d 82 bd
       -0.004855617 -0.016922617 0.054881807 -0.0635941
000070 ec a7 89 bd d1 79 70 bc d1 10 92 bd 41 bb f4 bb
       -0.06721482 -0.014677481 -0.07132114 -0.0074686115
000080 1c a9 a8 bd 27 1d 80 3c 88 93 b4 3c e2 36 3a 3c
       -0.0823538 0.0156389 0.022043005 0.011365624
000090 2b e3 91 3c 48 63 86 bc 3f cb ef 3c f0 6d f6 bb
       0.017808517 -0.016404763 0.02927172 -0.00752043
0000a0 aa 2a 36 3c 26 d5 d7 bd 42 6c b1 bd 03 0d 94 bd
       0.01111857 -0.10538702 -0.08663227 -0.07229044
0000b0 62 c0 46 ba c1 84 ef 3c 84 11 04 3d 27 f5 3b 3d
       -0.0007581768 0.029238107 0.032243267 0.045888092
0000c0 7e f0 e6 bd 65 9b 22 3d ea af 68 3d e2 11 1e 3c
       -0.11276339 0.039698977 0.05680839 0.009647818
0000d0 e4 89 b4 bd 7a 81 b0 bd 8d af 97 bc 30 43 c8 3b
       -0.08815363 -0.08618446 -0.018516326 0.006111525
0000e0 a7 38 78 bb 08 73 3e bd 9c 90 8b bd 25 4f d9 bc
       -0.0037875564 -0.04649642 -0.068146914 -0.026526997
0000f0 06 aa ec bd ac de 91 bd 94 03 ad bd 42 b3 1c bc
       -0.11555867 -0.071225494 -0.08447948 -0.009564223
000100 2d b7 b4 bd c1 2f 11 be e6 7a 31 bd 34 d3 e3 bd
       -0.088240005 -0.14178373 -0.043330096 -0.11124268
000110 8c d9 04 3d 7d 28 40 3d 47 8b ab bd 8e a4 01 be
       0.03243403 0.046913613 -0.083761744 -0.12660429
000120 96 11 ae 3c 2a ad 18 3d a2 0e ab bc 50 5d 08 be
       0.02124862 0.037274517 -0.020881 -0.13316846
000130 75 ad d0 3b c6 36 1e 3c 2a 1b 79 bc c2 91 84 bd
       0.006368334 0.009656614 -0.01520423 -0.064731136
000140 6d 59 95 bd cb 95 c8 3c 6e d7 54 bd 90 78 ec 3c
       -0.07292447 0.02448549 -0.051963262 0.028866082
000150 ec 8a 05 bd c4 22 30 bd fb 1d bb bd c1 e4 71 bd
       -0.03260319 -0.043001905 -0.09136578 -0.059056047
000160 c0 4b e5 3c 4c 7e 4a bd 49 ab ea bc 31 60 1c bd
       0.027990222 -0.049436852 -0.028646128 -0.038177673
000170 0b e0 b3 3a 4d 4d 8a bd 91 f6 fc 3b 35 e1 d1 bd
       0.0013723386 -0.06753025 0.0077198227 -0.10248033
000180 bc be 84 bb 12 77 50 bc 15 94 5d 3d d1 12 20 bc
       -0.0040510576 -0.012723701 0.0540963 -0.009770111
000190 86 69 5c 3d 4b e0 13 bd 35 a9 ad 3d b3 e1 50 bd
       0.053811572 -0.036102574 0.08479539 -0.050996494
0001a0 cd 1e 69 bd 3a ec 21 bd 66 5e 8a bd 8b 35 61 bd
       -0.05691414 -0.039531924 -0.06756286 -0.054982703
0001b0 42 e3 ed 3c 57 6a 83 bd 4b 00 94 bd df c9 0c 3d
       0.029039029 -0.06416767 -0.072266184 0.034372207
0001c0 ff ca 45 bc 40 8a c6 bd 5e 14 35 3d 7c 5c ba bb
       -0.012072324 -0.09694338 0.044208877 -0.0056872945
0001d0 69 0c 32 bc 7b 40 87 bd ad 49 d6 3b 94 df 81 bd
       -0.010867217 -0.066040955 0.0065395446 -0.06341472
0001e0 f5 70 0f bd 7c a5 64 bd 08 4b dd bc f8 43 17 bb
       -0.035019834 -0.05582188 -0.027013317 -0.0023081284
0001f0 4f 26 8c bd dc b0 23 bc 75 8a a3 3d 7a 99 f8 bd
       -0.06843244 -0.009990897 0.07985393 -0.12138648
000200 36 79 a0 bd 61 a4 a7 bd 62 7c 84 bd 43 98 2b bd
       -0.07835619 -0.0818565 -0.06469037 -0.041893255
000210 18 c1 47 3d ed c4 ad bd 49 c4 ff 3b 60 17 c7 bd
       0.048768133 -0.08484826 0.0078053814 -0.09721255
000220 7b 5b 98 bd cf 71 b2 3d 8f 5c 12 be a4 16 28 bd
       -0.074393235 0.087131135 -0.14293121 -0.041037217
000230 a6 ae 11 3d d9 33 25 bd 2a 52 ad bd 53 74 43 bd
       0.03556695 -0.04033265 -0.08462937 -0.047718357
000240 64 6c 9f bd 55 c4 25 bd 13 2f 27 bd 4b 1e 63 3d
       -0.07784346 -0.04047044 -0.040816378 0.05544881
000250 02 9a ce 3b 71 23 c6 bc e6 10 27 bd 84 e3 bf 3d
       0.0063049803 -0.024186822 -0.0407876 0.09369567
000260 0e 42 12 3a 87 6a c9 bd 7f b6 2b bd b6 e2 2f bd
       0.0005579301 -0.098347716 -0.04192209 -0.042940818
000270 80 d8 54 bd 66 df 94 3d 3c 9d 26 bc ea 4b ab 3c
       -0.051964283 0.07269172 -0.0101693235 0.020910222
000280 b3 79 36 3c dc 6b 04 bd 45 54 5b bd 7c 0a c4 3c
       0.011137414 -0.032329425 -0.053547163 0.02393078
000290 0e 96 88 bd 66 32 76 3d 6c e8 b9 bd a8 77 cf 3c
       -0.06669246 0.060106657 -0.09077534 0.025325611
0002a0 f0 9e 90 bd 98 f2 92 bd 5f 37 26 bd cd d4 77 3d
       -0.07061565 -0.07175177 -0.04058015 0.060505677
0002b0 67 46 8c 3b 01 93 34 bd 30 26 55 3c c4 32 60 bd
       0.0042808536 -0.044085506 0.013009593 -0.054735914
0002c0 80 76 81 bd 4f 2b 4b bd 31 97 5e 3d d5 c5 ad bc
       -0.0632143 -0.04960185 0.054343406 -0.021212498
0002d0 22 44 b2 3c 39 15 08 3c 19 fb 7d bd d5 5c a6 bb
       0.021761004 0.008305841 -0.062007044 -0.0050769844
0002e0 45 80 ec 3c 56 78 30 bd 21 a3 e7 bc 10 db a3 bc
       0.028869757 -0.04308351 -0.028276028 -0.020001918
0002f0 a3 39 86 bd b3 ca c9 3b 76 61 a8 3c 9e 5c 8b 3d
       -0.06553962 0.006158197 0.020554285 0.06804775
000300 e1 60 17 bb b4 47 ac bd 48 a7 5a bd d1 58 39 bd
       -0.0023098516 -0.08412114 -0.053382188 -0.045250718
000310 bc e8 89 bd 02 77 fe 3b c4 8c 46 bd 58 f3 b8 3b
       -0.06733844 0.0077656517 -0.04847409 0.005644243
000320 99 50 93 3d de 1b 68 bd fa f5 05 3d af a9 da bd
       0.07193107 -0.0566672 0.032705285 -0.10676896
000330 23 43 c7 3b 37 1e 72 3d e3 3b a2 bd 6c 31 be bd
       0.0060810014 0.059110846 -0.07921579 -0.0928677
000340 0f 0e 9d bd 20 2e e0 bd 64 89 9e bd 75 40 89 bd
       -0.07668697 -0.10946298 -0.07741049 -0.06701747
000350 f9 c8 ee bc e1 c1 51 bd 66 8b ba bd 4c 20 7d bd
       -0.029148566 -0.051210288 -0.091086194 -0.06179838
000360 4f 00 2e 3d 41 fc a3 bd f7 ce cb bb c0 35 b1 bd
       0.042480763 -0.08007098 -0.0062197405 -0.0865283
000370 f5 85 86 3d 37 a1 d8 bc 8d 64 b8 bd 0e 0a 31 3c
       0.06568519 -0.02644406 -0.090035535 0.01080562
000380 62 4d c2 bd 49 9d 90 bd 23 6c 93 bd f2 03 2f bd
       -0.09487416 -0.0706125 -0.0719836 -0.042728372
000390 c6 24 aa bc 2c d8 4e 3d 8e 61 31 3d 2d ea e9 bc
       -0.020769488 0.050499126 0.043305926 -0.028554047
0003a0 47 0b 23 3d 05 33 21 bc e5 62 9b bd 14 1e 07 3d
       0.039805677 -0.009838824 -0.07587222 0.03298767
0003b0 e6 d9 a8 bc e8 95 97 3d a6 c1 0b 3d ff b1 a1 bd
       -0.020611715 0.07401639 0.034120224 -0.07895278
0003c0 03 3f 5e 3a 48 38 e3 bd 80 3b 9f 3d 72 ee b1 3c
       0.00084780174 -0.11094719 0.077750206 0.021720145
0003d0 00 79 b8 bd df 01 61 3d 11 b6 45 bd 32 e8 04 bd
       -0.09007454 0.054933425 -0.048269335 -0.032448
0003e0 ac 5d a3 3c 18 0c 75 3c f2 93 1c 3d fe dd 48 3c
       0.019942127 0.014956497 0.03822703 0.012259958
0003f0 98 95 c6 bd fd b4 db 3c 51 4c 02 3c e4 dc a9 bd
       -0.096965015 0.0268197 0.007952766 -0.08294085

focus_branch.0.bias f4 [64]
000000 7d a4 18 be 41 b9 ab ba c4 8d ca be 02 2f 43 be
       -0.14906497 -0.0013101475 -0.39561284 -0.19060901
000010 94 7e 78 bd 2e 80 87 be f2 38 05 bf d7 de a5 be
       -0.06066759 -0.2646498 -0.52040017 -0.32396576
000020 6b 3a 29 be 68 5a 61 bd b6 7a b3 3d bf 89 79 bd
       -0.16526191 -0.05501786 0.0876364 -0.06092238
000030 47 fc ff bc f3 cd 98 3e ea 1b 0b be 0c b9 80 3d
       -0.031248225 0.29844627 -0.13584867 0.06285295
000040 ec af b1 3e 60 21 69 be e4 a9 09 be f6 4b 15 be
       0.3470453 -0.22766638 -0.13443714 -0.14579758
000050 7c e5 1c be f6 64 78 bd c2 6c 56 bd 6f f9 a2 be
       -0.15321916 -0.06064316 -0.052349813 -0.31830928
000060 17 ef 3d be fe b4 94 bc d6 88 a3 be 85 78 27 bd
       -0.18548237 -0.01815271 -0.31940335 -0.04088642
000070 d0 81 42 be 7d d5 07 be 30 ac 6d bd be 02 76 be
       -0.18994832 -0.13265033 -0.05802554 -0.24024484
000080 0b 89 bb 3e 8a f9 48 3e 00 50 ff be 28 6f 0f 3e
       0.36627993 0.19626442 -0.49865723 0.14007246
000090 87 27 f0 bd 39 24 e8 bd a2 8b 72 3e 0e ac ec be
       -0.11726289 -0.11335034 0.23686078 -0.46225017
0000a0 93 df 36 be e8 ce 51 bd c5 15 eb be 7a e5 93 be
       -0.17858724 -0.05122271 -0.45915046 -0.28886014
0000b0 1d f1 00 bf 47 a7 9f be e8 da e2 be 11 80 57 be
       -0.5036791 -0.3118231 -0.44307637 -0.21044947
0000c0 58 62 87 3e 03 36 66 be 97 83 06 bd 38 77 e8 be
       0.26442218 -0.22481541 -0.032840338 -0.45403457
0000d0 68 b4 25 be cb 32 b8 be f2 ef ab be 6f 28 94 be
       -0.16182101 -0.35976252 -0.335815 -0.28937098
0000e0 bd b8 19 be 06 6d df bd 96 22 c6 bd e5 53 58 bd
       -0.15011878 -0.109094664 -0.096745655 -0.052814383
0000f0 2b c7 0d bf 94 ab 63 3e ad ba 1d be 66 5a db bd
       -0.5538203 0.2223342 -0.15403242 -0.107106015

focus_branch.2.weight f4 [2, 64]
000000 1f ea 2e 3d 06 42 eb bc 26 ea 10 3d c2 67 22 bd
       0.042703744 -0.028718006 0.03537955 -0.039649732
000010 04 48 ba bd 3d e7 16 bd 12 ba 61 bb a3 1e a0 3d
       -0.09095767 -0.03684162 -0.0034443182 0.078183435
000020 2a 13 8f 3d 1d 72 14 bc bf e1 9e bb ac 01 e7 3b
       0.06986077 -0.00906041 -0.0048486884 0.00704976
000030 0e 97 23 3d 53 2c 9e bd 40 ff ea bb e9 74 30 bd
       0.03993898 -0.07723298 -0.0071715415 -0.043080244
000040 b2 7a 98 bc 35 08 f9 bc 20 04 d2 3c 98 dd a8 bd
       -0.018613193 -0.030399421 0.025636733 -0.08245391
000050 65 0e 06 3b 70 64 86 3d 0b 1b e2 bd b7 2e fa 3c
       0.0020455357 0.06562126 -0.11040314 0.030539853
000060 c0 73 18 3d 2a e2 34 bd 00 1d cf 3c 46 28 ab bd
       0.037219763 -0.044161 0.025282383 -0.08357291
000070 d6 85 ba bc 60 ed 5d bd ac 4d ba 3c 17 e3 01 bd
       -0.022768896 -0.054181457 0.022742115 -0.03171071
000080 29 53 28 3d 08 11 dd bc 4d c6 56 3c 04 a4 80 bd
       0.041094933 -0.02698566 0.013108802 -0.062812835
000090 6c 41 8e 3d f1 9c 27 3c e4 73 6e bd 26 18 91 bc
       0.06946072 0.010230289 -0.05821599 -0.01771171
0000a0 e2 3f 98 3c 4c 57 3b 3d 0c 76 1e 3d 3a a9 01 3d
       0.01858515 0.04573755 0.038686797 0.031655528
0000b0 7f f0 91 3d 3e 9b 05 bc e2 42 c3 bc 68 90 bb bd
       0.07125949 -0.008154688 -0.023835603 -0.09158403
0000c0 b7 da ec bb ed d1 59 bd 49 8b 2f bb 1a 5f 38 bd
       -0.0072282213 -0.053178716 -0.0026785901 -0.04501257
0000d0 9e 0b df bd 53 20 38 3d c0 e7 15 bd 36 76 cc bc
       -0.10890888 0.0449527 -0.036597967 -0.024958711
0000e0 32 d4 7f ba a1 97 b6 bc 39 4d 9a 3c 85 93 9b bd
       -0.00097590976 -0.0222891 0.01883565 -0.075964965
0000f0 1d fb 85 bd ef b1 36 bd bf cb 3e 3c 27 64 8b bd
       -0.06542037 -0.044603284 0.011645257 -0.06806212
000100 d2 3a cd 3d eb 7c f6 3c e3 17 b2 bc 5b f6 b1 bd
       0.10020985 0.030088862 -0.021739906 -0.08689567
000110 ac 87 aa bc cb b8 2c bd 8b b3 44 3c fb 20 df 3c
       -0.020816647 -0.04216842 0.012005697 0.027237406
000120 cd c7 5d 3c 12 ac 44 3d c1 42 0b 3d a5 7c 5b bd
       0.013536406 0.04801566 0.03399921 -0.053585667
000130 a1 8c 93 bc 22 54 53 bd 92 89 ba 3c 24 06 b7 bd
       -0.018011393 -0.051593907 0.022770677 -0.08936718
000140 62 5f 78 3c d6 14 29 3c 2b 2f b0 bd e9 88 56 bd
       0.01515946 0.010319909 -0.086027466 -0.05237666
000150 68 e8 38 bd 4d 67 9e 3c 3c d6 9a bd 81 e4 50 bc
       -0.045143515 0.019336367 -0.07560393 -0.012749792
000160 99 e1 27 3d 13 ea 2a 3c 04 64 b4 bc 26 58 e4 bd
       0.04098663 0.010431784 -0.022020347 -0.111496255
000170 ef 4a a0 bc 0d 44 ba bb d5 8f 0e 3d 03 cd d0 3b
       -0.019566981 -0.005684382 0.034805138 0.0063720956
000180 07 e1 68 3d 37 41 59 3c cd bc 94 3d c7 f9 ef bd
       0.056855228 0.013260177 0.072625734 -0.11717563
000190 3d a6 f5 3c 36 96 4e bd 3b 35 df bd 73 cf 89 bd
       0.029986495 -0.05043622 -0.10898825 -0.06729021
0001a0 64 7b 27 bd 53 b7 a1 3c 35 32 c9 3c 06 8e 1b 3d
       -0.04088916 0.019740736 0.024560073 0.03797724
0001b0 2e 3e f1 3c 70 39 43 3d 70 49 a4 bd de d9 ba bd
       0.029448595 0.0476622 -0.080218196 -0.09123586
0001c0 6d 15 ae 3c 16 66 f7 ba 38 6b 56 bd 61 d0 4f 3b
       0.021250451 -0.0018875028 -0.052348346 0.0031709897
0001d0 be d6 78 bd 45 08 28 3d d7 d7 3d bd ca 14 82 bd
       -0.06075167 0.04102351 -0.04634842 -0.063516214
0001e0 94 88 1f 3d 55 8f 9b bd b5 69 a8 bc 26 f1 96 bd
       0.03894861 -0.07595698 -0.020558218 -0.07370214
0001f0 85 6d be bd 60 be ca bc 45 41 30 bd 42 c7 74 bc
       -0.09298233 -0.024748981 -0.043030996 -0.014940085

focus_branch.2.bias f4 [2]
000000 45 03 c3 be 60 67 ec 3e
       -0.38088432 0.4617262
