pth_origin/single_mlp_model.pth (torch, 132865 bytes, 12 tensors)

network.0.weight f4 [128, 58]
00000000: b56b ea3d 9278 b0bd 107f 283d c860 8b3c
00000010: 841b 57bd ff6f 2b3e acca b5bc 95fe 1cbe
00000020: 9322 84bc 60a5 873d 6b4d 55be 63cf 1abe
00000030: 3f07 223e 5ad1 ed3d d9a9 663e a23c cebd
00000040: 8c8f b13d b3bc 48bd df19 a3bc 29e7 7dbc
00000050: bdc1 d13d 29c1 f73b 3b41 343e 332d 69bb
00000060: d726 103d dea2 0ebe f53f 0b3e 95ec 063d
00000070: 0461 ba3d 27a4 e9bd 853c 0f3e 18e0 d23d
00000080: 4625 ebbd 53d3 83bd 7d2d babb 05df 9b3d
00000090: 1618 983c f2bd dabd 114e 323e b16b d5bd
000000a0: 714b 283c 3efc 79bc 6d0f 9d3d 7ddd 9abd
000000b0: 6f03 4f3d 84c1 2e3e f7a2 7d3b 7d95 dc3d
000000c0: 04ef 213e 03ce 6b3d 5394 9b3d cc14 0b3e
000000d0: 0580 7c3d ccad 6d3e 14c0 d03d 6079 ad3c
000000e0: 4d56 2f3e 390a efbc ef6f a43c 7071 03be
000000f0: 5395 9ebc 122b e13d 4851 5b3d ef17 723d
00000100: f441 debd d139 d23d 416f 803d ab5a 813c
00000110: 1635 2bbe 7db9 0abe c180 05bd 7bd7 373d
00000120: b68c e6bc f604 2e3d f415 cb3c ea15 39bd
00000130: b1c2 58bd f11b 263d 79a0 84bd cd50 2fbd
00000140: 13c6 0c3c d41e edbd 2e75 9a3d 316f af3d
00000150: 1066 033e 267d d03c 155b f2bd 5973 803d
00000160: c235 6cbd 0a3d 9c3d 4cdb b33d 05d7 833d
00000170: 31a7 52bd e86b 943d 7c32 a23d 994b 10be
00000180: 1f48 cc3d 04f7 3cbd 49e1 96bd 324f 1b3d
00000190: 44b1 6dbd 1806 143d 20d2 19be f18a 873d
000001a0: fc8c 8f3b d863 3d3d 2fd6 d5bd 6cb5 72bb
000001b0: 4f4a 26bd 7ce5 5a3b 48ba d5bc 2ea9 4f3b
000001c0: 51df e9bd 6c35 23bc 3208 803d a6fb d6bd
000001d0: 3059 4ebd f9ec 27bd f551 843d b357 06be
000001e0: ea9c 0fbe 092b b4bd ddfa 87bd 638c 093e
000001f0: 1045 893d 3334 f8bd 3b50 df3d acc2 143d
00000200: 00fc 38bd 9c03 2abe d643 6cbc 62d8 a73c
00000210: 1cc4 33bc d07e 6d3d b28b 96bc d6e0 aebd
00000220: 2aa9 f5bd 7bda 81bd d436 fd3d 3136 07be
00000230: 6c3d 91bd 06ee dbbb 415e 0bbe d965 55bd
00000240: a1b1 18be ac00 01be e478 00be bce7 82bd
00000250: d0d0 603d 0e74 62bd e44a 9d3d f2d9 0fbe
00000260: 80d8 15bd 84ef 003d 242c 36bd c87d a73c
00000270: 6ebe 8dbc 84b2 983d 3317 d2bd e8ee f2bc
00000280: 1182 c23d d1cb ab3d eec8 f3bd 6dbb 7f3d
00000290: 799e b3bd 7d80 ac3d 1d46 e4bd c437 55bc
000002a0: 5d30 c4bd b453 2fbe 01e7 05be b5bb 7f3c
000002b0: 39f9 0f3b 9bcd 74bd 8f9c 7a3e 7129 9a3d
000002c0: c99d 233e 28b8 ca3c 19c0 d3bd c6ed 473e
000002d0: 2697 ef3d 25ec a1bb 24f4 75bd e1c9 3b3e
000002e0: a21b 173e 722c 6fbe de23 523e 28fb 743e
000002f0: a6a0 723e 9326 173e 1e2c b73e eaf5 1a3e
00000300: aab1 f13c d12d 643d bc42 0c3e 25e8 ee3d
00000310: 5f23 793e dbe2 c73d 5296 a33d f950 c2bc
00000320: 3804 6f3e a78b fb3c d8fa 303e 60bf bc3c
00000330: f36f c8bb 4b45 a43d 72d6 403e ad9b 053d
00000340: e4d2 f9bb 4cbb 7bbd f305 d43d 65c5 543d
00000350: be98 11bd 3a3a 77bd d6cb a6bd efc6 b73d
00000360: 49e8 2f3d 0133 693e 0f9f 1d3e aab3 cc3d
00000370: 0ea3 d83d f47c 103e 4c0c a43e e93c 3b3e
00000380: cfcc f03d 5ddc 243e 6f68 603e 3e10 4e3e
00000390: aa55 563e 361c 843e 61fe 063e bb58 3e3e
000003a0: 37ec d33d f817 f23d 5cf5 be3d 20cb 803b
000003b0: 835c e83c 45d7 48bd 6856 e1bd e88d 4abd
000003c0: 35e9 893d 5d61 b93d 33ba 26bd 53be 0f3d
000003d0: 0679 2abd 7de3 c23d 7675 483d b6aa 78bb
000003e0: 6cbe c0bd 85a4 db3b cbc7 b7bd 5707 a93d
000003f0: f0e1 943d 3aba e7bc 81ea 903d 3c21 82bd
0.11446325 -0.08616747 0.0411368 0.017013922 -0.052516475 0.16741942 -0.022191368 -0.1533149
-0.016129768 0.0662334 -0.20830314 -0.15118174 0.15823077 0.11612196 0.22525729 -0.100701585
0.086699575 -0.049008083 -0.019909797 -0.015497007 0.10242031 0.0075608683 0.17603008 -0.003557992
0.03519329 -0.13929316 0.13598616 0.032940466 0.091005355 -0.11408263 0.1398793 0.10296649
-0.11481719 -0.06436791 -0.005681692 0.07610897 0.018566173 -0.106807604 0.17412592 -0.10420931
0.010271893 -0.015257893 0.07668958 -0.07561777 0.050540384 0.17066008 0.003870187 0.107707
0.15813833 0.057569515 0.0759665 0.13582152 0.061645526 0.2321083 0.10192886 0.02117604
0.17122765 -0.02917968 0.020072905 -0.12836242 -0.019358313 0.10994543 0.053544313 0.059104856
-0.10852423 0.10264934 0.0627122 0.015790304 -0.1671947 -0.1354732 -0.032593492 0.044883233
-0.028143268 0.0424852 0.024790742 -0.045186915 -0.052920047 0.04055399 -0.0647592 -0.042801667
0.008592146 -0.115781456 0.075418815 0.0856613 0.12831903 0.0254503 -0.11833779 0.06272001
-0.057668455 0.0762883 0.08782062 0.06437496 -0.051428977 0.07247144 0.079197854 -0.14091338
0.099746935 -0.04613401 -0.073671885 0.037917323 -0.05803038 0.036138624 -0.15021563 0.06618298
0.0043808203 0.046237797 -0.10441243 -0.0037034405 -0.04059821 0.0033400944 -0.026089802 0.0031686532
-0.11419547 -0.009961467 0.06251563 -0.10497217 -0.050378025 -0.04099748 0.064609446 -0.13119392
-0.14024702 -0.08797271 -0.06639645 0.1343246 0.06702626 -0.12119331 0.109039746 0.036318466
-0.0451622 -0.1660294 -0.01442047 0.020488922 -0.010972049 0.057982266 -0.018377159 -0.08538978
-0.11995156 -0.063405 0.12363973 -0.13204266 -0.070917934 -0.006711724 -0.13610174 -0.052099083
-0.1491151 -0.12597913 -0.12546116 -0.06391856 0.05488664 -0.05528646 0.076803 -0.14047983
-0.036583424 0.03147842 -0.04447569 0.02044572 -0.017302718 0.07455924 -0.10258331 -0.029654935
0.094974644 0.08388484 -0.11903559 0.062434603 -0.08770461 0.08422945 -0.111461855 -0.013013784
-0.09579537 -0.17121774 -0.13076402 0.015608718 0.0021968617 -0.059766393 0.24473785 0.075274356
0.15978159 0.024746016 -0.10339374 0.19524297 0.11698751 -0.0049414807 -0.060047284 0.1833873
0.14756635 -0.23356798 0.20521495 0.23923934 0.23694095 0.14760809 0.35775846 0.15132871
0.029503662 0.055707756 0.13697332 0.11665372 0.24329899 0.09760066 0.07987656 -0.023720251
0.23341453 0.03070624 0.1728319 0.023040473 -0.006116861 0.08021029 0.18831804 0.032619167
-0.007624017 -0.061457917 0.10352697 0.051946063 -0.035546057 -0.060358264 -0.08144347 0.089734904
0.042946134 0.22773363 0.15392707 0.09995206 0.10577975 0.14110166 0.32040632 0.18284954
0.11757814 0.16099687 0.21914838 0.20123383 0.20931116 0.25802773 0.13182975 0.18588535
0.10347789 0.11820978 0.09324142 0.0039304644 0.028364426 -0.049033422 -0.11002809 -0.04945174
0.06733934 0.09051774 -0.040704917 0.035093617 -0.041619323 0.09516046 0.048940144 -0.0037943549
-0.0941132 0.006702962 -0.08973654 0.08253353 0.07269657 -0.028287042 0.07075978 -0.06353995

network.0.bias f4 [128]
00000000: eaa4 223e 72e9 19be 045b ec3c 09d3 1e3e
00000010: b9a9 df3d eb51 fd3d fb64 bfbd 3f4a cfbd
00000020: 9662 053d acf3 373e b253 973d 9499 9d3d
00000030: 64ff b03d 2497 f5bd 6af3 363d 1c8b 8fbd
00000040: f26b 833d 1dd8 533c 5c1d 3f3d b9dd fcbd
00000050: 964e 163d f9c8 dbbd f625 4a3e 13bc 213e
00000060: 3983 023e dbfb b0bd fbd6 443e 8ea1 563e
00000070: c957 de3c 8db6 4eb9 4211 eb3d 8e3e 55bd
00000080: cc58 8f3d ddea 82bc cbd9 983c e128 f93d
00000090: 6c0e a03d 28e1 1b3e 37f2 8ebc 78d7 b93d
000000a0: f7a0 e0bd 2a56 f5bd a477 3ebd 4d9f 153e
000000b0: 24d8 49bc 7211 90bd ba67 933d a8ad be3b
000000c0: 10c9 3b3e 4062 ec3d 3aff 723a 0aa7 463d
000000d0: 4a59 af3d ba27 4b3c c95c bbbc 6039 b63c
000000e0: 74fe 77bd 3258 6b3e 2b67 eabd 43a8 54bd
000000f0: 098d ab3d 1079 b13e 3a71 fb3d cba9 43bc
00000100: 420c 443e 9a1e 55bc dbf2 ac3e d732 2b3d
00000110: f7c0 443e d102 fc3b fe73 e1bc 45df e9bd
00000120: e4bf ab3d ced3 413d a55f 24be e005 7d3d
00000130: 29eb a9bd dca6 713c 95f4 84bd 881d e4bd
00000140: 00e4 16bc e849 2fbd bfda 3d3e c60a 893e
00000150: c9b1 593d a5eb 9ebd f4c7 703e e9f1 8ebd
00000160: d622 8f3d c206 86bd a23f 02be 8110 153d
00000170: dd7e b2bd 94e0 2b3d add2 15bd 4ac4 9d3d
00000180: bbcc 14be 3a90 11be 4607 fabd 4675 5fbd
00000190: 3ec8 ce3d ac82 52be 7cd1 8bbd ca0d 57bc
000001a0: 8c42 a1bc 55fb 9dbc f841 ecbd d649 39bd
000001b0: 836b 4fbc 731f 0e3e 0440 573e 0c22 b73d
000001c0: 2ed6 b53c 1210 b13d 6679 21be d555 c63d
000001d0: 0f9c 43be 07b5 733d 9cb0 8bbd d70e 22bd
000001e0: ddbc 53be def8 e5bd 7bb1 dabd cb28 17bd
000001f0: 3086 a13e 9431 61bc c1a1 d5bd b063 6cbd
0.15883222 -0.15030459 0.028851993 0.15510191 0.10921044 0.1236914 -0.09345432 -0.10121583
0.032564722 0.17964047 0.073890105 0.07695308 0.08642462 -0.119917184 0.04466573 -0.07008955
0.06417073 0.012929943 0.04665886 -0.12346978 0.03669604 -0.10731692 0.19741043 0.15794401
0.1274537 -0.086417876 0.19222634 0.20960066 0.027141469 -0.00019713696 0.11477901 -0.05206161
0.069993585 -0.015981132 0.01865854 0.12166 0.07815251 0.15222609 -0.017449481 0.090743005
-0.109682016 -0.11979325 -0.046500817 0.1461155 -0.012319598 -0.070345774 0.07197519 0.0058190413
0.18338418 0.11542177 0.0009269599 0.048499145 0.085619524 0.012399608 -0.022871392 0.022244155
-0.0605454 0.22982863 -0.11445459 -0.05191828 0.0837651 0.34662676 0.12277456 -0.011942337
0.19145301 -0.013007784 0.33779034 0.04179653 0.19214235 0.0076907654 -0.02752113 -0.114195384
0.083862096 0.047321133 -0.1605211 0.06177318 -0.08296806 0.014749255 -0.06491963 -0.11138445
-0.009209633 -0.042795092 0.18540476 0.26766032 0.053148065 -0.077597894 0.23513776 -0.069797345
0.06989066 -0.06544258 -0.12719586 0.036392692 -0.087156035 0.04196222 -0.03657787 0.07703455
-0.14531223 -0.14215174 -0.122084185 -0.0545552 0.10096787 -0.2055766 -0.06827065 -0.013125846
-0.019685052 -0.019284884 -0.1153602 -0.04523643 -0.01265991 0.13879184 0.21020514 0.08942041
0.022196855 0.08645643 -0.15768966 0.0968434 -0.191025 0.059498813 -0.06820795 -0.039564934
-0.20677514 -0.11229108 -0.10678383 -0.036904138 0.3154769 -0.0137447305 -0.10431243 -0.057712257

network.3.weight f4 [64, 128]
00000000: 1462 0b3b 2847 f53c 0744 523d ba0b ebbd
00000010: 3f4a 85bd 653d d7bd 00d1 94bd 19d3 143d
00000020: f8fc 04bd a52a 823c e3c1 5bbd 138e 5cbd
00000030: 6962 29bd 3035 0ebd e48a 2a3d 182c 3b3d
00000040: ad0e 4bbd 01d3 d837 dc3e 4fbd a732 a03d
00000050: 4ea9 4bbd d0ee 5d3d f309 bfbd fc23 87bd
00000060: d3b5 60bd bdb2 103c 675d c8bd b038 84bd
00000070: 1660 1cbd c850 0d3d ad7e 4f3c 5a9c 2d3d
00000080: 16d0 483d 1f22 90bd 57e8 9fbd 8f99 c6bd
00000090: b9d9 7abd e4ad 95bd d7bd 81bc 6287 2e3d
000000a0: 1dce 92bd f2e2 58bd 9d50 0ebd b024 d9bd
000000b0: 062b 9b3c 9855 88bd 781c 82bd 128e 723d
000000c0: 00ae aabd 912e b3bd 5907 5ebd 7739 b0bd
000000d0: 4a21 a9bd 7f27 853d b458 513d 2616 b7bd
000000e0: 7a69 6f3d bc11 bcbd 6efb 843c 3ce0 9fbd
000000f0: 185f b6bc 30e7 d4bc ba45 2ebd 6a2a 4e3d
00000100: 7260 69bd b098 8b3d 5de6 2fbd cba1 a13d
00000110: 4ff5 8bbd a969 71bd 93d4 29bd f744 cb3c
00000120: 2e14 873c fd6e 2a3a 3f48 fbbc 8d02 92bd
00000130: ee1d 443d 26ab 16bd 2583 e4bc 1dc3 123d
00000140: 62c5 02be 03bf a5bd 63d1 0bbd 1a85 1cbd
00000150: 588a 8c3c 0643 593c 5f3e c23c 1301 acbd
00000160: df24 cc3c 2d3c 7e3d c21b e1bc 16df 58bd
00000170: bcd7 68bd 6db4 46bd 31c2 aebc 126c 843b
00000180: 1a11 4dbd fd84 803d c403 673d c0ae d23b
00000190: 4002 e33a 7ed8 9dbd 34a9 763d 5e59 b0bd
000001a0: f7af ed3b f0cc 20bc c44e 3abd 8bdb 2ebd
000001b0: 5604 91bd 5875 903c 8b07 abbd 1772 a8bd
000001c0: 2ca1 d3bd c9ea b4bd 5133 ea3c 21c9 883a
000001d0: bbff 25bd 5585 1c3d c411 333c 9675 27bd
000001e0: 66c3 af39 fc0a afbd 292d 7dbc ac00 82bc
000001f0: a48e 8abd f277 f5bc 683a f8bc 095b c3bd
00000200: a245 7ebc 495b d4bc a6b5 66bd 0f83 d5bd
00000210: 02c1 bebd e1c1 e93b a776 4e39 ccb6 82bc
00000220: 03be a5bd b78b 6dbc ef25 74bd 9957 a3bd
00000230: 66cb 2abd 4515 593c 4c8e 843d 77be 873d
00000240: 5967 86bd e0d8 3cbd f626 db3c 9b73 f3bc
00000250: 867b 47bd 2a3b 593d db6b 52bd 7344 b93c
00000260: 16b3 96bd 7bc3 db3c 84f1 7abd d9ce aebd
00000270: 317f 583d 8cf7 963c 7c5f a4bd 867e 763d
00000280: b39f 413b ec9d e5bc 8939 89bd 6161 c53b
00000290: 39e2 22bd 272e 19bd b595 793d 2530 01bd
000002a0: 760c b9bc af90 523d 3440 873c e183 9dbd
000002b0: f0f3 c2bd 0a22 9ebc 9ca0 03bc 91bd 0ebd
000002c0: d7c0 73bd 0347 6fbc 21ba 7dbd 9c0b 39bd
000002d0: 50da 793d cd78 44bd 7711 c8bd ce88 6dbd
000002e0: 1f79 52bc f0e8 20bd 7b32 19bd 7c74 adbc
000002f0: a094 43bd 6a53 89bc 84e0 78bd 9aed a2bd
00000300: c6aa 6ebc 93ed 153d c1ed 39bd 8b27 acbc
00000310: a098 6cbd e497 9a3d ffa6 93bb af4b bc3b
00000320: 6c0e a4bd 049f cabd 6841 86bd 4adf 213d
00000330: d81f 21bc 8f97 14bb 5c0b 6abd 0fbf 723d
00000340: 99de c63c 9dc8 093d 0000 82bc 9748 25bd
00000350: d0ce b33c d044 cabd 4eef e0bb 6a47 ddbd
00000360: 9b42 be3c e129 3cbd 5fb6 55bd 7477 69bc
00000370: 97f5 05bd b6f0 4abd c9e0 aabd 0196 83bd
00000380: c22c 94bd 4c0a 2c3d 71fc 423d 7cef eb3c
00000390: 78fa 78bd 389b ca3c 1972 9dbd 1c11 50bd
000003a0: 4df7 edbc 766b abbd de2d 3b3d 7530 abbc
000003b0: 1cae b1bd 68a8 25bd efda 20bd 00c7 c53a
000003c0: e809 36bd f5fa fbbb 6462 c43c a5f7 113c
000003d0: c26b 763d d479 3bbd d314 c5bd 3892 73b7
000003e0: 450e 093c 56ed 2c3d 4ebc 92bd 4dd9 a63d
000003f0: 7661 45bd 3fe4 4dbd 0131 243b aaab 54bd
0.0021268176 0.029941157 0.051334407 -0.11476846 -0.06508302 -0.10509757 -0.07266426 0.03633413
-0.032467812 0.015889475 -0.0536517 -0.05384643 -0.041353617 -0.034718692 0.041636363 0.045696348
-0.049574543 2.5847463e-05 -0.050597057 0.07822161 -0.04972201 0.054182827 -0.093280695 -0.0659866
-0.0548609 0.008831677 -0.0978344 -0.06456125 -0.038177572 0.034500867 0.012664479 0.042385437
0.04902657 -0.07037758 -0.07807987 -0.09697258 -0.061242793 -0.07308558 -0.015837593 0.04260958
-0.07168219 -0.052950807 -0.034744848 -0.10602701 0.018941414 -0.06656951 -0.06353086 0.05921752
-0.08333969 -0.08749116 -0.054206226 -0.086047105 -0.082583025 0.06501674 0.051109985 -0.08939771
0.0584502 -0.0918307 0.016233172 -0.07806441 -0.022262141 -0.025989145 -0.042546965 0.050333418
-0.056976743 0.06816232 -0.0429443 0.07892188 -0.06833898 -0.058938656 -0.041462492 0.024813158
0.016489115 0.0006501524 -0.030674098 -0.07129393 0.047880106 -0.036784314 -0.027894566 0.035830606
-0.12770608 -0.08093073 -0.034135234 -0.038212873 0.017155811 0.013260609 0.023711381 -0.083986424
0.024919925 0.062069107 -0.027479056 -0.052947126 -0.056846365 -0.04851191 -0.021332832 0.0040412033
-0.050065137 0.062753655 0.056400076 0.006429523 0.0017319396 -0.07707308 0.06021996 -0.086107954
0.0072536427 -0.009814486 -0.045485273 -0.04268984 -0.07080905 0.017634079 -0.08351048 -0.08224886
-0.103334755 -0.08833844 0.028588923 0.0010435918 -0.040527087 0.038213093 0.010929529 -0.040883623
0.00033524184 -0.08547017 -0.015452662 -0.015869461 -0.06765488 -0.029964421 -0.030301288 -0.09538848
-0.015519531 -0.025922434 -0.056325577 -0.10425388 -0.09314157 0.007133708 0.00019689892 -0.015956305
-0.080928825 -0.014498643 -0.05960649 -0.07975692 -0.041697882 0.0132497 0.064724535 0.06628125
-0.06562681 -0.046105266 0.026751976 -0.02971821 -0.048701786 0.05303494 -0.05137239 0.022615647
-0.07358377 0.02682661 -0.061265483 -0.08535547 0.052855674 0.018428586 -0.08026025 0.060179256
0.002954465 -0.028029405 -0.06700427 0.0060235714 -0.039766524 -0.03739753 0.060933787 -0.031540055
-0.02258895 0.051407512 0.016510107 -0.076911695 -0.09519184 -0.01930334 -0.008033898 -0.034848753
-0.05951008 -0.014604333 -0.061945084 -0.045177087 0.060999215 -0.047966767 -0.09768956 -0.057991795
-0.01284626 -0.039284647 -0.037401658 -0.021173708 -0.04774916 -0.016763408 -0.06076099 -0.07955475
-0.014567083 0.03660352 -0.045392755 -0.02101495 -0.057762742 0.07548502 -0.0045059915 0.005746327
-0.08010563 -0.09893611 -0.06555444 0.039519586 -0.009834252 -0.0022673344 -0.05713974 0.05926424
0.024276065 0.033638585 -0.01586914 -0.04035243 0.021949202 -0.09876406 -0.006864465 -0.10804637
0.02322512 -0.045938376 -0.052175876 -0.014249671 -0.032704916 -0.049545966 -0.083436556 -0.06425095
-0.072350994 0.042002007 0.047604028 0.028800718 -0.06078574 0.024732217 -0.07687778 -0.050797567
-0.029048586 -0.08370106 0.04569804 -0.02089713 -0.08675787 -0.040443808 -0.03927129 0.0015089214
-0.04444304 -0.0076898285 0.023972698 0.008909141 0.06016136 -0.04577048 -0.096231125 -1.4517973e-05
0.0083652185 0.04221853 -0.071648225 0.081469156 -0.04818865 -0.0502665 0.0025053623 -0.051921524

network.3.bias f4 [64]
00000000: 9157 ecbd 46a5 c7bd cdc4 13be 255d 41be
00000010: 9485 cfbc c251 03be d9d2 6abd 23a4 033d
00000020: 25f6 01be 17a7 06be 0e73 313d 5d22 28be
00000030: 0ccd 7abd 96f2 9abb 5ef0 bbbd 7e81 dcbd
00000040: cb53 8b3a e200 8fbd 2edd babd 6263 7ebd
00000050: 2988 dfbc a367 85bd e54e 94bd b8a9 21bd
00000060: eebb 1ebe 7563 65bd 4459 35bd 43c5 e0bd
00000070: eb3a 76bd 2193 a9bd 0401 0fbe ecb1 17be
00000080: 0143 20be 990a e3bd 1fa5 25be 1226 763c
00000090: e1ef 01bc 9da7 df3b 4045 dbbd f965 edbd
000000a0: 2eac c7bd 63a9 e73a 8897 19be e768 79bd
000000b0: 09ba e4bc 5982 5dbd b147 8ebd 639a eabd
000000c0: 0c12 03be 51f0 5abd 3022 0bbe 2b0b 73bd
000000d0: b2ab bebd c71f 06be edb4 8cbc 49d5 aabd
000000e0: e86e 79bd 2492 0dbd b5cc c9bc e63f 1fbd
000000f0: d01e 08be 18fb d9bd d06b 9abd 59a9 86bd
-0.115401395 -0.0974832 -0.14430542 -0.18883188 -0.02533225 -0.12824157 -0.057329986 0.032138955
-0.12691553 -0.13149677 0.043322615 -0.16419359 -0.061230704 -0.0047286255 -0.09176706 -0.10766886
0.0010629831 -0.0698259 -0.09124218 -0.062106498 -0.027286606 -0.06513908 -0.072416104 -0.039468497
-0.15501377 -0.056003053 -0.044274583 -0.10975125 -0.060114782 -0.08280016 -0.13965231 -0.14813966
-0.1565056 -0.11086006 -0.1617627 0.015023725 -0.007930727 0.006825401 -0.10706568 -0.11591715
-0.097496375 0.0017674383 -0.14999211 -0.06089106 -0.02792074 -0.054079387 -0.06947268 -0.11455228
-0.12799853 -0.05345184 -0.1358726 -0.059336822 -0.09310092 -0.1309806 -0.017176116 -0.08341462
-0.060896784 -0.0345632 -0.024633745 -0.038879298 -0.13293004 -0.106435955 -0.07540095 -0.06575269

network.6.weight f4 [8, 64]
00000000: 5267 cfbc 42b7 efbd 2a41 e1bd fbd7 953d
00000010: d81b 433d 0e33 ec3c 5c4e 1e3d a9f2 85bd
00000020: 124e 283d a298 c73d d5dc de3d ed27 a1bb
00000030: 49f2 b43c cf7c 8ebd 8dbf e7bd 2376 a53d
00000040: 1a55 733d 67d2 6ebd a089 d9bd 45e3 b8b9
00000050: ca0c 113c 6c5c 253d 7f10 7f3b d437 c0bd
00000060: d845 503d f5ee 88bd 32c6 d3bd 83b0 a6bd
00000070: 7669 42bb 00cd 56bd e3b1 e53b 1232 1c3d
00000080: 5574 2c3d 4807 3a3d 4703 94bd 427a 82bd
00000090: 81e6 383d e88b 9abc f455 863d 977a 4dbd
000000a0: 3f56 bebd 42fa 4b3d a264 9d3d c673 55bd
000000b0: 58c1 b8bd 654c aabb a6ae a73d eb28 25bd
000000c0: 1d24 9cbd aeec cabd c4ca ffbc c42a 863d
000000d0: 875a f23d 60f4 e4bd b682 b23d 8e4f 873d
000000e0: ed02 763d 9396 2dbd 3d7d d23a 18e3 a83d
000000f0: 6c71 f9bc 462d 25bd d3b1 1fbb dc48 0e3d
00000100: e52b ef3d 7962 5c3d 3675 dfbc a535 c2bd
00000110: 6bed 133d e738 91bd 5321 903d 802b 44bd
00000120: d9b8 b23d 8153 a23d 988d 163d 0b03 6bbd
00000130: 26ef 843d 3fcf c13d 9689 583c 90ba c33d
00000140: 4ffe 16bd 14bb 213d f85a e5bd 2bc5 1d3d
00000150: 76c8 58ba 5d8f aa3d 61c7 903d cfae cb3c
00000160: 83ec ccbc 9c4a f03c a7ac aa3c 2448 9e3c
00000170: de8a 82bc 4655 abbd 93a3 293d e5b9 6dbd
00000180: f9da 47bd 3f12 b8bc 85cb 7fbd 124b 853c
00000190: 2bfa 513d f767 e6bd 31a6 b93d 7a17 bf3c
000001a0: 0539 b5bd b2dd 42bd 917b 493d 6130 83bd
000001b0: f3bc b33d 4b76 62bc 2ba3 3e3d 4e9f afbd
000001c0: 7ee2 b63d 8285 bcbd e27f c3bd b9af 6f3d
000001d0: ab9b 9bbd 80b7 38bd c2e3 8abd 283a a23c
000001e0: f761 323a f1b7 86bd f7c5 c2bd 211d cfbc
000001f0: 4678 673c f0d1 9fbd 9097 85bd 5517 b3bd
00000200: 679a 97bd 33fa b93d 0901 aabd d06d 8f3d
00000210: ee49 393d 0a5c 6e3c aa27 7dbd 4291 823d
00000220: 7c1d 703d fe3f ea3c c64e bebd 51f5 343c
00000230: af8e 6d3c 580c 4fba 5e65 eabd ac3d 34bd
00000240: e0b8 7f3d e0e4 4d3d 4ed9 debd 6d71 6e3d
00000250: 18ba a9ba 9a61 06bd f295 713d 6863 a2bd
00000260: 5503 543d 6d25 5abd 7385 8cbd d71f 0e3d
00000270: e642 1b3c c77b e7bd aac1 89bc f71a 9bbd
00000280: a7f1 bb3c ac0e 1a3d 84e1 bf3d 78f2 c5bb
00000290: b400 c23d c4c4 3bbd 0397 4f3d b853 cebd
000002a0: 422c fc3c cf33 4f3d f247 14bd 6768 3fbd
000002b0: 9c1c 933c 775b 83bd 21ee d3bd 7326 bdbd
000002c0: e1b2 863c 6d06 1bbd 140d 51bd 3e25 0a3d
000002d0: 1df7 6c3d ec1f 98bc 1e46 afbd 167e 3d3d
000002e0: e16c ca3d 8123 4f3d edbf bebc 0b38 07bd
000002f0: 9fc4 41bd c0bc 853d 479a d03d bdbe 1dbd
00000300: c774 613d c24b 79bd f442 963d 6c20 3cbc
00000310: 4b4b 563d f6b3 d73c c7eb b7bd da84 3abc
00000320: 64cb b63d a222 aa3b 651b 3bbc 08fa 403d
00000330: 2dd0 d7bd 7ede 80bd efe7 643d 6a97 da3c
00000340: 8bd8 883d 2449 f13d 546c a83d e39c 963d
00000350: b701 f139 ddf0 74bc 4015 063d 2ba9 3e3d
00000360: 09e4 bd3c 0504 5b3d 3912 a2bc 540f 003d
00000370: f87d 4ebd f036 513c 632d 44bd 5963 94ba
00000380: 0af5 043d 9cdb 803d 8e6f 103d 26ce 33bc
00000390: 66ed a5bd bb32 78bd d3a8 143d c8d5 113c
000003a0: 75ae bfbd 9e99 45bd dc3c aebd 98a8 d33b
000003b0: 33b0 9d3d c073 3b3c 2191 1b3c b336 263d
000003c0: d981 afbd 9ef7 a53d 74a7 72bc c1d1 36bd
000003d0: 98a2 183d ba60 35bd 6692 e23c 1aca ccbd
000003e0: fe56 ce3d 9b96 3d3d 8790 df3b 0b3a bbbd
000003f0: f43d 093d 25be 39bd bd8f 99bc 98b1 e73c
-0.025317822 -0.117048755 -0.10998757 0.07316586 0.047633976 0.028832939 0.038648948 -0.065404244
0.04109008 0.09745909 0.10881964 -0.0049180896 0.022088187 -0.06957399 -0.11315832 0.080791734
0.05940733 -0.058306124 -0.10621953 -0.00035264544 0.008853147 0.040371343 0.0038919745 -0.09385648
0.05084786 -0.066862024 -0.10340537 -0.08139136 -0.002966491 -0.052441597 0.007009731 0.03813369
0.04210313 0.0454171 -0.072271876 -0.06370975 0.0451417 -0.01886554 0.06559363 -0.05016574
-0.09293794 0.04979921 0.0768521 -0.052112363 -0.090212524 -0.005197095 0.081876084 -0.040322226
-0.076240756 -0.09908424 -0.031224616 0.06551126 0.11833673 -0.11179423 0.087163374 0.06606971
0.060061384 -0.042379927 0.0016059052 0.0824644 -0.030449592 -0.04032638 -0.0024367466 0.034737453
0.11678294 0.05380485 -0.02727757 -0.09482888 0.03611509 -0.070909314 0.07037606 -0.047893047
0.08726663 0.07926083 0.036756128 -0.05737595 0.064909264 0.09463357 0.013216397 0.09557068
-0.03686362 0.039485052 -0.111989915 0.038518112 -0.0008269617 0.083281256 0.070692785 0.024863629
-0.025015121 0.029332452 0.02083428 0.019321509 -0.015935358 -0.08365874 0.041415762 -0.05803861
-0.048792813 -0.022469638 -0.06244995 0.016271148 0.05126397 -0.112502985 0.090649016 0.023326624
-0.08848766 -0.047574706 0.049190108 -0.06405712 0.087762736 -0.013822149 0.046542328 -0.08575307
0.08929919 -0.09205152 -0.09545876 0.05851719 -0.07598051 -0.045096874 -0.067817226 0.019803122
0.0006804759 -0.06578053 -0.09510415 -0.025282444 0.0141277965 -0.07803714 -0.06523049 -0.087446846
-0.07402497 0.09080925 -0.08300979 0.07003367 0.04523652 0.014548311 -0.061805405 0.06375362
0.05862187 0.028594967 -0.092923686 0.011044816 0.01449935 -0.00078982627 -0.114451155 -0.044004127
0.06243217 0.0502671 -0.10881291 0.05821364 -0.0012949137 -0.032807924 0.05898089 -0.079291165
0.05176099 -0.05325835 -0.06861391 0.034698334 0.009476399 -0.113029055 -0.016815979 -0.075735025
0.022942377 0.03761165 0.093691856 -0.0060408674 0.0947279 -0.045841947 0.050681125 -0.10074562
0.030782823 0.050586518 -0.036201425 -0.046730425 0.017957978 -0.0641393 -0.10348154 -0.09235849
0.016442718 -0.037847925 -0.051037863 0.033726923 0.057852853 -0.018569909 -0.08558296 0.046262823
0.09884048 0.05057097 -0.023284877 -0.03301243 -0.047306653 0.06530142 0.10185676 -0.03851198
0.05504301 -0.060863264 0.07336989 -0.011482339 0.0523179 0.02633093 -0.08980518 -0.011384213
0.089255124 0.005192117 -0.011420106 0.04711345 -0.10537753 -0.06292437 0.05588525 0.026683528
0.06681927 0.117815286 0.08223787 0.073541425 0.0004596838 -0.014950004 0.03273511 0.04654805
0.023180025 0.05347063 -0.01978408 0.031264618 -0.050413102 0.012769446 -0.047894847 -0.0011321112
0.03246025 0.06291887 0.035262637 -0.010974443 -0.08101921 -0.060595255 0.036293816 0.008901067
-0.09359447 -0.048242204 -0.08507702 0.006459307 0.07699623 0.011441171 0.009495051 0.04057951
-0.08569688 0.0810387 -0.014810432 -0.04463363 0.037264436 -0.0442817 0.027657699 -0.09999485
0.10075186 0.046286207 0.006822649 -0.0914193 0.03350635 -0.04534735 -0.018745298 0.028282925

network.6.bias f4 [8]
00000000: 367b 12bf 437f cc3e 293c cfbe 1e67 c8be
00000010: 0b40 63bf c4ac 413f b67f 6cbe a288 3ebe
-0.57219255 0.39940843 -0.40475586 -0.39141172 -0.88769597 0.75654244 -0.23095593 -0.18606809

network.0.weight f4 [128, 58]
00000000: 8517 8b3e 125c 1a3d 57a9 61bc a050 a33b
00000010: 42b6 213e 96ae 88bd c0f2 37bc d649 043e
00000020: 7912 48be 7986 5f3e dc54 02bc eed8 76bd
00000030: 4398 273e c3c4 583e d3fb 243e 0cb5 d73c
00000040: 85ba 0b3e 78ca 243e 1001 c23d 6d8f ab3d
00000050: 271e 793d b096 853e a7f8 143e fb7e ad3d
00000060: 318e 69bd d806 193e ef62 56bd 7453 0a3e
00000070: 3e0d 3a3e 0d22 513d a78e ac3d 73e6 19be
00000080: f168 f9bb a823 54bd f1dc 1dbc d39a 33bd
00000090: 7a9b 06be cf3b 65bd d5b5 01bb 0832 2fbd
000000a0: ef38 02bd 8a4c a3bc 2b99 a8bd 9c45 a63d
000000b0: d983 9ebd 8fa6 043e 4993 f23d 3c31 dd3b
000000c0: e6de 573e 7acc 863e 60c6 cf3d c64c 3a3e
000000d0: d629 163e 6382 1e3e 577d 6d3e eb35 343e
000000e0: 023f 463e e3fb 353e 4112 1a3e a4ab 2ebd
000000f0: de60 113e c857 e4bc 31fe 703d d167 b93d
00000100: 026c 7abd ffd3 f5bd 4b74 c73d 0662 6d3d
00000110: 23c5 be3c 3bc4 09bd 7512 083e ddbc 1a3e
00000120: e0ce 6d3d 0323 733c c543 b03d 2efa ff3d
00000130: cd4b a03d ca55 35bc 3ad1 b4bd 1c80 b6bc
00000140: aa20 a6bd 0ead a8bc b40f b23d c242 0d3e
00000150: edfa e03c d932 dd3d 83a7 b2bd 1f14 173c
00000160: 7d8f ffbd cefe 083d 7479 b53d be23 a33d
00000170: ce0c 103d b1ad e23c 57fc 923d e6f7 463d
00000180: 6d64 e0bc a884 863d 119b 013e b7eb fbbd
00000190: 25ac 71be a32c 8fbc b458 a7bd fa74 773d
000001a0: 15cd c03d 5f63 ce3c 8726 ee3c 4be5 393e
000001b0: b7f9 563e a0fe 563e 8e74 273e b5ba 403d
000001c0: 6d39 183e 06cf 4f3e 7714 343e 03bf 113e
000001d0: bb27 e93b b9d7 1d3d 3b02 2d3e eee7 ccbd
000001e0: e03e 653d d333 2c3e e80b 913d d0fc 073d
000001f0: 107c edbd 44f6 9dbd 5cd8 713d 09b4 9dbd
00000200: d5f8 14be 1e71 f5bd ead5 3b3d 37ed 23be
00000210: b23c 32be c0c2 fd3c 81c8 ec3c b2fa e5b9
00000220: b38f 5b3d ddec 65be 4e79 343c 3744 b73d
00000230: 5cd0 3e3e d92a 12be 8f67 cc3d 9a5d ff3d
00000240: c969 983d d36f d0bd 131d b13c 7d8a 033e
00000250: 5479 27bd 9cb9 7dbc 5b96 a63d 93a4 27bd
00000260: 2339 a0bd 4c50 f33d 6f19 5e3c a0dc c63d
00000270: 3f5f debc 1177 d33d 86e1 823c 4f00 1c3e
00000280: 7365 88bd 5afb 30bd 7df0 eabd 901f 0e3e
00000290: e29f f3bd 2eea 98bd fd05 14bd 81eb 0cbd
000002a0: ec19 1fbd dac8 4bbd 46d2 2bbd 418f 163d
000002b0: 67a8 383d 454f 66bd 5754 553e e7d9 debd
000002c0: 5e1d b53d f34d b8bd aa7e 923d a769 273e
000002d0: 3048 84bc 2906 8dbe 350a de3c ad06 853e
000002e0: 8b74 87be 0856 73bd f0ae a63d 32ba 8c3e
000002f0: 43e6 6a3d 052b 8b3e 9a20 8e3e ec4c 223e
00000300: 999e d93b 1363 78bc f4f7 363d 64e4 433e
00000310: b574 283d c357 2f3e e25c a4bd 4a71 febc
00000320: cead 6d3b f089 a63d 8c12 0dbe aa21 8b3e
00000330: 9b74 233d 238e d23d 0c0c a43c 028b a8bd
00000340: e23f 8bbd 34e8 bcbd 9d58 133e c0fe 263d
00000350: 8684 bc3d 0c80 ff3d 68fd d5bd 2445 a53d
00000360: 323b 16bd ec75 733d 2958 853e b2c5 e6bc
00000370: a1a7 403e 38cb 8bbd 0451 bf3e 7a99 d13e
00000380: 974e 3f3e a3e8 1a3e c1b0 743e b9c1 213e
00000390: d1ec 683e 6061 b33e 2396 e13d 1daf 6e3e
000003a0: def5 423e 027a 94bd cc6c c83d 0633 c13d
000003b0: 0820 13be 4a44 6abb 240b 82bd 19ae 0cbe
000003c0: 45f8 21be 06fd c53e 9737 ec3d b978 18bd
000003d0: 9319 273e c070 c33d b07a 863e 1d77 4f3e
000003e0: 4bac c13e 3125 d73d a8ec be3d 6360 523e
000003f0: 723c 7a3e 6949 b43e 8ac1 4d3e 5b47 893e
0.2716638 0.03768546 -0.013773284 0.0049839765 0.15792182 -0.066739246 -0.01122731 0.12918791
-0.19538297 0.21828641 -0.007954802 -0.060265474 0.16366677 0.21168809 0.16111688 0.026331447
0.1364537 0.1609286 0.09472859 0.08376966 0.06081977 0.26091528 0.14547978 0.08471485
-0.05702037 0.14944017 -0.052340444 0.13508397 0.18169114 0.051057864 0.08425646 -0.15029316
-0.007611387 -0.051791817 -0.009635196 -0.043848824 -0.13145247 -0.05596524 -0.0019792218 -0.042772323
-0.031792577 -0.019933958 -0.082323395 0.08118746 -0.07739992 0.12954162 0.11844499 0.006750254
0.21081123 0.26327878 0.10145259 0.18193349 0.14664397 0.15479426 0.23192345 0.17598693
0.19359973 0.17771868 0.15046026 -0.042644158 0.14197108 -0.027873889 0.058836166 0.090530045
-0.06113816 -0.12003326 0.09738978 0.05795481 0.023287361 -0.033634406 0.13288291 0.15111108
0.05805862 0.01483989 0.08606676 0.1249889 0.07826958 -0.011067817 -0.08828969 -0.022277884
-0.08111699 -0.020590331 0.086944014 0.13794997 0.0274634 0.10800714 -0.087233566 0.009221106
-0.1247854 0.033446126 0.08861056 0.07965802 0.03516846 0.027670713 0.07177036 0.048576258
-0.027391637 0.06568271 0.1265681 -0.123008184 -0.23600824 -0.01747734 -0.08171216 0.060414292
0.09414116 0.025193868 0.029071106 0.18153875 0.20993696 0.20995569 0.16353056 0.047053058
0.14865656 0.20293817 0.17585932 0.14233021 0.007115332 0.038535807 0.16895382 -0.100051746
0.055968165 0.16816644 0.07082349 0.033200085 -0.11595929 -0.07712987 0.059044227 -0.077003546
-0.14548047 -0.11984466 0.0458583 -0.16008459 -0.17405966 0.030976653 0.028904201 -0.00043865066
0.05360384 -0.22453637 0.011015249 0.08948558 0.1863417 -0.14274158 0.0998069 0.12469025
0.07442052 -0.10177579 0.021620309 0.12845798 -0.040887192 -0.015486147 0.08134147 -0.040928435
-0.07823398 0.1188055 0.0135558685 0.0971005 -0.027145026 0.103254445 0.015976679 0.15234493
-0.06659975 -0.043208458 -0.11471651 0.13879228 -0.118957296 -0.07466541 -0.036138523 -0.03440428
-0.03884308 -0.049752094 -0.04194858 0.03675771 0.045082476 -0.05622794 0.20832954 -0.10881405
0.08843492 -0.08999243 0.071530655 0.16348897 -0.016147703 -0.27543762 0.027104476 0.25981656
-0.26456103 -0.059408218 0.081388354 0.27485806 0.0573485 0.2718126 0.27759248 0.15849656
0.0066412208 -0.01516034 0.04467006 0.19130093 0.041126925 0.17123322 -0.080255285 -0.03105988
0.0036266926 0.08131778 -0.13776606 0.2717412 0.039906126 0.10281017 0.020025276 -0.08229639
-0.06799294 -0.09223977 0.14389272 0.040770292 0.09204964 0.12475595 -0.10448724 0.08069828
-0.036677547 0.05943863 0.26043823 -0.02817044 0.18813945 -0.0682587 0.37366498 0.40937406
0.18682323 0.15127806 0.23895551 0.15796556 0.22746588 0.3503523 0.110149644 0.23308988
0.19039103 -0.07249834 0.09786376 0.0943356 -0.14367688 -0.003574627 -0.06349781 -0.13738288
-0.15817364 0.38669604 0.115340404 -0.037224505 0.1631835 0.0954299 0.26265478 0.20260282
0.37826762 0.105051406 0.09322482 0.20544581 0.2443712 0.35212258 0.2009336 0.26812252

network.0.bias f4 [128]
00000000: 488c 5f3e 5b07 ff3d 5ab1 2ebd 9586 323e
00000010: a6c6 c13e fafd 913d 8615 56be cd55 ae3d
00000020: eb82 7fbd 64cd acbc 45c5 15be aaee 8fbe
00000030: be5e f9bd bfe8 d4bb 1682 943d 08b4 5cbd
00000040: 0726 38be 9f15 b13d bd1c 373d feac 03bd
00000050: e288 dabd 86c4 ac3d 40ea 94bc 242b 703e
00000060: 40c1 2d3d 114f 34bd 3539 9f3d 60e5 febb
00000070: 24bd 91bb 2589 8b3d 8fd2 363e cf85 14be
00000080: 9796 653e 438f 093e c99b 353c 4f42 fa3c
00000090: 2ab2 213c 24d2 d5bd fb89 5b3d aaf7 933d
000000a0: d051 a13d f0ca 94bd dc4b b0bd b3d2 14bd
000000b0: f6b8 0abe 52bc 0ebd a4cd ffbd 7e50 17be
000000c0: 82fd 09be e33b 93bd e695 9dbd 484b 8b3e
000000d0: 36fe b43c fc8e 48bd 7fa7 763d 3a06 a6bc
000000e0: 8616 cf3e 8cf2 a1bd 2a4a 9b3e d387 5dbd
000000f0: ff78 913d 5ac0 f8bc 0494 a63c 0b61 cd3d
00000100: 19fb 093e 115d c6bd c09a c4bb 0eff f8bd
00000110: f8ed 11bd d49e a43d 2b96 c3bd a850 ecbd
00000120: b79c 6abd bd2e d73d 98d8 543d f647 943b
00000130: d93a 8dbd b891 0b3e ecc8 9cbd 6a6d 6f3b
00000140: c676 443e 2627 a7bd dafc 9b3c f0b5 963e
00000150: b7e9 033c dad1 8b3e 2019 343e efd2 d23d
00000160: 9d2c c13d 8ab7 70bc 6c8e a7bb f05f de3c
00000170: bba7 963e c57c 28be ee41 263e a0ae 123d
00000180: 41ce 95bd 2335 93bd 7891 e4bc ac2e 8f3d
00000190: 7b7d d1bd dbf8 573d 9158 e6bd b9d6 713d
000001a0: 714f 033e ba1e bebc f85f 4abd 0d42 7bbd
000001b0: 3c8f 30be 7cc4 2b3d 108b b7bd de8a 42be
000001c0: 94bf 2b3a 8ab7 89bd a20f 25be 2d2d 0fbe
000001d0: 56fd 8cbb d004 413a 29c9 bfbd 0577 f6bd
000001e0: 6ebe 13be b18c a9bd 5a21 eebc bb80 b3bd
000001f0: 36b4 0abd db3c 90bc 86e1 29be e067 333e
0.21830857 0.12452575 -0.042649604 0.17434151 0.3784687 0.0712852 -0.20906648 0.08512459
-0.062380712 -0.021094032 -0.14626034 -0.28111774 -0.12176274 -0.006497472 0.072513744 -0.05388263
-0.17983256 0.08646702 0.04470514 -0.0321474 -0.106706396 0.08435921 -0.018178105 0.23453957
0.042420626 -0.044020716 0.07774583 -0.0077788085 -0.004447596 0.068132676 0.17853759 -0.14504169
0.22420727 0.13433556 0.011084505 0.030549197 0.009869138 -0.10440472 0.053598385 0.072249725
0.078769326 -0.0726527 -0.08608219 -0.03633375 -0.1354712 -0.034847565 -0.12490395 -0.14776799
-0.13475612 -0.07189157 -0.076946065 0.27205873 0.022093873 -0.048964486 0.06021833 -0.020266641
0.40446872 -0.0790759 0.3033002 -0.05408461 0.07103156 -0.030365158 0.020334251 0.10028275
0.13474692 -0.0968572 -0.005999893 -0.12158023 -0.035627335 0.080381066 -0.09550127 -0.115388215
-0.05727836 0.105069615 0.051964372 0.00452518 -0.0689599 0.13629806 -0.0765551 0.0036533722
0.19185933 -0.08161764 0.019041467 0.29435682 0.008051327 0.27308542 0.1758771 0.10294139
0.094323374 -0.014692197 -0.0051134136 0.027145356 0.29424843 -0.16453846 0.16236088 0.035811067
-0.073147304 -0.071878694 -0.027901396 0.06991324 -0.102290116 0.05272756 -0.112473615 0.059042666
0.12823273 -0.023208011 -0.04940793 -0.061342288 -0.1724214 0.04193543 -0.08962071 -0.18998286
0.00065516797 -0.067244604 -0.16119245 -0.13982077 -0.004302661 0.0007363083 -0.0936454 -0.1203442
-0.14428112 -0.08278788 -0.029068638 -0.08764788 -0.03386327 -0.017607143 -0.16589937 0.17520094

network.3.weight f4 [64, 128]
00000000: 407b fcbd 4984 adbd 43a1 97bc 2271 78bd
00000010: 0612 9ebb 7004 fbbc 4db9 253d 9c70 d2bd
00000020: 2b3a a13c a6a1 9bbd e54d 4bbd 4cc1 5d3c
00000030: b9a9 1bbd 2843 92bd de9b 45bd 650b 93bd
00000040: 4ddd bfbd 23c8 0ebd 1391 9abb 2673 3c3d
00000050: 8f14 1cbd 45a9 d8bd 19c0 e43c cc81 1abc
00000060: c6ca 443d 1841 ae3d e2cd 383b 1d06 19bd
00000070: 2169 d3bd 348b 3bbd 2f10 9dbd ccc9 d13b
00000080: 1dd4 93bd 147f 933b 0aeb 4dbd adc3 ae3c
00000090: d616 0b3d ef22 f93c 4427 783b 08c5 bdbc
000000a0: 6087 f23c 010f 79bb 93cb 94bc 3c7d e23c
000000b0: 4148 143c 428e 713d 48ed 4e3d 3124 40bd
000000c0: 8dc8 90bd 216c 11bd e37b 173d 224c 22bc
000000d0: a836 bcbd bfe7 a1bd 8ef7 03bd 74c9 093c
000000e0: fece 87bd d382 803d 4a64 86bd c7f1 4fbd
000000f0: 7548 59bd d55e 18bd 63bf cb3c 24bf e1bc
00000100: 214d 563d 3c06 32bd bdcb bbbd 9a10 3cbd
00000110: 710e 0ebe e6c8 a8bd 38ee b93c 11e8 eb3c
00000120: 7010 903c 36bb edbd 8235 d9bc 1812 a1bb
00000130: ef37 7b3c e30f 17bd b53f 863d 4a2c 55bd
00000140: 2676 09bd 2b5b 87bd b5bf 21bd 0918 32bd
00000150: b4aa ccbd 54b5 0bbd f309 c4bd b070 72bd
00000160: b4f4 d6bd 5ae1 b5bd cbdb fdbd ea26 cb3c
00000170: 13f5 97bd 6e2a b03d f4e4 b4bd b734 89bd
00000180: 7f3e 0dbc dd18 d9bd 0ef3 3f3d 27ec 3fbd
00000190: d3f2 86bc ae19 c93c c418 093d d7a6 aa3d
000001a0: 199e d6bd 20c4 b2bb 2675 8ebd b962 c4bd
000001b0: 0c29 093d 2ee7 06bd 6365 b03c 7a08 ff3c
000001c0: c0ac 2f3d 11d2 9f3b 1856 03bd 84e6 50bd
000001d0: 35cd 913d 052c 88bd 6d37 debc 8229 e4bd
000001e0: 3157 38bd 3adb 863c 673e 843d beb9 013d
000001f0: 1e0a afbb 2e66 d2bc 7aa2 8ebd 171f dabc
00000200: 0efe dfbc 74d8 a8bd 7261 25be 792e e0bd
00000210: ba0d f8bd 3e87 91bd e3f7 29ba 173e b2bd
00000220: 6fc5 99bd 6214 0bbc de00 823d 654f 90bd
00000230: 2246 f23c d261 de3c 3adc 15bd d34d dabd
00000240: 03a4 ca3c fb6e c9bc 6abd 6fbd cdd0 993d
00000250: 4558 82bc 6809 b2bc e820 abbd b147 b53c
00000260: 24e4 aabd f125 0dbc eacb 7d3d 4ada e8bc
00000270: aaec f03b efc7 cabc 4e84 24be ab73 1b3d
00000280: 9d28 b5bd 9b73 81bb 2ad4 44bd f65b a33a
00000290: d5df 92bd f5cd 60bc 5d52 36bb af2d 3bbd
000002a0: efb0 fa3c 5f18 12be e8f1 86ba 1a5c 163d
000002b0: f0ed abbc e6b8 393d ec9d 20bd ba8a 86bd
000002c0: f9ac 86bd 12e2 16bd d54b f93c 2669 afbd
000002d0: d4c3 65bd 7bdd 603d 1d54 893d 58ff 1bbd
000002e0: 0928 06be 2318 deba d58b a9bd 7255 a8bd
000002f0: 6205 bdbd 0bd9 6fbd b89c 183d 30b8 01be
00000300: fb7d e3bc a8f1 28bd b700 ba3c a37f 93bd
00000310: cbaa f53c e613 133b 9f91 913c dec1 c4bd
00000320: 285a 08bd 150c b4bd e856 b4bc 6e6f a2bd
00000330: e0e9 293d be98 3abd 0509 84bc 6c2e 71bc
00000340: 4e15 20bd 0d12 6d3c 61f7 3e3d 50e7 f93c
00000350: da56 793c 39e2 b8bd ad3e fabd a3a4 42be
00000360: e879 d93c 12b8 d7bd d1ce 003c 4fed 1e3d
00000370: 6d82 6fbd 8b35 373d a773 0fbd a6c3 023c
00000380: 7a10 c73c f2d8 b6bb e17e 4fbd f37b ab3c
00000390: c91a e63c 998d d03b 094d 91bd dac7 e1bc
000003a0: 1637 5a3c 556c b2bb d1bc 51bd 85a3 c7bd
000003b0: a070 0c3c db83 7b3d 2ef9 913d 7785 663b
000003c0: a1a9 093c d156 bf3b e576 46bd 5991 b1bc
000003d0: bd1c 61bd 1486 debd 2171 a63c 0da7 d2bc
000003e0: 3f46 9bbd 672b 88bd 40b6 d43d f293 353d
000003f0: 01ad b9bd 1150 833d d12c ad3b 6c73 453d
-0.123281956 -0.08472497 -0.018509513 -0.060654767 -0.004823926 -0.030641764 0.04045992 -0.10275385
0.019681057 -0.07599191 -0.049634833 0.013534855 -0.038003657 -0.07141715 -0.04824435 -0.07179908
-0.09368382 -0.034858834 -0.004717001 0.04600825 -0.038105544 -0.105791606 0.02792363 -0.00943036
0.048044942 0.085085094 0.0028198888 -0.037359346 -0.10322786 -0.04578705 -0.076691024 0.00640223
-0.07218192 0.004501233 -0.05027298 0.02133354 0.033957325 0.030412165 0.00378652 -0.02316524
0.029605567 -0.0038003328 -0.018163478 0.027647607 0.00905043 0.05897356 0.050519258 -0.046909515
-0.07069502 -0.03550351 0.036983382 -0.009905847 -0.09190112 -0.0790553 -0.03221851 0.008409847
-0.066312775 0.06274953 -0.06562097 -0.050767686 -0.053047616 -0.037199814 0.024871534 -0.027556963
0.05231965 -0.043462977 -0.09169719 -0.04591427 -0.13872696 -0.08241443 0.0226966 0.028797181
0.017585963 -0.11607973 -0.026514772 -0.004915487 0.01533316 -0.036880385 0.0655512 -0.05204419
-0.03355994 -0.06609186 -0.039489467 -0.043479953 -0.099934965 -0.034108475 -0.0957221 -0.0591895
-0.10495892 -0.08880873 -0.12395438 0.02479883 -0.07419791 0.08601843 -0.08832732 -0.06699508
-0.008620857 -0.106004454 0.046862654 -0.04685607 -0.01647321 0.024548378 0.033470884 0.083326034
-0.104793735 -0.005455509 -0.06955938 -0.09589142 0.03348641 -0.032935314 0.02153272 0.031131972
0.042889357 0.004877337 -0.032064527 -0.051001087 0.07119218 -0.06649021 -0.027126038 -0.111407295
-0.045005027 0.016461957 0.06457215 0.03167128 -0.0053417822 -0.025683489 -0.06964584 -0.026626153
-0.027342822 -0.0824441 -0.16150454 -0.10946364 -0.12111993 -0.071058735 -0.00064837764 -0.08703249
-0.075083606 -0.008488746 0.06347822 -0.07046393 0.029574458 0.027146254 -0.036586978 -0.10659375
0.02473641 -0.024589052 -0.05853025 0.07510529 -0.01591123 -0.021733 -0.08355886 0.022128912
-0.083442956 -0.008615003 0.061962046 -0.0284244 0.0073524313 -0.024753539 -0.16066095 0.037952106
-0.08845637 -0.003950549 -0.048053898 0.001246332 -0.07171599 -0.013720979 -0.0027820088 -0.045697864
0.030601947 -0.1426711 -0.0010295482 0.03670893 -0.02098748 0.04534235 -0.039213106 -0.06569429
-0.06575961 -0.03683669 0.030431667 -0.08564977 -0.05609496 0.05489872 0.067054965 -0.03808531
-0.1310121 -0.0016944449 -0.08278624 -0.082194224 -0.09229542 -0.058556598 0.037258834 -0.12667918
-0.027770033 -0.041246086 0.022705419 -0.07202079 0.029988667 0.002244228 0.017769633 -0.0960729
-0.033289105 -0.08791367 -0.022014096 -0.0793141 0.041482806 -0.045555823 -0.016117582 -0.0147205405
-0.039082818 0.014469636 0.046622638 0.030505806 0.015218461 -0.090275235 -0.12218986 -0.19008116
0.026547387 -0.105331555 0.007861809 0.038800534 -0.058473993 0.044728797 -0.035022404 0.007981217
0.024299849 -0.005580061 -0.05065811 0.020933127 0.028088944 0.006364536 -0.070947714 -0.027561117
0.013318798 -0.005445043 -0.05120546 -0.09747986 0.008571774 0.061405044 0.071276054 0.0035174766
0.008402259 0.0058392067 -0.04845323 -0.021675752 -0.054959048 -0.10865417 0.020317616 -0.025714422
-0.07581758 -0.06648903 0.10386324 0.044330545 -0.09066201 0.06411756 0.0052848835 0.048205778

network.3.bias f4 [64]
00000000: a401 33be c65a 59be beb5 1cbe d47c 48bd
00000010: dc9c 97bd d9dd 20be 4e91 0cbe dc1c 38be
00000020: dd4e 40bd 7c15 0ebc 97b4 7abd 6885 5abd
00000030: a474 f3bd d299 d0bc 3930 5fbe 84e7 1fbe
00000040: 9cc0 f0bd 5e91 80bd 4f58 27be bba0 bebd
00000050: bf6c bbbd 324b c6bc d926 7cbd 4688 a6bd
00000060: 3f2a b53c 025b 84bd 1d1a 96bd d012 6fbd
00000070: ac47 95bd b72f 8b3d 9524 4ebe ab89 0cbe
00000080: 80f0 5cbd 560a 84bc 5daa 02be eef2 e5bd
00000090: aa5b 42be 7035 66bc b0ab e43c d2fa cabd
000000a0: 1288 31be 3b7a afbd 197c 53be 27c8 babc
000000b0: 3887 23be 5587 b2bd 798b 00be dfa1 06be
000000c0: 6f00 69bd 6951 e8bc 6c6a 9cbd 26e8 e5bd
000000d0: cf76 50bd 78db 7dbd 3dc3 57be 8142 0ebb
000000e0: 361a f9bd 46c8 cc3c b687 92bc e483 a0bd
000000f0: 967a d6bd 1a7d 86bd f403 6fbd e25c febd
-0.17481095 -0.21226034 -0.15303704 -0.04894717 -0.074029654 -0.15709628 -0.13727304 -0.17979759
-0.04695021 -0.008672114 -0.06120738 -0.053349882 -0.11887482 -0.025463972 -0.21795739 -0.1561566
-0.11755487 -0.062777266 -0.16342281 -0.09308001 -0.09151601 -0.024205778 -0.061560486 -0.08131461
0.022114871 -0.06462671 -0.073291995 -0.05836755 -0.07289061 0.0679621 -0.20131142 -0.13724391
-0.053940296 -0.01611821 -0.12760301 -0.11227976 -0.1898028 -0.014050826 0.027913898 -0.099111214
-0.17337063 -0.085682355 -0.20652808 -0.022800518 -0.1596955 -0.08717219 -0.12553205 -0.13147686
-0.05688518 -0.028359132 -0.07637486 -0.112259194 -0.050894555 -0.06197688 -0.21070571 -0.002170712
-0.121632025 0.024997842 -0.017886978 -0.07837656 -0.104726 -0.0656683 -0.05835338 -0.1242006

network.6.weight f4 [2, 64]
00000000: 599c 3f3c d2af d53d a34b 623d b809 4cba
00000010: 6135 0cbb d620 953d 4e0a 92bd 504a 023d
00000020: 98d7 d3bd f18c 5abc e548 4abd 32b7 833b
00000030: 2a2a 9bbc cfe7 0abc b42f e0bd b8f1 b9bd
00000040: 8d7b 973b ad06 543c 798a 9f3c 6a4a f63c
00000050: 7f72 acbd 60ae 9c3c 8447 593c 8be5 a93c
00000060: 2b5e b4bc deb6 7b3d 8b50 813d 6ee1 683d
00000070: 0ef7 b9bd b15c 153d 4e6d 92bd dada 5d3d
00000080: 5429 8f3d b518 763d 262d 9e3d 6ccd 48bd
00000090: 8998 52bd 5c7b 173d 78c8 e83c 9621 283c
000000a0: 6b85 03bd 123e 14bd 4e5d 9cbc 1821 313d
000000b0: 70a2 86bc 5195 973c aa07 103d 42b9 46bd
000000c0: ae45 b23d d919 15bd c88b 813d 7fdd 85bd
000000d0: 2c8e 2f3d 9773 1fbd 68a8 5e3d 3c37 44bc
000000e0: 6bee 7cbb 0df2 82bd 9cfe d53d c39f d73d
000000f0: 9b8c 323d 18e0 993d a95b 043c f365 1c3d
00000100: b486 bf3c 2745 d03d e72f 0dbd 2662 1bbd
00000110: 31aa 87bd 8229 7a3d 0577 ed3c 6a67 b1bc
00000120: 2ec3 e3bd 9425 1fbd 1eaf 93bc a564 293d
00000130: 7e04 13bd 4387 91bd f196 56bd 5aab a6bd
00000140: 8c62 ee3b 7c12 bbbb 0f42 7dbc 40f1 f4bc
00000150: a2bf 92bc 3ba1 b3bc 3859 6c3d a77e 83bd
00000160: 5fca 6abd 0f65 fb3b 0059 b33d b54e 2dbd
00000170: c475 c1bd 25d0 7b3b 25ce a0bd 7b99 c33c
00000180: 3018 86bd cf76 b93c 01c6 693c dc5f 283c
00000190: 02e8 2e3c b2f0 c63d 90be 6b3d 18dd 813b
000001a0: 1ba8 023d 1d1c 343d cf9d a7bd 9be0 cd3c
000001b0: 3805 913d 8c60 893d 41f7 4d3d 0110 7b3d
000001c0: f0e6 053e dbb4 e1bc f14f 4b3d 53db b23b
000001d0: 8761 413c a066 07bd f990 bb3c 6c51 073d
000001e0: d8af 94bd 219a 68bd f701 e13d 0ccc 69bd
000001f0: 8e5e 08bd fec5 a13d 41f4 823d 116e a0bd
0.011694991 0.10433926 0.055247914 -0.00077834306 -0.002139412 0.072816536 -0.07130872 0.03180915
-0.103438556 -0.013339267 -0.049385924 0.0040196413 -0.018941004 -0.008478119 -0.10946599 -0.09079307
0.0046228827 0.012941045 0.019475209 0.03006478 -0.08420276 0.019126117 0.01326168 0.020739337
-0.022017559 0.061453693 0.063141905 0.05685561 -0.09080325 0.03646535 -0.071497545 0.05416379
0.069903046 0.060082156 0.07723455 -0.04902403 -0.051415 0.03698288 0.028415903 0.010261914
-0.03210966 -0.036192007 -0.01908746 0.04324445 -0.016434878 0.018503817 0.03516356 -0.04851652
0.087046966 -0.036401603 0.06325489 -0.06536388 0.042860195 -0.038928594 0.054359823 -0.0119760595
-0.0038594257 -0.06393824 0.104489535 0.10528519 0.043591123 0.075134456 0.008078494 0.038183164
0.023379661 0.1016944 -0.03446951 -0.0379354 -0.06624258 0.06107474 0.028987417 -0.021655757
-0.11121212 -0.038854197 -0.018027838 0.041355748 -0.035892956 -0.07105877 -0.052390043 -0.081381515
0.0072749313 -0.0057089906 -0.015457644 -0.029900193 -0.017913643 -0.021927467 0.057702273 -0.064206414
-0.057321902 0.007671959 0.0875721 -0.04231139 -0.0944629 0.0038423624 -0.07851819 0.023876896
-0.06547582 0.02263966 0.014268399 0.010276761 0.010675432 0.09713878 0.05755478 0.003963124
0.0318986 0.043972123 -0.081843965 0.025131514 0.070810735 0.06707868 0.050284628 0.06129456
0.13076377 -0.027552059 0.049636785 0.0054582744 0.0118030375 -0.033056855 0.022896277 0.033036634
-0.07260102 -0.056787614 0.10986703 -0.05707936 -0.0332933 0.07899092 0.06394244 -0.078334935

network.6.bias f4 [2]
00000000: df31 b6be f618 033f
-0.35584924 0.5120996
