pth_normalized/best_mmoe_cnn_model10.pth (torch, 694253 bytes, 40 tensors)

feature_attention.fc1.weight f4 [128, 58]
000000 81 21 d6 bd 8d 64 3f 3e 49 c8 b2 3d 4a c6 e3 3d
       -0.10455609 0.18690701 0.087296076 0.11121805
000010 55 7e fd 3d 21 9b 35 3e e4 ae 34 bd 41 44 a4 be
       0.123776115 0.17734958 -0.0441121 -0.32083324
000020 76 67 e2 3e 1e ae c6 3c d5 31 69 be 61 9d dd 3e
       0.4421956 0.024252947 -0.22772916 0.43284133
000030 66 2f 18 3e 00 ef da 3d 6c c0 8e bc 43 d4 00 3e
       0.14861831 0.10690117 -0.017425738 0.12580971
000040 10 b5 5c 3d 32 ce ca 3d 3e 2e 8b 3d 8f 00 dc 3d
       0.053883612 0.0990261 0.06795929 0.10742294
000050 b9 25 db 3d 01 1a 2b bd d2 5a 12 bf 5a aa 20 b9
       0.107005544 -0.041772846 -0.5716983 -0.0001532225
000060 44 24 0a bf a7 ec 62 3e 74 79 10 bf 6b 25 1c bf
       -0.53961587 0.22160588 -0.5643532 -0.60994595
000070 47 e3 27 bf 4b 4a 24 be 70 8c 39 bf d4 19 25 bf
       -0.6558117 -0.16043966 -0.72479916 -0.64492536
000080 4f 11 ad 3d 8c a1 e3 3d 71 63 47 3e a2 3c 87 3e
       0.08450567 0.11114797 0.19471528 0.26413447
000090 45 83 d7 be 89 dd a6 be f1 35 8b ba 66 12 b9 3d
       -0.42092338 -0.32590893 -0.0010620934 0.09036712
0000a0 14 44 cb be 96 07 b3 bd 63 8c 12 bb 07 a1 68 be
       -0.39700377 -0.08741681 -0.002236151 -0.22717677
0000b0 37 7d d6 be d9 64 d4 be d5 45 3e be be b1 a6 be
       -0.41892406 -0.4148319 -0.18581326 -0.32557482
0000c0 51 7e 31 3d 82 d7 91 bd be ce b2 3d 2f 9c e5 bc
       0.043333355 -0.07121183 0.08730839 -0.028028576
0000d0 b0 f5 80 3e c1 93 d4 3d 5d 45 28 be 16 f8 14 3e
       0.25187445 0.10379744 -0.1643271 0.14547762
0000e0 1d 06 94 bd d7 a0 f3 3c e3 57 66 3d 40 af 09 be
       -0.072277285 0.02973978 0.05623616 -0.13445759
0000f0 58 68 cc bd d8 cf 54 bc 95 5d 37 be 63 9e b9 bd
       -0.099808395 -0.012989007 -0.17906792 -0.09063413
000100 a0 75 ae bc 05 e7 e3 bc d8 93 e0 3c 20 dd e9 bc
       -0.021296322 -0.02782012 0.027414247 -0.028547823
000110 87 a6 aa 3c 5b c6 68 3d a1 d7 f2 bd 45 b3 6a bc
       0.02083136 0.05682979 -0.11857534 -0.014324968
000120 78 62 55 bd ed f2 52 bc 75 b7 1a be 2a 11 9d ba
       -0.05209586 -0.012875301 -0.15109046 -0.0011983265
000130 fb 5d c6 bd bc 80 a8 3d 2d 63 8c bd 13 86 36 be
       -0.09685894 0.08227679 -0.06854854 -0.17824583
000140 af 74 c9 be 85 8f 99 be 38 4f 0d bf 8a 3d 18 3e
       -0.39346835 -0.2999231 -0.55199003 0.14867225
000150 af 20 5f be 8a c4 01 be 96 50 a7 be 6a fd 00 be
       -0.21789812 -0.1267263 -0.3267867 -0.1259667
000160 aa 68 58 be ee 2d 93 be 60 37 06 be 89 4a 56 be
       -0.21133676 -0.2874598 -0.13107061 -0.2092687
000170 0e 42 c3 bd 54 9f 18 be d9 9b 9b bd 98 f1 2a bd
       -0.09534083 -0.14904529 -0.07598085 -0.041734308
000180 3e 7d 47 3e d4 13 57 bd 00 04 a7 3c 48 6a d2 3d
       0.1948137 -0.052509144 0.02038765 0.10274178
000190 3c 5d 47 3d 12 71 56 be 6e 85 a5 be 15 af b5 be
       0.0486729 -0.2094157 -0.3232836 -0.3548514
0001a0 a7 00 07 be f7 a7 3c be 6d 44 59 3d 0b b7 47 be
       -0.13183843 -0.18423449 0.05304377 -0.19503419
0001b0 df c8 6d be c4 12 9e be e8 9b 0f be 3d 07 99 be
       -0.23221157 -0.30873692 -0.14024317 -0.29888335
0001c0 3a 94 6e bd eb 71 38 be fe d2 b6 bc 13 b1 a7 bd
       -0.05824683 -0.18012206 -0.022317406 -0.08188071
0001d0 0d d4 d2 bd 2a b8 b4 bc 88 12 3d be 84 e7 d1 3d
       -0.10294352 -0.022060473 -0.184641 0.10249236
0001e0 88 44 09 3d a4 a7 47 be 54 2d 0e bd 28 57 dd 3d
       0.033512622 -0.19497544 -0.034711197 0.10807639
0001f0 b4 04 92 be f8 9b 48 3d 2f 80 b0 3d 2b a5 29 be
       -0.28519213 0.04897687 0.08618199 -0.16566913
000200 8c b5 83 bd 35 93 e2 bd 0a d3 8e bd 99 c9 71 3d
       -0.06431112 -0.11063234 -0.06973846 0.05903015
000210 f7 10 df 3c 4d b8 f8 3d 64 97 00 be 53 00 86 bd
       0.02722977 0.121445276 -0.12557751 -0.065430306
000220 5b a5 c4 bc 47 af c3 bd 5a ea 81 3d b6 ad 1a bd
       -0.024004629 -0.09554916 0.06343527 -0.03776332
000230 a8 27 4d 3f 64 b6 54 3e 17 f4 e6 3e 4b 09 8c 3e
       0.80138636 0.20772702 0.451081 0.2735084
000240 a6 32 f1 bb 78 e9 d2 3d 56 7d ab 3e e0 3e 93 3e
       -0.007360774 0.10298437 0.3349406 0.28758907
000250 39 63 97 be 9d 0a 83 be 14 ad b2 3c 29 2a 55 3c
       -0.29567888 -0.25594035 0.021811046 0.01301054
000260 72 d1 ab 3c 66 f7 06 3e 8c 6e bb 3c b8 a2 4f 3d
       0.020973895 0.13180313 0.022879861 0.05069229
000270 d8 97 f5 bd 0f 4d 12 3f d3 b1 cc 3e 54 58 da 3e
       -0.119918525 0.5714883 0.3997942 0.42645514
000280 ed 24 d5 3e 6a 92 c7 3d e8 33 58 3e d6 9d 9b 3e
       0.41629735 0.09744723 0.2111355 0.30393857
000290 e0 d3 04 3d 5c 3b 64 bd 44 c5 87 bd 77 28 bc bc
       0.032428622 -0.055720672 -0.06629422 -0.022968514
0002a0 9f 02 06 3b dd 3a 3c 3d 43 dd 0b 3d f4 ad db bd
       0.002044834 0.045954574 0.03414656 -0.10726538
0002b0 ee 68 52 3d f3 4b f9 bd c7 79 73 be 11 dd 82 3d
       0.0513696 -0.12172689 -0.23776923 0.06389821
0002c0 e8 8b 86 bd b0 e7 95 3c cd 43 c7 3d 7f 5a c4 bd
       -0.06569654 0.018298954 0.09729729 -0.09587573
0002d0 a0 a7 f7 3d ce fc 84 be c8 fe 33 3e d9 46 ef bb
       0.12092519 -0.25974125 0.1757766 -0.007302147
0002e0 2d 52 39 be a7 6a 49 3e 9d 34 4f bd 1a 04 12 3d
       -0.18097754 0.19669591 -0.050587285 0.035648443
0002f0 7a 2c 59 be 6e 5c b8 bd 2e 3d cb bd 35 fb 68 be
       -0.21208373 -0.090020046 -0.099237785 -0.22752078
000300 2b 37 3a be c4 dc eb bd 4c 34 c8 bd 76 c7 7b be
       -0.18185107 -0.11516717 -0.097756 -0.24587807
000310 76 83 30 bf 2a bb f9 bd 1e 69 0f bf 01 60 02 bd
       -0.68950593 -0.12193902 -0.5601977 -0.031829838
000320 c7 06 dc 3b 50 31 11 be ea 2b ba be af 3b 91 be
       0.006714675 -0.14178967 -0.3636163 -0.28365847
000330 1f 9e a2 be 26 e7 1a bf 50 a7 89 be 5a 16 b8 bd
       -0.31761262 -0.60508955 -0.26885462 -0.08988638
000340 71 d2 83 3e 1f 24 6e 3e 0e 2b b7 be 78 9c 04 be
       0.25746492 0.23255967 -0.35775036 -0.12950313
000350 e3 e4 1c 3e 49 86 dc bd 39 61 56 bd 21 3a 22 be
       0.15321688 -0.107678 -0.052338813 -0.15842487
000360 8b 5e 77 be d8 27 e3 be 34 24 4c be 27 fe 0f bf
       -0.24157159 -0.44366336 -0.19935685 -0.5624718
000370 f1 fc e6 be fe f9 40 be 50 39 a7 3d a7 4b 03 be
       -0.45114854 -0.18845364 0.08165228 -0.12821828
000380 c7 f1 c6 bd ee f8 3d be 50 0b 0f bd 9a 1a a5 be
       -0.09714084 -0.1855199 -0.034922898 -0.32246858
000390 eb 4a 54 be c6 e0 28 be 14 bf c9 3b 72 b2 ad 3d
       -0.20731704 -0.16491994 0.0061568115 0.08481301
0003a0 32 d0 0b be 37 d6 7b 3d 3f d8 88 bc a8 aa 00 3e
       -0.13653639 0.061483588 -0.016704677 0.125651
0003b0 4e 12 f7 3c 6a fe d3 bd 78 de d8 3d 20 09 00 be
       0.030160096 -0.1035126 0.105893075 -0.12503481
0003c0 3a 59 55 3e f4 73 04 3d c3 d9 e2 bc 56 1a 4f 3e
       0.20834818 0.032337144 -0.027691728 0.2022489
0003d0 df d7 32 be eb f5 dc bc 69 39 56 be be 8d 52 be
       -0.17465161 -0.026972732 -0.20920338 -0.20561883
0003e0 49 63 a2 bc 59 53 0e be 60 55 0d be 35 21 e3 bd
       -0.019822733 -0.13898982 -0.13802099 -0.11090318
0003f0 c6 4f 62 3d 5e 8f 21 3e 33 4b cd bd 8b 08 af bd
       0.05525186 0.15777346 -0.10024109 -0.08546551

feature_attention.fc1.bias f4 [128]
000000 d9 42 55 3c fc c4 18 39 d4 e3 a0 ba ca 6f 95 3c
       0.013016426 0.00014569232 -0.0012274929 0.018241782
000010 f7 8f 8a 3d 47 ca 9c bd 7c ef a0 bd b5 10 13 bd
       0.0676574 -0.07655769 -0.07858178 -0.035904605
000020 f2 8a f7 bd 6c 3c d2 3c e0 fe 28 bd dc c8 7c bd
       -0.120870486 0.025663577 -0.041258693 -0.061714992
000030 ae 6d 3e 3e 51 5b 6f 3d 26 25 65 3d 33 93 94 3d
       0.18596527 0.058436695 0.05594363 0.072546385
000040 41 ca 4b be ae 11 9f bd 2e 10 6a bd fc 3c 8c bd
       -0.19901372 -0.07767044 -0.057144336 -0.06847569
000050 33 41 d1 bc 52 a1 05 3d de 61 9b 3d 9c 2b 6b bd
       -0.025543785 0.03262455 0.07587026 -0.057414636
000060 01 80 92 3c 33 d3 d3 3d e9 4b 2a be cc df a5 bd
       0.017883303 0.103430174 -0.1663052 -0.080993265
000070 75 d7 4d bd fa 5e 38 bd e9 ef 99 3d dc 8e 1d bd
       -0.050254304 -0.04501245 0.07516462 -0.03846632
000080 98 79 25 3e 26 e4 c1 bd 09 7f b9 bb a6 13 ef bd
       0.16159666 -0.09467344 -0.0056608957 -0.116736695
000090 34 dd ee 3d ca 72 37 3d 10 8c 39 3b 99 09 8e 3d
       0.11663285 0.044787206 0.0028312244 0.06935424
0000a0 0d f3 c6 bd e9 0e 05 3d 97 b0 c1 3d fa 66 df bd
       -0.09714327 0.032484923 0.0945751 -0.10908313
0000b0 af 65 1b 3d 84 d8 ab 3d c0 57 eb bd 98 56 6b bd
       0.03793877 0.083909065 -0.11491346 -0.05745563
0000c0 d2 4d 16 bd b8 51 83 3d a5 87 b0 bd 99 05 53 be
       -0.03669531 0.06412071 -0.08619622 -0.20607604
0000d0 e4 52 6e 3d a4 07 3f bd fc 8e 70 bd 84 c2 ba bd
       0.05818452 -0.046638146 -0.05873011 -0.09119132
0000e0 3d f0 ed 3d c4 7b 3b bc ef 2f d8 bd 64 c2 2f be
       0.116180874 -0.011443082 -0.105560176 -0.17163998
0000f0 93 2c 8d 3d 34 1b 19 3e 96 5c 5d bb fe f0 0e 3d
       0.068932675 0.14951783 -0.003377711 0.034897797
000100 61 9a d9 3a b3 a0 a3 bd 12 f5 e2 3d 30 9a d3 bd
       0.0016601795 -0.07989635 0.110819 -0.10332143
000110 c9 c4 a4 3d b5 6e a7 3d ab e1 b4 bb f9 f1 75 be
       0.08045346 0.081754126 -0.005520066 -0.24018086
000120 c7 57 01 bc 8f 3d f9 3c 3b c6 e1 bd af ff e1 bd
       -0.007894463 0.030424861 -0.110241376 -0.11035096
000130 b5 c0 9f 3d 8e a9 ee bb fa a4 d7 3b 37 97 4c 3c
       0.07800428 -0.007283396 0.006580946 0.012487224
000140 a3 4d 8b 3d cb 5b 79 bd 6d fc 8e bd cd 65 c9 3d
       0.068019174 -0.060878556 -0.0698174 0.0983387
000150 7c 00 58 3d e6 a2 e7 bd ab 1f 8a bc a9 cc 70 3c
       0.052734837 -0.11310367 -0.016860804 0.014697232
000160 4b 0c 09 3e 74 c0 62 bd b4 2d a4 bd 54 c5 d3 bd
       0.13383596 -0.05535932 -0.0801653 -0.10340372
000170 59 1f b5 bd 2c 84 62 3d 0d 01 d5 3d 79 49 ac 3d
       -0.0884387 0.05530183 0.10400591 0.08412451
000180 6d f5 cd bc c2 c4 12 be 00 61 84 bd 7b c8 cd 3d
       -0.025141442 -0.1433287 -0.06463814 0.10048004
000190 d5 a6 dc bd 0c c2 eb 3d 12 1b bf bd 63 a3 f1 bd
       -0.10774008 0.11511621 -0.09331335 -0.11798742
0001a0 20 72 f9 bd a4 42 3c be 3a 1b dc bd ad 9e 99 3d
       -0.12179971 -0.18384796 -0.107473806 0.07500968
0001b0 35 74 99 bd fa 8e 02 3a e1 fe 02 3e ae c2 91 3d
       -0.07492868 0.00049804116 0.12792541 0.0711721
0001c0 32 ce 15 bd 5c a0 08 bd c4 4e 21 3d ca fc a6 3b
       -0.036573596 -0.033356056 0.039381757 0.005096053
0001d0 51 9f fb 3d 35 da e0 bb 01 67 8d bd fc d4 ca 3d
       0.122862466 -0.00686195 -0.06904412 0.09903905
0001e0 fd e4 9d bc ba 2e 6a 3d 09 72 ce bc aa be d8 bd
       -0.01927423 0.05717347 -0.02520086 -0.10583241
0001f0 33 c7 7c 3d 62 d0 e6 bd f3 08 7c 3d f3 a8 f6 3d
       0.06171341 -0.112702146 0.061531972 0.12043943

feature_attention.fc2.weight f4 [58, 128]
000000 fe a5 6e be 62 ad 72 bd 2b c1 60 3d 65 5f d5 bd
       -0.23305508 -0.059247382 0.05487172 -0.10418586
000010 8d 42 a7 3d 7c 94 3d 3d 22 4a c6 3c 4e 54 34 3e
       0.081669904 0.046284184 0.024205271 0.17610285
000020 15 2a 02 3c 8a a4 09 bd 97 e6 a9 3d a5 ff 82 3d
       0.007944603 -0.033604182 0.08295935 0.063964166
000030 0c 94 e5 bd 42 e6 67 be 87 aa 1e 3d d0 40 fb bc
       -0.11209878 -0.2264643 0.038736846 -0.030670553
000040 39 9a c5 bb 11 6e 0f bd d0 28 81 3d 24 cd 58 be
       -0.0060303477 -0.035017077 0.063066125 -0.21172005
000050 68 38 0e bb e5 4e 05 bd 5c 7b 8d bd 84 e9 b7 3c
       -0.0021701101 -0.032545943 -0.069082946 0.022450216
000060 f8 56 84 3d b4 20 19 be 30 e4 15 3d 90 03 34 bd
       0.064619005 -0.14953882 0.03659457 -0.04394871
000070 ac 1b 9f bd 95 c2 46 3d b6 df be bd 8b c7 fc 3d
       -0.0776895 0.04852541 -0.09320013 0.12342747
000080 14 48 fe bd ae 1a 76 3d a8 88 40 3d 47 c3 a5 3c
       -0.124160916 0.060084037 0.047005326 0.020234717
000090 3f 4f 03 3e c1 a8 1f 3c 33 fb b1 bc 0e f3 1e 3e
       0.12823199 0.009744824 -0.021726226 0.15522406
0000a0 a1 3e a9 bc 92 22 5b bd 0e f4 95 3d e9 06 f2 3c
       -0.020659747 -0.053499766 0.0732194 0.02954431
0000b0 91 57 9f bd 57 5f 38 3c 64 e6 9e be f8 06 3b 3d
       -0.07780374 0.0112532 -0.3103515 0.045660943
0000c0 d0 7d 5e bd 69 2b f7 3d ee b3 24 bd 19 92 cd bb
       -0.054319203 0.12068827 -0.040210657 -0.0062735197
0000d0 98 8d 23 be 32 9b 30 3d e6 7e 23 be 96 37 ac bd
       -0.15971982 0.043116756 -0.15966377 -0.0840904
0000e0 d4 26 19 3e 74 2e 39 be 6f 4c 9c bb 36 e7 af bb
       0.14956218 -0.18084127 -0.004769854 -0.0053681387
0000f0 9e cd 25 3d 2e 8d 8c 3d 5e 14 d0 bc e2 ae cd bd
       0.040479295 0.068628654 -0.025400337 -0.10043122
000100 5d 48 40 3c 22 a3 bc 3d 89 4d 08 3e f5 d3 88 bd
       0.011736003 0.092108026 0.13310827 -0.066810526
000110 55 fb 00 bd 0a 4f 1f 3d de f2 6e 3d ed b6 ba bd
       -0.03148969 0.038893737 0.058337085 -0.091169216
000120 b5 d0 d3 3d 66 ea a7 bd c8 32 a1 3d 56 00 49 3d
       0.10342542 -0.08199005 0.07871014 0.049072586
000130 e5 ed 5c bd 68 28 a2 bd 7e 58 3a 3c 8a 1f 29 bb
       -0.05393781 -0.07917863 0.011373637 -0.0025806152
000140 00 f3 de bd 50 14 d7 bd 47 4a 11 bd 63 8d 90 3d
       -0.10886192 -0.10501921 -0.035471227 0.070582174
000150 d7 07 69 bd eb 0e 69 3c e1 c9 c4 3d b9 36 97 bd
       -0.056892242 0.014224748 0.09608818 -0.073834844
000160 87 18 ab bd a1 e0 5a 3d 88 e6 9f bd 85 88 41 bd
       -0.083542876 0.05343688 -0.07807642 -0.047249336
000170 4d b3 94 bd 47 a7 82 3d 63 b3 b8 bd 3c 35 3d bd
       -0.072607614 0.06379562 -0.0901859 -0.046193346
000180 a6 9b 37 bc d6 b3 ae bc 4f 97 e9 bd 11 50 7e bc
       -0.011206543 -0.021325987 -0.11405813 -0.015522019
000190 cf 2f 7a bd 77 61 9d 3b 39 e1 17 3d 78 09 40 3d
       -0.06108075 0.0048028785 0.037080023 0.04688403
0001a0 21 fd 97 bd 10 a3 88 bd 85 54 ab bd 3b 7a a6 bd
       -0.074213274 -0.06671727 -0.0836573 -0.08128782
0001b0 24 89 44 bd 31 fb 39 bd e2 88 d0 bd 4d fa 37 3d
       -0.04798235 -0.04540557 -0.10182358 0.04491644
0001c0 a9 d0 cb 3d d9 f1 37 bd 72 e5 87 3d f0 34 1e bd
       0.09951908 -0.04490838 0.0663556 -0.038624704
0001d0 fa ce a4 3c a0 1f 59 bd 6b 10 77 bc b3 56 fe bc
       0.020118225 -0.053008676 -0.015079598 -0.0310472
0001e0 cc 8a 92 bd 34 69 24 bd c1 fc c0 3d 3f 93 67 bd
       -0.0715538 -0.040139392 0.09423209 -0.05653691
0001f0 1d be c1 3c 92 25 4b bd bd d0 c3 bd 1c 24 7a 3d
       0.023650223 -0.049596377 -0.09561298 0.061069593
000200 d3 75 f2 bc 16 07 ec bc ba ca af bc 17 c6 7b bd
       -0.029597199 -0.028811973 -0.021458972 -0.06146821
000210 fd c0 40 bc 8c 9e e6 bd e2 1a 29 3d 08 a7 18 3d
       -0.011764762 -0.11260709 0.041285403 0.03726867
000220 19 c7 19 bb 97 05 b7 3d 82 83 53 3d dc c8 bd bc
       -0.0023464619 0.08936613 0.051639087 -0.023167066
000230 d8 fc b2 3c 42 dd b5 3c e5 db 98 bd 23 0a 79 3b
       0.02184908 0.02220023 -0.074638166 0.0038000427
000240 12 8e 82 bb 8c 1a 4a bd cb 6d 3e be b4 be 26 be
       -0.0039842213 -0.049341723 -0.1859657 -0.16283685
000250 b1 04 91 bd 42 ab 0e 3d 24 c3 39 bc e7 9d 87 3d
       -0.07080973 0.034831293 -0.011338029 0.06621914
000260 b5 38 a1 3b 2b 0e 62 3c d9 95 23 bb f0 68 54 bd
       0.00492009 0.013797323 -0.0024961142 -0.05185789
000270 48 21 b1 3d 24 45 20 3d 63 f0 09 3e 2b c6 71 bd
       0.08648926 0.039128438 0.13470607 -0.05902688
000280 23 c6 1b 3e e2 03 a3 bd b2 3a 37 3e a3 4a 37 3d
       0.15212302 -0.07959725 0.17893484 0.044748913
000290 6b 0c 6f 3d 5d 58 b6 bd 6c 97 c4 3c 3b e8 ca 3e
       0.058361452 -0.08903573 0.023997985 0.39630303
0002a0 92 0c a7 bd d7 e3 5d be 1b 80 1c bd 6e 17 7c 3d
       -0.081566945 -0.21668945 -0.03820811 0.06154578
0002b0 77 01 9c bd 8d 54 e9 bd 77 a4 d7 3e cf f1 e5 3d
       -0.07617467 -0.1139308 0.42117664 0.11227762
0002c0 e9 e0 a3 3d c5 e6 0e 3d 87 98 95 bd 97 64 e8 3d
       0.080018826 0.034888048 -0.07304483 0.11347311
0002d0 2c 09 b2 3d 0d 3f 87 3d f9 ab f5 bd 74 2c 16 3c
       0.08693156 0.06603823 -0.11995692 0.009165872
0002e0 29 d0 6b be 8e 55 57 bd de 0d 20 3b 80 a4 00 3e
       -0.23028626 -0.052571826 0.0024422328 0.12562752
0002f0 ab 2b 52 3d d5 5c 46 3e 17 c3 9e 3d 2a 39 9b bd
       0.051311176 0.1937135 0.07752054 -0.075792626
000300 7f 3d 11 bd e0 ef dc bb 0b 8b f2 3d 12 b1 3b bd
       -0.035459038 -0.0067424625 0.118429266 -0.045823164
000310 e2 99 ba 3d 62 5d d9 3d 09 01 bb 3d f8 0b dc bd
       0.09111382 0.106135145 0.09131057 -0.1074447
000320 11 b1 1f 3e 91 41 f7 bb 2c d2 b6 3d 52 36 fb bc
       0.15594889 -0.007545658 0.08926806 -0.03066555
000330 38 1f 10 bd 0a 47 57 3d 19 30 ef 3b 3d 58 0d 3d
       -0.035186023 0.052557983 0.007299435 0.03450798
000340 6e b2 eb bd 86 f1 ae 3d b1 72 93 3d 59 72 3c be
       -0.11508642 0.08542161 0.0719961 -0.18402995
000350 f3 75 19 be 64 89 4d bd b2 ec 64 3b fe 5c 69 3d
       -0.149864 -0.050179854 0.003493112 0.05697345
000360 70 1c 50 3c 7d dc 19 bd 4e 1f 41 bc f2 b4 ef bd
       0.0127020925 -0.03756379 -0.011787249 -0.117044345
000370 71 79 c4 3d 0f b2 a6 3e df 1f c5 bd 45 93 8a bd
       0.095934756 0.32557723 -0.096252196 -0.06766371
000380 a5 1a 95 be 8b 91 a7 bd 8d bf f2 bd 35 17 a1 bd
       -0.2912189 -0.08182057 -0.11852942 -0.078657545
000390 7f 62 90 3d 63 fd 11 bd f7 a4 ef 3c ba e4 53 3b
       0.07050037 -0.03564204 0.029253466 0.0032332377
0003a0 23 c5 64 bd 27 a1 91 bd ac ec bf 3c f5 d4 3c 3d
       -0.055852067 -0.071108155 0.023428284 0.04610153
0003b0 16 29 ac 3c 3f b7 f7 ba 7e df e2 3c 2f 72 11 3d
       0.021015685 -0.0018899216 0.02769446 0.035509285
0003c0 f4 d8 ca 3c 6d c5 87 3c d8 fb 39 38 80 d9 da 3d
       0.024761654 0.016573632 4.4341985e-05 0.10686016
0003d0 d5 db d8 3d d7 f8 d9 bd ca 4a bf bd d2 95 03 3d
       0.10588805 -0.106431656 -0.09340437 0.0321253
0003e0 20 7d a3 bd 87 dc f4 bb f9 78 10 bd b9 78 3e bd
       -0.0798285 -0.007472578 -0.03527162 -0.04650185
0003f0 fa 63 b7 3d 90 56 95 bc 1a 26 d2 3d cd 0f 2c 3d
       0.08954616 -0.018229753 0.102611735 0.042007256

feature_attention.fc2.bias f4 [58]
000000 37 4a 93 bc 19 ea 5b 3e 82 b0 74 3d 40 7c e4 3c
       -0.017979724 0.2147602 0.059738643 0.027891278
000010 52 cb 68 3e 5d 67 14 3d 17 fa 97 3d d3 a7 07 3e
       0.2273381 0.036231387 0.07420748 0.13247614
000020 55 68 b7 bd 42 8d 42 3d 41 b6 70 3e b0 40 74 3c
       -0.08955447 0.047497995 0.23507024 0.014908001
000030 9d c4 21 be c4 9c 9a 3d 58 99 8f bc 52 a5 64 bd
       -0.15797658 0.07549432 -0.017529175 -0.055821724
000040 1c c4 c7 3d 9c 0a 94 3d 46 53 0c be 4b 78 2e bd
       0.09754202 0.07228586 -0.13703641 -0.04259519
000050 7a 4a 25 be 1d 90 31 bc 3a 33 2e 3e 3f cd 44 3d
       -0.16141692 -0.010837582 0.17011729 0.0480473
000060 98 85 84 bd f1 12 37 3d 17 10 a3 3d 67 43 0d 3e
       -0.064707935 0.0446958 0.07962053 0.13795243
000070 5e 97 66 3d 3b 87 d2 3d 83 d8 b0 3d 78 a1 6d 3e
       0.0562967 0.102796994 0.08635046 0.23206127
000080 e4 20 04 be b1 05 aa bd fc 37 b8 3d bc 1f 67 be
       -0.12903172 -0.08301867 0.08995053 -0.225707
000090 21 e6 38 bc 83 bc a4 3d 4f dd ce bd 8a 41 30 3d
       -0.011285336 0.08043768 -0.10100805 0.043031253
0000a0 d1 e6 b3 bd a4 19 2e 3e 6a dd 0d 3d 58 d8 88 3d
       -0.08784259 0.17001969 0.034634985 0.06681889
0000b0 a4 b1 60 bc 40 af 01 bc 3c 7d 24 bd f4 2a 83 3c
       -0.013714228 -0.007915318 -0.040158495 0.016011693
0000c0 0a c8 a0 bd 01 3c 2d bd 26 b0 0a bd af cc e5 bd
       -0.078506544 -0.042293552 -0.033859394 -0.11220681
0000d0 0b 97 5a bd b6 55 83 bd 70 cf a1 bd c0 77 d9 bb
       -0.053366702 -0.064128324 -0.07900894 -0.0066365898
0000e0 03 89 00 bb 46 a4 3c 3d
       -0.0019612915 0.0460551

experts.0.0.weight f4 [16, 1, 3, 3]
000000 e4 ec 2b be 24 47 55 3e 61 b0 7a 3e cd 24 ce bd
       -0.16789585 0.20827919 0.24481346 -0.10065613
000010 a1 43 77 3e dd c6 16 3d d7 1a dc be 4f a1 6d 3d
       0.24146892 0.036810745 -0.42989227 0.058015164
000020 25 40 00 3c 56 cb d9 3d 42 51 61 3b 92 fa 12 bf
       0.007827793 0.106344864 0.0034380709 -0.5741359
000030 55 7c c0 3c 3e e5 dd 3d 79 6c 0d be 5c 4d 24 bf
       0.023496786 0.1083474 -0.1381091 -0.6418054
000040 05 7e 39 bf 44 1c 29 3e 3f e1 cb be a7 34 ff 3d
       -0.72457916 0.16514689 -0.39820287 0.124612145
000050 07 c7 8e be 1e 82 71 3e 22 da d0 bd 5b 35 9f bd
       -0.2788622 0.23584792 -0.101978555 -0.077738486
000060 77 98 fb be 1e 28 8a 3e 8c 80 9d be 0c d1 80 bc
       -0.4913976 0.26983732 -0.30762136 -0.015724681
000070 05 4f 88 3b 17 e0 13 bc 1b 0c 59 3e a2 a0 ed 3d
       0.0041598105 -0.009025595 0.21196024 0.11602904
000080 64 09 11 bd d6 13 0b 3e cd 6d 9a 3d a3 11 cb bd
       -0.035409346 0.13581786 0.07540474 -0.09915473
000090 05 51 b7 3d 59 62 36 3e 1e 82 b4 3d 00 50 8e be
       0.08951 0.17810954 0.088138804 -0.2779541
0000a0 77 45 b8 3e 5c b8 9c bf 63 59 26 3e 6d be cc 3d
       0.35990497 -1.2243762 0.16245036 0.09997258
0000b0 c7 ae 97 be ff b6 06 3e 39 d9 90 bd 6f 08 cd 3d
       -0.29625532 0.13155745 -0.07072682 0.10011374
0000c0 49 0f 01 bf 56 13 78 3e 21 ab 28 be cb c1 50 bd
       -0.5041395 0.24226126 -0.1647153 -0.050966065
0000d0 cb 77 46 3e 23 4d 95 be da 9c 48 be 66 dd 62 3e
       0.19381635 -0.29160413 -0.19591084 0.2215477
0000e0 7f b8 19 bc 4b 81 b6 bd 0f b7 32 3e a0 46 8a 3e
       -0.009382366 -0.089113794 0.17452644 0.27007008
0000f0 4f 86 50 bd d2 26 1f 3b 22 83 91 3e 52 0e 16 3b
       -0.050909337 0.0024284613 0.2842036 0.002289672
000100 6f 2a 9a 3e 19 6f 9c 3e 5d 47 b3 be 20 8f 55 3e
       0.301105 0.3055351 -0.35015383 0.20855379
000110 a6 46 90 3e 9b a2 6b 3e 44 9b 79 bd 99 82 a5 bd
       0.281789 0.23011248 -0.06093909 -0.0808155
000120 4d f7 f6 bd 43 9c e2 3d 78 fd 84 ba e4 55 98 be
       -0.12058888 0.11064961 -0.001014634 -0.2975303
000130 5f 8c a8 3e ee 70 97 3e 94 90 1d 3e 55 e2 25 bf
       0.32919595 0.29578346 0.15387183 -0.6479848
000140 3e 37 23 3e ff b1 6e 3d 6e bc 9f bf 18 f9 85 be
       0.15939042 0.05827522 -1.2479379 -0.26166606
000150 c9 0b 72 bd 5b 52 53 bd 7e 9a 73 3e 96 17 16 3c
       -0.05909327 -0.051592212 0.23789403 0.009160897
000160 ed 46 03 3e 05 50 69 be aa ce c9 be 15 aa 83 3e
       0.12820025 -0.22784431 -0.39415485 0.257157
000170 89 a9 71 3e c5 b6 87 3c 67 58 82 3e 27 f9 de be
       0.23599829 0.016566643 0.2545807 -0.43549463
000180 9c ef 4b 3e f0 fa 01 3e 4e ad 8b be f8 19 12 bf
       0.19915622 0.12693381 -0.27280658 -0.57070875
000190 c6 3c 5b 3e b9 6f 32 3e 96 4d d7 3c 90 0b 29 be
       0.21409902 0.17425431 0.026282113 -0.16508317
0001a0 f2 46 12 3e 72 92 4d 3e 12 26 3a 3d af e0 96 be
       0.14284876 0.20075396 0.045446463 -0.29468295
0001b0 a0 56 32 3e dc ee 3d 3e dd 85 a1 bc 43 ec 9d bd
       0.17415857 0.18548149 -0.019717151 -0.07711079
0001c0 6e 44 84 3e 3e 88 3e 3e 9d 13 9b bd 6f 8e 12 bd
       0.25833458 0.1860666 -0.075721 -0.035780367
0001d0 70 af bc 3e 4c a4 33 bf 26 02 8b 3d 94 4a 7c be
       0.36852598 -0.7017257 0.06787519 -0.24637824
0001e0 cb ea da be 09 83 70 3c c6 e2 c2 be a3 bb 21 bf
       -0.42757258 0.014679679 -0.3806364 -0.63176936
0001f0 45 14 0d bf 38 32 06 bf 98 af 0a bf e7 83 39 be
       -0.55109054 -0.5242038 -0.54174185 -0.18116723
000200 02 fa 33 3e cf 68 34 be 09 1d 37 3e 1e d7 c1 be
       0.17575839 -0.17618106 0.1788217 -0.37859434
000210 89 6a 90 3e 3a a6 a0 be 1e 39 b0 be 5e 61 d2 be
       0.2820628 -0.3137682 -0.34418577 -0.4108991
000220 a6 7c 9f 3d 31 29 04 be 00 32 c9 be 2a 51 9b 3e
       0.07787447 -0.12906338 -0.3929596 0.3033536
000230 5e 0e 8a 3e ac 2f 8b 3d 32 c2 98 bd 52 39 5c be
       0.26964086 0.06796202 -0.07458915 -0.21506241

experts.0.0.bias f4 [16]
000000 ab 82 8e 3d e2 5d 19 bd b6 f5 24 be 3a 8e c3 3d
       0.06958517 -0.03744305 -0.16109356 0.09548612
000010 9c 9a 5f bc 9d 16 cb bb e1 20 c0 3d f5 58 26 3d
       -0.013647702 -0.006197764 0.09381271 0.04061218
000020 71 3b 84 be e1 3b 90 bc 47 d7 6f be a0 f5 3f be
       -0.258266 -0.017606677 -0.23421966 -0.18746042
000030 89 9e 9d bb e6 e8 30 3e 24 3d 57 be 1c 0d 43 bd
       -0.0048101586 0.17276344 -0.21019417 -0.047619924

experts.0.3.weight f4 [32, 16, 3, 3]
000000 4c ba d5 bd 80 bd 84 bd ff b5 4f bd dd f6 be bd
       -0.10435924 -0.06481457 -0.050710674 -0.09324429
000010 94 01 5e bb 16 13 22 3d e4 5b 7a 3c c3 14 32 bb
       -0.0033875452 0.039568983 0.0152806975 -0.002717302
000020 4f b4 83 bd 66 25 97 bc eb 1e 07 3c 92 6d 65 3c
       -0.064308755 -0.01845045 0.0082471175 0.014003174
000030 6a 7c b6 bd 0e d9 73 3d 0a 01 25 3b e4 51 9a bd
       -0.08910449 0.05953317 0.0025177621 -0.07535151
000040 20 90 cd bd 5b 72 52 3d 17 25 c6 3c 4e 31 dc bd
       -0.10037255 0.05137859 0.024187608 -0.107515916
000050 14 35 87 bd 28 94 1f bc 92 33 45 bc a6 34 ec bd
       -0.06601921 -0.009739913 -0.012036221 -0.115334794
000060 e4 3d 04 3a f3 0f 1b bd c7 85 c8 bd f0 ae a5 bd
       0.0005044623 -0.037857007 -0.09791141 -0.08090007
000070 e6 02 35 bd 46 63 57 bc 2c e3 b7 bd e1 69 b9 bd
       -0.044192217 -0.013146227 -0.089788765 -0.09053398
000080 02 8e 93 bd 53 99 cd bd a4 98 cf bd d1 7f 06 be
       -0.0720482 -0.1003901 -0.10136536 -0.13134696
000090 57 d5 60 3d 95 d6 ea bc cc cf 9b bd 9a 7a ac bd
       0.054890957 -0.028666774 -0.076079935 -0.08421822
0000a0 ea f9 be bd af 27 8f 3d a2 c8 20 3d b7 cb 58 3c
       -0.09325011 0.06989991 0.03925384 0.013232163
0000b0 9b e5 86 bd c3 b3 37 3d 9b 3d 9a 3c 49 65 ef bd
       -0.065867625 0.04484917 0.018828204 -0.116892405
0000c0 92 d6 4e bd 26 a3 93 3c f3 4d cf bc 37 67 16 3d
       -0.0504976 0.018022131 -0.025305724 0.036719527
0000d0 df 05 cc bd 7b 32 dd bd d5 11 36 3d 06 53 01 be
       -0.09962057 -0.10800644 0.0444506 -0.12629327
0000e0 76 c9 0e 3d 0f 57 8b bd 99 d4 f3 bc b4 a0 9a 3c
       0.034860097 -0.068037145 -0.02976446 0.018875457
0000f0 02 ca 19 bb 64 d5 ee bd 7d 0e de bd 1d 85 36 bd
       -0.0023466353 -0.11661795 -0.10842607 -0.04456054
000100 6b 28 82 bc 1f a0 08 be c7 dc 38 3d 84 4f 11 be
       -0.015888413 -0.13342331 0.045132425 -0.14190489
000110 c4 59 63 3d 63 9f 8f bd a0 be 6a bb 2b 3c e8 bc
       0.05550553 -0.070128225 -0.0035819188 -0.028349003
000120 c9 1a cf 3c 1e 5f 2d bd ce b4 b7 bb 15 db 48 bd
       0.025281327 -0.04232704 -0.0056062704 -0.049037058
000130 65 67 94 bd bd e6 5f 3c 3d 1b eb bd e7 8f f1 bd
       -0.072462834 0.013665852 -0.11479805 -0.11795025
000140 39 ad 88 bd ad 2e 3a bd 9a d9 dd bd 4f 44 50 bc
       -0.066736646 -0.04545467 -0.1083252 -0.012711599
000150 f6 79 73 3d 57 f9 0b be a3 24 b4 3c 94 fd 2f 3d
       0.059442483 -0.13669334 0.021990126 0.04296644
000160 63 de 05 3c 2d 27 ae bd 36 2e 5d 3d ff b5 47 bc
       0.008170697 -0.08503566 0.05399915 -0.012189387
000170 46 d4 c3 bd 58 f9 17 3c 7b 4e 5a bd 7b ca a1 3d
       -0.09561972 0.009275757 -0.0532975 0.07899948
000180 95 19 2e 3c 3a 78 75 3c 39 79 05 bd 6f 6f c7 bd
       0.010626216 0.0149822775 -0.03258631 -0.09738051
000190 8c 4c 28 bd 21 99 ae 39 56 11 c5 3c af c2 bb 3c
       -0.041088626 0.00033301956 0.024056118 0.02291998
0001a0 e7 91 8f bc 58 22 0f 3d be 6a b8 3c 24 1c 85 bd
       -0.017525626 0.034944862 0.022511836 -0.06499508
0001b0 a4 51 28 bd b6 09 4c bd a1 96 8c bd a2 28 f1 3b
       -0.041093484 -0.04981395 -0.06864668 0.00735958
0001c0 ba 34 9d bd 28 16 ef 3c b3 85 cc 3b 55 24 ef bd
       -0.076760724 0.02918537 0.006241524 -0.11676852
0001d0 3c ef 1a be 29 45 68 bd 97 05 35 3c d5 0a aa 3c
       -0.15130323 -0.05670658 0.011048696 0.020757118
0001e0 e5 67 b7 bd a6 5c f7 bd b2 0c 64 bc 1a cc 49 bd
       -0.08955363 -0.12078218 -0.013919042 -0.049266912
0001f0 a5 06 dc bd 69 76 55 3d 6d d2 53 3d 96 8a ea 3c
       -0.10743455 0.052114878 0.05171435 0.028630536
000200 24 25 1b 3d fa 74 77 3c 84 72 7d 3d 07 fc c3 bc
       0.037877217 0.015103573 0.06187679 -0.023923887
000210 48 1e b3 bd b6 a8 78 3d 35 fd 24 bd 12 37 29 3d
       -0.0874601 0.06070777 -0.04028054 0.041312285
000220 e8 11 37 3d 3c fe 44 3d 2d 6f d1 3c c6 bd 87 3c
       0.04469481 0.04809402 0.025565708 0.016569983
000230 30 f6 a1 3d 87 c4 c2 bd 49 c5 db bd 6e b8 20 be
       0.07908285 -0.09510141 -0.107309885 -0.15695354
000240 07 6d 0d bd a7 9b 3f 3d 60 a7 9c bd 5b 6a d7 3b
       -0.034527805 0.0467793 -0.07649112 0.006573958
000250 99 1f 60 bc d4 bd 9e 3c bf a8 32 bd a7 01 c7 3b
       -0.0136794085 0.019377626 -0.04361796 0.006073195
000260 bc fc ec 3c 49 b1 58 bc 01 36 1b bd 0a 9d d7 bd
       0.028929107 -0.013225862 -0.0378933 -0.10528
000270 0d d1 d7 39 90 e2 62 3d 3b 2f 84 bd e6 87 a9 bd
       0.0004116375 0.055391848 -0.06454321 -0.08277874
000280 bc 88 5e bd f6 ff 5a bd 57 b4 0a bd 3a 7e 0d bd
       -0.05432962 -0.05346676 -0.03386339 -0.034544207
000290 c2 9d 6a 3d 56 78 2c 3a b2 65 2a bd f2 72 60 3d
       0.057279356 0.0006579211 -0.04160089 0.05479712
0002a0 0b 09 9e bd 34 29 e3 3c 65 52 6a bd 60 72 4a bd
       -0.077165686 0.027729608 -0.057207484 -0.049425483
0002b0 c7 54 d6 3c 3c 87 92 bd 31 82 ac 3c 4b 1e 44 bd
       0.026163472 -0.071547 0.021058174 -0.047880452
0002c0 99 a1 a0 bc a9 07 9f bc 2b 1a 10 3d 18 b3 c3 bd
       -0.019608306 -0.019412832 0.035181206 -0.09555644
0002d0 54 f3 26 bd cb 73 c3 3c ce ce be bd c7 12 46 bd
       -0.0407594 0.023858925 -0.093167886 -0.04835775
0002e0 35 dc 68 bd c6 14 27 3d 61 0a b5 bd 71 d0 55 3d
       -0.05685063 0.040791295 -0.0883987 0.05220074
0002f0 26 51 80 3c bd e6 7a 3c 97 33 3c 3d 26 85 97 3b
       0.015663695 0.015313801 0.045947637 0.004624027
000300 d9 ed 9d 3c cb fe 8d bd 48 5d cc bd 91 f8 08 3d
       0.019278454 -0.069333635 -0.099787295 0.033440176
000310 99 ac b3 bd ad 7b cf bd 40 39 58 bd 61 1b 8e bd
       -0.08773155 -0.10131011 -0.052788973 -0.06938816
000320 5b df 3c 3d ef 39 07 bd 12 96 cf bd e5 f0 6c bd
       0.046111446 -0.033014234 -0.101360455 -0.057846922
000330 6d aa 48 bc 35 1e 75 bc ca 8e 58 bd ca 01 dc 3c
       -0.012247664 -0.014960815 -0.05287055 0.026856322
000340 c5 2d 07 bd da 75 ca 3c 39 b3 58 3b ee 72 1f 3d
       -0.033002634 0.0247144 0.003306581 0.038927965
000350 2f bb c5 bc ae 0a 3d bd fd d9 2d bd f1 a6 20 3d
       -0.024137108 -0.046152763 -0.042444218 0.039221708
000360 b5 77 e3 3c 3b 1f c2 bd b8 75 a9 3c 17 f3 80 bd
       0.027767042 -0.09478613 0.020686015 -0.06296366
000370 a7 8c 49 bc 50 32 0f bd 56 b3 b0 bd 0c ac 5c bb
       -0.012301601 -0.03496009 -0.086279556 -0.0033671884
000380 e2 9e 29 3d e4 20 f6 3a 95 86 b2 3c 62 c1 93 bd
       0.041411288 0.0018778113 0.02179269 -0.07214619
000390 b1 84 c4 bc 4c fb 95 bd b4 33 be bd bc 46 b4 bd
       -0.023989053 -0.07323322 -0.09287205 -0.08802554
0003a0 6f 25 2f bc 17 25 b5 3c 31 f5 cd bd b9 d5 51 3d
       -0.010690077 0.022112412 -0.10056532 0.051229212
0003b0 09 8b 14 bc 7b e3 af bb 8a 1f a1 3d 22 45 80 bc
       -0.009066352 -0.005367694 0.07867344 -0.015657965
0003c0 5a fc 9f 3c 1a f2 8c bd 25 1d 8f 3d 5f e9 39 bd
       0.01952951 -0.06882115 0.06987981 -0.045388576
0003d0 00 b7 95 3d a7 76 c7 3c 6a 16 e7 bc 5e 4d 65 bd
       0.07310295 0.02434857 -0.02820893 -0.055981986
0003e0 4e 67 ef bb df 7a ac bd eb e0 17 bd f1 94 cc 3b
       -0.007306016 -0.08421873 -0.037079733 0.006243341
0003f0 ba 57 8b bc 77 19 b2 bd 62 f6 86 3d e0 5b 86 bd
       -0.017009605 -0.08696263 0.065899625 -0.065604925

experts.0.3.bias f4 [32]
000000 cb bf 91 bd cf 7c 96 bc e3 6c ad bd 91 77 e4 bc
       -0.0711666 -0.01837006 -0.08468034 -0.027889045
000010 bd 29 0e 3d 30 e3 7b bd 39 e0 28 3d 1f e3 95 3c
       0.034707773 -0.06149596 0.04122946 0.018296776
000020 75 d5 98 bd 18 81 82 bd 59 47 94 3d 1f 42 56 bd
       -0.07462589 -0.06372279 0.07240171 -0.05230915
000030 1c 16 1a 3e cc fe 2d 3d 20 9e d3 bc 01 7f 40 bd
       0.15047497 0.04247932 -0.025832236 -0.04699612
000040 cc 06 e8 3d 17 c6 14 3d ba 70 84 3d 3c 52 a8 bd
       0.113294214 0.036321726 0.064668134 -0.0821881
000050 12 d8 7b bd 17 a2 c6 bb 32 9d 98 bd bb 99 cf bc
       -0.061485358 -0.006061803 -0.074518576 -0.02534186
000060 b1 e9 43 3b 98 12 4b 3d 6e b1 a6 3d a8 fa ba bc
       0.002989393 0.04957828 0.08139311 -0.0228246
000070 85 d6 85 3d 38 d0 a3 3d 5c 11 41 bc 3c 26 79 bd
       0.06535057 0.07998699 -0.011783924 -0.06082748

experts.1.0.weight f4 [16, 1, 3, 3]
000000 65 af ac 3b 84 ed e9 ba 08 db fb bc 1a ee 6b bb
       0.005269932 -0.0017847274 -0.03074409 -0.0036000074
000010 80 aa 9d 3c a7 21 6c 3c dd d2 ac 3e 0d 9f b9 3e
       0.01924634 0.01441232 0.33754626 0.3625416
000020 c5 bc 0d 3f a1 ed 67 bd 0b 7b 20 3e 8f 3c a6 3e
       0.55366164 -0.056623105 0.15671937 0.32468078
000030 70 5e 95 be a4 e7 ec be 91 d6 55 3e 74 e2 9e be
       -0.29173613 -0.46270478 0.20882632 -0.31032145
000040 27 18 a7 3e c2 17 2e bf ca 81 fb be 58 13 9c be
       0.32635614 -0.68005 -0.4912246 -0.30483508
000050 63 15 93 3e 20 16 94 be d5 60 94 be a4 8c 53 bd
       0.28727254 -0.2892313 -0.28980127 -0.051647797
000060 a8 18 95 3d 7c 1d a6 bb 54 ff 31 be 18 b9 cb be
       0.072800934 -0.005069433 -0.17382556 -0.39789653
000070 9f a9 06 be db 21 6a 3e 72 3d b8 bd 4c e6 41 3e
       -0.13150643 0.22864477 -0.08996095 0.18935508
000080 ec 7b 0a 3d b7 cb fb 3d 8f 98 2e be 8e 06 83 3e
       0.033809587 0.12294715 -0.17050384 0.25590938
000090 8c ee 83 3d 51 f5 95 3e 89 06 13 3e 7f fc be 3d
       0.064419836 0.29288724 0.14357962 0.093255036
0000a0 95 e8 74 3e 50 50 5d 3d f4 60 c5 be 75 04 5a bf
       0.23916848 0.05403167 -0.38550532 -0.8516305
0000b0 b4 97 8d 3d 36 15 ac 3e 5b f6 ed 3e c0 df 74 3e
       0.06913701 0.33609933 0.46477017 0.23913479
0000c0 5f b8 54 3e 4a 8b ee be c2 be b1 3c 8c b0 b0 be
       0.20773457 -0.46590644 0.021697406 -0.34509695
0000d0 5a a4 b9 be c5 a5 16 bf 42 81 6a be b4 a0 13 bf
       -0.36258203 -0.58846694 -0.2290087 -0.5766709
0000e0 bd 56 e5 3d 68 37 da 3d 89 4e 1d bf 14 15 30 3e
       0.11198185 0.10655099 -0.6144796 0.1719554
0000f0 4c 4a f4 be 6c a7 ae 3e 29 ad 4b 3c e5 a0 4f 3e
       -0.47712934 0.34112108 0.012431421 0.2027622
000100 0c f2 0a be 87 98 55 3e fb b1 96 bf dc bd 11 bf
       -0.13568896 0.20858966 -1.1773065 -0.5693033
000110 84 0e d9 be 35 07 99 3c df d7 2d 3d b6 ac aa be
       -0.42393887 0.018680194 0.0424422 -0.33334893
000120 99 02 0b bd 9e ee 1f 3e a7 26 7a be 96 99 31 bf
       -0.033938024 0.15618369 -0.24428807 -0.6937498
000130 eb f0 2b bf dc 68 92 3e 8e ac 9b be 71 e1 a6 bc
       -0.67164487 0.28595626 -0.30405086 -0.02037117
000140 75 83 25 3e 34 b1 8b 3e 62 6f 70 3c ee b3 35 be
       0.16163428 0.27283633 0.014674993 -0.17744419
000150 99 25 68 be 50 05 19 3e fa 7e 78 bb 66 3e d2 3d
       -0.22670592 0.14943433 -0.003791748 0.10265808
000160 de 6d 37 be 19 77 67 3e e9 ca 18 3e d5 83 96 3e
       -0.17913005 0.22604026 0.14921154 0.29397455
000170 8a 85 d4 bd 9c c3 22 3e e4 0e 7a 3e 8a 7d 52 be
       -0.10377033 0.15894932 0.24419743 -0.20555702
000180 a5 c2 26 3e dc 0f de be ea b1 2e 3e 93 67 19 3c
       0.16285188 -0.43371475 0.17060056 0.009363073
000190 27 bb 81 3e d7 4e a2 be 0d 04 98 3d f5 48 ce bd
       0.25338098 -0.31700775 0.074226476 -0.10072509
0001a0 85 a6 94 be 50 b2 00 3e d3 5b 92 3e 0f d2 ea be
       -0.29033294 0.12568021 0.2858568 -0.45863387
0001b0 4b 0d 30 3e 3c aa 0b 3e e2 9d a4 3e 2d 01 ee 3d
       0.17192571 0.13639158 0.32151705 0.11621318
0001c0 e6 ce 7c 3e 4f 62 36 3e ed 23 73 3e f4 73 1b be
       0.246883 0.17810939 0.23744173 -0.15180951
0001d0 a9 f3 20 bf 33 26 7f be ec 6c 5a be 50 d6 dd be
       -0.62871796 -0.24916916 -0.21330613 -0.4332757
0001e0 f1 40 f2 bd 08 c1 99 3e dc 09 68 be 43 59 9e be
       -0.11828793 0.30030084 -0.22660011 -0.30927476
0001f0 9e fe 63 bf fa fa 73 bf 2a 37 8a bd b2 91 c6 be
       -0.8906039 -0.95304835 -0.06748803 -0.38783032
000200 bf d7 93 be 99 2a 3d 3e 52 f0 75 3e 3a 96 7e bc
       -0.2887554 0.18473281 0.24017456 -0.0155387465
000210 dd 9d 25 bf 06 56 83 bf 3c 13 0e bf 1d 14 64 be
       -0.64694005 -1.0260627 -0.554981 -0.22273298
000220 14 86 81 3e 9f 6d ae be 96 ed a5 3e 52 c9 9b 3e
       0.25297606 -0.3406801 0.32407826 0.30427033
000230 ff 22 a6 be 56 94 7f be e4 68 da 3b 74 81 3b be
       -0.32448575 -0.2495893 0.006665336 -0.18311101

experts.1.0.bias f4 [16]
000000 a5 36 a9 bb 87 5e 33 be 28 14 6b 3e 12 63 87 be
       -0.005163985 -0.17516528 0.22956908 -0.26442772
000010 92 e1 89 be d2 a6 44 38 f3 bb 55 bc 82 53 7d ba
       -0.2692991 4.6885405e-05 -0.013045299 -0.0009663628
000020 54 b7 4b 3e 51 cb a8 be bc 1f 9b be 76 d9 8d bd
       0.19894153 -0.32967618 -0.3029765 -0.06926243
000030 40 89 91 be 17 96 13 3e 99 31 fc bd 8c f3 06 3b
       -0.28425026 0.14412723 -0.123141475 0.0020591943

experts.1.3.weight f4 [32, 16, 3, 3]
000000 f3 f0 85 3b a2 38 2a bc 3b 33 c2 bc a5 7f d8 be
       0.0040875613 -0.010389479 -0.02370607 -0.42284885
000010 ca dd e0 be 87 9a 0e bf 71 bd 17 3d 69 38 80 bd
       -0.43919212 -0.5570454 0.0370459 -0.062607594
000020 bc d0 a8 bc 6d 05 cd 3c 2c c7 20 bd c3 77 3d bd
       -0.020607345 0.025027001 -0.039252445 -0.04625679
000030 13 dc 3d bd 26 7e 4a 3d bd bb a1 bd c6 68 8c bc
       -0.046352457 0.04943671 -0.07897136 -0.017139804
000040 65 8d 36 3d f6 d3 0c bd 3a aa 04 bd df 17 ab 3d
       0.044568438 -0.03438183 -0.032388903 0.083541624
000050 39 d0 81 bd 40 e9 b8 3d 88 c6 8e bc 02 54 9b 3d
       -0.063385434 0.09028864 -0.017428651 0.075843826
000060 32 9c 99 3c 68 41 92 3d 6d 89 8d 3d 7f 9d ec ba
       0.018751238 0.071413815 0.069109775 -0.0018052309
000070 a7 87 86 bd 6e a5 34 bc 0e 89 86 3b ab d8 20 3d
       -0.065688424 -0.01102577 0.0041056937 0.03926913
000080 5c f8 fc 3c 7d 5b a7 bd d3 c2 d0 bc d3 13 c6 bd
       0.030880146 -0.08171747 -0.025483524 -0.0967175
000090 37 3c 36 be 21 5d af 3d f5 b7 36 be 70 7e ae 3d
       -0.17796408 0.08562685 -0.17843612 0.0852021
0000a0 5f 99 5f bd 4c 4e bf bc 61 83 a1 3b e0 48 dd bd
       -0.054589625 -0.023352765 0.0049289917 -0.108049154
0000b0 bd 38 4c bb 44 17 e2 bd 80 ed 26 bd 17 b7 48 3d
       -0.0031161748 -0.11039594 -0.04075384 0.049002733
0000c0 af ef 2c 3b 5d b6 ab 3d 64 57 f9 bc e9 47 fc bd
       0.002638798 0.083843924 -0.030437179 -0.12318403
0000d0 d1 ec 72 be 3f 3b fc be c4 4d 04 3e b4 e3 a3 3d
       -0.23723151 -0.4926395 0.1292029 0.08002415
0000e0 96 2b dc bd c1 83 48 bd 0b 90 5a be 06 77 36 bd
       -0.10750501 -0.048953775 -0.2134401 -0.044547103
0000f0 24 f1 8c 3b b6 01 49 bd 1b 39 1c be f2 55 c4 bd
       0.004301207 -0.049073897 -0.15256159 -0.09586705
000100 23 58 a3 3d 46 83 31 3e b9 ea 00 bd 08 39 7f 3d
       0.07975795 0.17335233 -0.03147385 0.06231025
000110 de 22 4a 3d 74 75 58 be fd 0f ff be b9 ca 19 bf
       0.04934966 -0.21138555 -0.49816886 -0.60074955
000120 8d 5a e7 3d b7 c9 aa 3d 3c 8f cd 3d 47 62 e0 3d
       0.11296568 0.08339255 0.100370854 0.10956245
000130 f1 f4 bf 3d ed a6 bb 3c 63 46 f9 3c bd 47 9a bd
       0.09372891 0.022906745 0.03042907 -0.07533214
000140 83 4c b6 bd 70 61 2f bc 29 c3 39 be 23 fd 82 3d
       -0.08901312 -0.010704383 -0.18140854 0.06395938
000150 d0 7a 50 bd d1 66 d8 bb ce c0 10 bd dc fd d8 bd
       -0.050898373 -0.0066040535 -0.035340123 -0.10595295
000160 4f c9 94 bd b9 84 81 bc aa 14 aa bc df 1b 91 bd
       -0.07264959 -0.015810357 -0.020761807 -0.07085394
000170 19 5f 15 bd 7a 4a 2d be 41 57 a9 3d d4 4c 06 3d
       -0.036467645 -0.16922942 0.082685955 0.032788113
000180 2f 34 7c bd fa 48 68 bd d3 04 1a 3d da 10 0f 3c
       -0.061573204 -0.05671022 0.037602257 0.008732045
000190 1c 7e 2a bd cd ee 3f 3d 25 bc 20 bd e8 43 48 bc
       -0.041624174 0.046858598 -0.03924193 -0.012223221
0001a0 20 61 8f bd 50 55 a6 bd 85 96 c9 3c df 18 3d be
       -0.07000947 -0.08121741 0.024607906 -0.18466519
0001b0 ec 91 3b bd eb 7a a7 bd 85 e1 36 bc 99 32 a0 bd
       -0.04579346 -0.081777416 -0.0111621665 -0.07822151
0001c0 4c 0c 26 bd a7 7a 17 be cb 09 2f bd 42 2b 6a bd
       -0.04053907 -0.14792882 -0.04273395 -0.05717016
0001d0 03 3f 9c bc 24 dc 70 3d 90 36 b9 3d a7 ce 1f 3d
       -0.019073015 0.058803692 0.0904361 0.03901544
0001e0 3d 05 b2 bd 25 19 39 3c 66 85 c8 3c bc 47 ab 3d
       -0.086924054 0.011297499 0.024477672 0.083632916
0001f0 fb 33 ab 3d 4f 9f 98 3d 36 92 f3 bd 66 06 51 3d
       0.08359524 0.07452261 -0.11893122 0.051031493
000200 8c 71 7e 3d f2 7f 73 be 7d 71 cf 3d 6f 22 8c be
       0.062120005 -0.23779276 0.10129068 -0.2737002
000210 18 70 85 3d 16 79 86 bd c9 a6 68 be ae f1 63 3b
       0.06515521 -0.06566064 -0.22719873 0.0034781503
000220 ad 63 97 3d d4 28 e5 3c 76 80 92 3d ed 39 3b bb
       0.073920585 0.02797357 0.07153408 -0.0028568462
000230 5f 00 e2 bd 53 f2 80 bd 24 6f 17 bd 39 fe 09 bd
       -0.11035227 -0.0629622 -0.036971226 -0.03368971
000240 ad b3 b7 bd e9 78 bc 3c 06 ec 5b bd 55 88 a6 3c
       -0.08969817 0.023006873 -0.053691886 0.02032868
000250 0e 6c cd 3c 29 1d c4 bd 55 b5 99 bd 64 e9 45 bd
       0.025075939 -0.09575874 -0.075052895 -0.04831828
000260 b6 20 d9 bb 56 c1 0e 3d 9f ac 5d bd 58 f4 6f 3d
       -0.006626214 0.03485235 -0.054119702 0.058582634
000270 8c 15 6c bd 41 02 95 bc 18 13 83 3c 6e 59 47 bd
       -0.057637736 -0.018189551 0.016000316 -0.04866927
000280 bc 1b 9f bd 04 d7 8e bd fa 30 9f bd ed aa 45 3d
       -0.07768962 -0.06974605 -0.077730134 0.04825871
000290 56 d0 0d 3d eb eb a8 bd b5 3d 9f bd d8 06 df bd
       0.034622513 -0.08248123 -0.077754416 -0.10889977
0002a0 89 37 5b 3a cf 75 46 bd 71 27 b6 bd 0b 6a 43 bc
       0.00083624624 -0.048452195 -0.088942416 -0.011927138
0002b0 6e 14 03 bd 61 84 b6 3c 91 c3 07 3d 57 98 3f bd
       -0.032001905 0.02227992 0.03314549 -0.046776142
0002c0 68 be 4e 3d b3 86 6c bd d0 42 11 3c 4e bf c9 3c
       0.050474554 -0.057745647 0.008866027 0.024627354
0002d0 14 a1 56 ba d8 d9 f7 3c 4b d7 a3 3c e2 ac 7e bd
       -0.00081874547 0.030255243 0.02000012 -0.062176593
0002e0 d7 a0 87 bd 54 55 79 bd 39 6e 01 3c 45 c9 85 bd
       -0.06622475 -0.06087239 0.007899814 -0.0653253
0002f0 7d e1 b7 3c 31 c4 72 3c da 4f 2b 3c e7 da 2d 3a
       0.022446388 0.0148172835 0.01045605 0.0006632045
000300 46 89 37 3c 34 a4 eb bc 21 d6 df 3b 6c f0 22 bd
       0.011202162 -0.028764822 0.006830946 -0.039780065
000310 82 25 a8 bc e8 e7 ae bd 7e ed 2d bd dc 0d 8a bd
       -0.020525698 -0.08540326 -0.04246282 -0.06740925
000320 0b cc 31 3d 27 da ab bd 80 f9 21 3d e6 3f 05 be
       0.04340748 -0.08391219 0.039544582 -0.13012657
000330 28 58 d2 3c d9 05 e7 3b 53 b4 0e 3d d9 12 fe 3b
       0.025676802 0.0070502576 0.03483994 0.0077537117
000340 98 59 c6 3c 74 82 bb 3c de 85 c0 bd d0 21 d9 bc
       0.024212644 0.022889353 -0.09400533 -0.02650538
000350 44 cc 8a bd f2 8c 60 3d 15 25 8f bc 5a 1d 80 3d
       -0.06777242 0.054821916 -0.017473737 0.06255598
000360 80 d9 b5 bb b0 43 ce 3a be aa cf bd 13 44 9b bd
       -0.0055496097 0.0015736725 -0.10139988 -0.075813435
000370 f6 8b 13 bd db 07 ce bd d5 df 57 3c b1 16 d8 bb
       -0.03602215 -0.10060092 0.013175924 -0.006594502
000380 6c f8 2d 3c a0 20 ea bc 07 ee 8b bd 34 8b c8 bc
       0.01061831 -0.02858001 -0.068325095 -0.02448044
000390 b4 21 0e 3b e4 3e 84 3d 91 ec 6d bd e1 10 44 bc
       0.002168757 0.06457308 -0.058086935 -0.011966915
0003a0 65 24 9f 3c d6 80 f0 3c 82 40 8d 3c 33 5b 23 bb
       0.019426534 0.029358309 0.017242674 -0.0024926185
0003b0 09 66 8c bc f0 63 6e 3c bc 5b 5b 3a cd 45 58 3d
       -0.017138498 0.014550194 0.00083678565 0.052800942
0003c0 bd e6 6f bd c2 65 96 3c cf e1 a1 3c d9 d9 2a bd
       -0.05856966 0.018359069 0.019760994 -0.041711662
0003d0 8e fa 7a bd 64 1a 75 bd 84 f3 8f bc 56 00 b8 bc
       -0.061274104 -0.05983962 -0.017572172 -0.022461098
0003e0 25 9c 53 bd 4b d7 45 3d c6 a5 5e bd b5 4a 95 bd
       -0.051662583 0.048301022 -0.054357313 -0.0728964
0003f0 3e 19 6d 3d de 15 22 3d 95 6e 37 3d 69 58 68 bd
       0.0578854 0.039571635 0.044783194 -0.05672494

experts.1.3.bias f4 [32]
000000 2b e2 5c 3d ad ea ba bd 16 42 71 3d 95 9b 68 bc
       0.053926628 -0.09126792 0.058900915 -0.01419725
000010 69 9e cd 3c a8 53 05 bc 7c 31 97 3d ee 5e 1c 3d
       0.02509995 -0.008137621 0.07382485 0.03817647
000020 5d 88 19 bd 79 95 8d 3d b5 2a c3 3d 3f 01 04 3e
       -0.03748356 0.06913275 0.0952963 0.128911
000030 c8 b2 73 3d 55 e1 c4 3d 8e e1 78 3d eb 4a 7f 3d
       0.05949667 0.09613291 0.06076198 0.062327307
000040 a1 0f 41 bd 74 65 c2 bd 11 df 4c bc 41 a3 c0 3c
       -0.047134046 -0.09492007 -0.012504355 0.023515346
000050 18 e6 90 3c bc e3 03 bc b4 0e 38 3d 7f 72 04 bd
       0.017687842 -0.008049902 0.044935897 -0.032335754
000060 6a dc 99 bd c1 b0 03 3d 58 d5 8e 3c f8 63 9f bd
       -0.07512744 0.032150988 0.017435715 -0.077827394
000070 29 78 cd bd b5 17 c0 bd 73 a5 e7 3c 30 52 44 bd
       -0.10032684 -0.09379522 0.028277135 -0.047929943

experts.2.0.weight f4 [16, 1, 3, 3]
000000 5f fa c9 3e f5 6d 11 be d4 1a c9 3e 35 8f 15 be
       0.3944883 -0.14202102 0.3927828 -0.1460541
000010 00 95 81 3e 93 d7 b8 3e 70 4f 2b 3e 73 67 85 3e
       0.2530899 0.3610197 0.16729522 0.26055488
000020 c8 8e cb bd f0 17 32 3d 73 aa 05 3e e5 23 f9 bd
       -0.09939343 0.04347986 0.13053302 -0.121650495
000030 2d 46 39 3e c0 6b cd 3d 53 e5 de bd 6f 87 06 3e
       0.18093176 0.10030317 -0.10883584 0.13137601
000040 94 80 ce 3e 90 c2 de 3d 61 35 c9 3e 24 37 f5 3d
       0.40332472 0.108769536 0.39298537 0.11973408
000050 c4 d7 5a 3e fc a3 5e be 3f e0 0e 3a df 3b 7e 3e
       0.2137137 -0.21742243 0.00054502854 0.24827527
000060 15 9c 0a 3e 8a 30 bd 3d 06 92 31 be 07 68 d0 be
       0.13536103 0.09237774 -0.1734086 -0.40704367
000070 ed f8 2a bd f9 36 c0 be 8b 72 be 3d 04 da 8e 3d
       -0.0417413 -0.3754194 0.09299191 0.06975177
000080 7b b4 06 3c 9c 00 aa be 4b 3a 7a bd 82 e7 d5 be
       0.008221741 -0.3320359 -0.06109075 -0.4177819
000090 50 f9 93 3e 2c a3 5c 3c f2 0c ac 3b d9 3d 83 3e
       0.28901148 0.013466638 0.0052505666 0.25633124
0000a0 49 12 4c 3c dc b9 71 3e f0 1e a3 bd 23 04 02 3c
       0.012455531 0.23606056 -0.07964885 0.007935557
0000b0 fd 76 9f 3d 6f eb 03 bf 2a 05 cf be d1 30 75 3e
       0.07786367 -0.5153112 -0.40433627 0.23944403
0000c0 ef e9 86 be 70 17 02 be fc 6f 67 bd da 45 97 be
       -0.26350352 -0.12704253 -0.05650328 -0.2954548
0000d0 3c 64 99 be fe 3b b9 be 58 df 63 bc 7c 60 97 3e
       -0.29959285 -0.36178583 -0.01390823 0.295658
0000e0 63 8d 9a 3e ad ca c1 3e f2 49 48 3e 81 f4 5d 3e
       0.30185995 0.37849942 0.19559458 0.21675302
0000f0 a5 75 4f 3e 5a 40 85 3e fd 5a b6 3d d6 96 3f 3e
       0.20259722 0.2602566 0.089040734 0.18709883
000100 ff b3 d7 3e ab 34 7d bc 3c 48 74 3d 5f 52 9c 3e
       0.42129514 -0.015454452 0.0596392 0.30531594
000110 a3 59 ba bb d4 0b a4 3e 13 0b eb bd c5 22 24 3e
       -0.005686955 0.32040274 -0.114767216 0.16028889
000120 24 d9 ec bd 60 13 ab bd ec 56 ee bc 04 20 a1 3e
       -0.11564854 -0.08353305 -0.029094182 0.31469738
000130 fd 3a 4f 3e d7 4c 5f 3e f1 03 6e 3e de 28 96 3e
       0.20237346 0.21806656 0.23243691 0.29328054
000140 aa dd c6 bd ec a5 99 be e4 71 de 3d 42 b3 b4 3e
       -0.09710248 -0.300094 0.10861567 0.35293013
000150 5b db 6d be d9 d2 bb 3d 7a 50 92 3d 08 26 83 3d
       -0.23228209 0.091710754 0.07144256 0.06403738
000160 78 4a 8c 3d 60 3e 66 3c 26 b1 2c be 94 3d 96 be
       0.06850141 0.014052957 -0.16864452 -0.29343855
000170 43 67 e4 3d 17 44 81 bd c8 7e 84 bd 89 ab 09 3e
       0.11152508 -0.06311815 -0.06469494 0.13444342
000180 a9 4b 99 3e 11 ca ac 39 0c 00 ae 3e a2 57 9c bd
       0.29940537 0.00032956948 0.3398441 -0.07633902
000190 cd b7 94 bc 60 f9 36 be af 74 7f be 9a 7c 8e be
       -0.01815405 -0.17868567 -0.24946855 -0.27829438
0001a0 4b 64 a8 bc ea 9e 71 3e da 14 8c be 4c 40 4d be
       -0.020555636 0.23595777 -0.27359658 -0.20044059
0001b0 5a 5a 53 bd 50 0d 9a be 58 2f a1 be 55 90 4d be
       -0.051599838 -0.30088282 -0.31481433 -0.2007459
0001c0 34 fa bd 3e 6e 61 d9 bd 91 29 fe 3b 8c 04 69 3c
       0.37104952 -0.10614286 0.00775642 0.0142222755
0001d0 5a fa f6 3e 5b 69 b1 3e 36 71 58 bd 32 3f 66 3d
       0.48237878 0.34650692 -0.05284234 0.05621261
0001e0 e0 5b 4c 3e 26 e9 00 3f db 24 71 be 7e 53 f7 3d
       0.19956923 0.50355756 -0.23549215 0.12076472
0001f0 9a af 06 be e2 28 33 be 30 c1 b4 bb c7 eb a7 3d
       -0.13152924 -0.17496064 -0.005516194 0.08199268
000200 18 0f be 3e a1 4b 15 be be 33 7d bd c7 65 b9 3e
       0.3712089 -0.14579631 -0.061816923 0.36210462
000210 1e fc a8 be a4 53 ba be 0a 2f e8 bd 73 71 17 be
       -0.3300485 -0.36391938 -0.11337097 -0.14789371
000220 cb f9 7e 3d 9b d4 ca be 49 76 0f 3e 1b 9c d3 bd
       0.06224994 -0.3961533 0.14009966 -0.10332509
000230 94 24 92 be d2 85 9a 3e b1 d5 20 be 9f f2 85 3e
       -0.28543532 0.30180222 -0.15706517 0.26161668

experts.2.0.bias f4 [16]
000000 8c 93 18 be 36 1a 00 3d b5 55 6f be 49 20 a7 bc
       -0.14900035 0.031274997 -0.23372538 -0.020401137
000010 01 03 1f 3e e0 c8 cc 3d 0b 4d d3 bc 24 6a 97 bd
       0.1552849 0.09999251 -0.025793573 -0.073932916
000020 46 66 84 bc 84 fc d9 3d 28 15 0e 3d ce 3f 86 3e
       -0.016162049 0.10643867 0.034688145 0.26220554
000030 f5 f8 98 be 2f 4a 83 bd 77 f2 b2 bd e3 24 2b be
       -0.2987744 -0.06410634 -0.08737653 -0.1671329
