pth_normalized/feature_attention.pth (torch, 694253 bytes, 40 tensors)

feature_attention.fc1.weight f4 [128, 58]
0	0x3e49b9c6	0.19699773
1	0x3a323000	0.00067973137
2	0x3cf16c93	0.029470718
3	0x3cfe6ff0	0.031059235
4	0x3ddd5b4a	0.10808428
5	0x3dd55eb1	0.104184516
6	0xbdd0b9fc	-0.10191724
7	0xbe700440	-0.23439121
8	0xbdb7cfab	-0.089751564
9	0x3e00ed1f	0.12590455
10	0xbe14891d	-0.1450543
11	0xbc8d1d4c	-0.017225884
12	0x3d2a7f9e	0.04162561
13	0x3e350367	0.17677079
14	0x3e04a843	0.12954812
15	0x3d9d2e1c	0.0767481
16	0x3dc6b934	0.097032934
17	0x3cea20eb	0.02858015
18	0x3e4e143a	0.20124903
19	0x3e18ba79	0.14914884
20	0x3e1f4731	0.15554501
21	0xbe70a2c2	-0.23499587
22	0x3e12fb57	0.14353691
23	0x3d1b8561	0.037968997
24	0x3e6c2c3f	0.23063754
25	0xbdfe5b9e	-0.12419818
26	0xbe257c80	-0.16160774
27	0xbedd4965	-0.43220058
28	0x3e8ec34c	0.27883375
29	0xbe6fba43	-0.23410897
30	0x3e280b1d	0.1641049
31	0x3e1ac85f	0.15115498
32	0xbd58b89e	-0.05291044
33	0xbe05aa32	-0.13053206
34	0x3d5388bd	0.051644076
35	0x3c8dd3c8	0.0173129
36	0x3dc35cb0	0.09539163
37	0x3df958a4	0.1217511
38	0x3da14d7c	0.07876107
39	0x3e05a7e2	0.13052323
40	0xbd37dfc8	-0.04489115
41	0x3d85078a	0.064955786
42	0xbd52333b	-0.05131839
43	0x3d1daa9d	0.038492788
44	0x3d8b0a2b	0.06789049
45	0x3e394a09	0.18094648
46	0xbe532915	-0.2062114
47	0x3d8f03b8	0.06983131
48	0xbebb06a7	-0.36528513
49	0xbf022314	-0.50834775
50	0x3d8dde2b	0.06927141
51	0xbd524ece	-0.051344685
52	0xbd390769	-0.045173083
53	0x3e896983	0.26838312
54	0xbd956f56	-0.07296626
55	0x3bfd9087	0.0077381763
56	0xbc02e7b3	-0.007989812
57	0xbe4cd3f6	-0.20002732
58	0xbe41ac0c	-0.18913287
59	0xbe9befbe	-0.30456346
60	0x3e2171fa	0.15766135
61	0xbde76726	-0.11298971
62	0x3ef5a7fc	0.47979724
63	0x3d9aedac	0.075648636
64	0x3d801f8c	0.06256017
65	0xbf348661	-0.70517546
66	0x3e822491	0.25418523
67	0xbccc0e51	-0.02490917
68	0xbe4db39a	-0.20088044
69	0x3f5f6ee8	0.87278605
70	0x3cc05fa8	0.023483112
71	0x3ec2390a	0.37934142
72	0x3b8be2ee	0.0042689955
73	0x3b91e99c	0.0044528972
74	0xbe6ecac1	-0.23319532
75	0x3d8ff9f8	0.070301
76	0xbe9bcf59	-0.3043163
77	0x3d003540	0.031300783
78	0xbeafde60	-0.34349346
79	0xbe26705d	-0.162538
80	0xbdd53e04	-0.10412219
81	0x3e449bf2	0.19200113
82	0xbffdd67a	-1.9831078
83	0x3f34ba0c	0.70596385
84	0xbf5d08fe	-0.86341846
85	0xbf10e0f1	-0.56593233
86	0x3eb144ce	0.34622806
87	0xbee05e60	-0.43822002
88	0xbfcd67df	-1.6047324
89	0xbf8f3417	-1.1187772
90	0x3e3b768f	0.18306945
91	0x3f3a6b90	0.7282038
92	0xbb877c42	-0.0041346857
93	0x3f134abf	0.5753593
94	0xbf0c6e1e	-0.54855525
95	0xbf1a4696	-0.60263956
96	0xbe98dcde	-0.29856008
97	0xbd346eb8	-0.044050902
98	0xbf68d874	-0.9095528
99	0xbf7c92aa	-0.9866129
100	0xbfa3c76a	-1.2795231
101	0xbf42a18f	-0.7602777
102	0xbf13cfd3	-0.5773899
103	0x3e6a606d	0.22888346
104	0xbfa4c25f	-1.2871817
105	0x3e855672	0.26042515
106	0x3daf25b9	0.08552117
107	0x3d778633	0.060430717
108	0xbd9d226b	-0.0767258
109	0xbdad45fd	-0.08460615
110	0x3e59c3b3	0.2126606
111	0x3b88dde4	0.004176842
112	0xbebcf652	-0.36906677
113	0xbdbbb26a	-0.09164889
114	0xbd23868e	-0.039923243
115	0x3db79098	0.08963126
116	0x3e11187b	0.14169495
117	0x3daabe32	0.08337058
118	0xbb67d4cd	-0.0035374642
119	0x3c5335f0	0.012891278
120	0xbad69f00	-0.001637429
121	0x3e7a5bd3	0.2444909
122	0x3db57b10	0.08861363
123	0xbd39fe3a	-0.045408465
124	0xbe3dc90a	-0.18533722
125	0x3df8ec61	0.12154461
126	0xbc60b3ba	-0.013714725
127	0xbe9d18c5	-0.3068296
128	0x3e75bb65	0.23997267
129	0x3e846ca4	0.25864136
130	0x3d86ee22	0.06588389
131	0x3e89e3c3	0.2693158
132	0x3e69670b	0.22793214
133	0x3e79f14d	0.24408455
134	0x3d51e31c	0.05124198
135	0x3de908e4	0.11378649
136	0x3e0ae75b	0.13564818
137	0x3ec7006e	0.38867515
138	0x3e29fe36	0.1660088
139	0xbeb249b9	-0.3482187
140	0xbdc37b5d	-0.09545014
141	0xbeb44c2a	-0.3521436
142	0xbde9da95	-0.11418644
143	0x3eb3be81	0.3510628
144	0x3d63031e	0.055422895
145	0xbdf32278	-0.11871809
146	0x3e3edf2b	0.1863982
147	0xbd32edf8	-0.043683976
148	0xbdac48cf	-0.08412325
149	0x3d514ea7	0.0511004
150	0xbeb2baed	-0.34908238
151	0x3e22b606	0.15889749
152	0xbd58187d	-0.05275773
153	0xbe14c3d5	-0.14527829
154	0x3d91f680	0.07127094
155	0x3d9ed2e6	0.077550694
156	0x3f0c4862	0.5479795
157	0xbdfd67d8	-0.12373322
158	0xbe26e504	-0.162983
159	0x3eaebc6b	0.34128127
160	0x3e65c42b	0.22438113
161	0x3d66a06c	0.056305334
162	0x3e052edf	0.13006161
163	0xbcd3e62a	-0.025866587
164	0xbea8f1f9	-0.3299711
165	0xbde09d3e	-0.109674916
166	0x3db3f61c	0.08787176
167	0xbebaf073	-0.36511573
168	0xbd9f5345	-0.07779554
169	0x3e8df903	0.27729043
170	0xbce44efc	-0.027869694
171	0x3e6f5abf	0.2337446
172	0x3cd77c7f	0.026304482
173	0x3a6ca43b	0.0009027158
174	0x3e244e4d	0.16045494
175	0xbe516db7	-0.20452009
176	0xbb7dcad3	-0.003872563
177	0x3dc314e8	0.09525472
178	0xbe1b8324	-0.15186745
179	0x3cfbcee3	0.0307383
180	0xbcd0d3ac	-0.025491558
181	0xbdd0f9c3	-0.10203888
182	0x3d04c37b	0.032412987
183	0xbd79e11f	-0.061005708
184	0x3d3707c2	0.044685133
185	0xbdbad343	-0.09122326
186	0xbdac2d6c	-0.08407101
187	0xbd8c1d12	-0.06841482
188	0xbe206944	-0.15665156
189	0x3e189f6e	0.14904568
190	0x3dc09bb0	0.09404695
191	0xbe753ba7	-0.23948537
192	0xbe804ffc	-0.25061023
193	0xbd1974d8	-0.037464947
194	0xbe6a456a	-0.22878042
195	0x3dafc381	0.08582211
196	0x3e85e679	0.261524
197	0xbc74315a	-0.014904344
198	0x3eb939cf	0.36176917
199	0xbdb0ef9d	-0.086394526
200	0x3e921915	0.2853476
201	0x3eba66d8	0.3640659
202	0xbd835b8a	-0.06413944
203	0x3e29b312	0.16572216
204	0x3e20b25e	0.15693042
205	0x3d03e13c	0.032197222
206	0x3d2eb7d0	0.042655766
207	0xbd99b1a7	-0.075045876
208	0x3e5d9c7e	0.21641728
209	0x3e1c7041	0.15277196
210	0xbdba9cff	-0.09111976
211	0xbd4dfdd7	-0.05029091
212	0xbcad4190	-0.021149427
213	0x3cbb8c38	0.02289401
214	0x3c76e0ca	0.015068242
215	0x3dce0094	0.10058704
216	0x3e12fde7	0.14354669
217	0x3e4d2986	0.20035371
218	0x3e9e9d77	0.3097951
219	0xbe80067e	-0.25004953
220	0x3e64e9f3	0.2235487
221	0x3db0ab8b	0.08626469
222	0xbd0344ec	-0.03204815
223	0xbda4728e	-0.08029662
224	0x3b92d036	0.004480387
225	0x3d4a1b84	0.049342647
226	0xbd644fc6	-0.05574014
227	0x3c61c3c1	0.0137795815
228	0x3d825045	0.063629664
229	0x3e1aef25	0.15130289
230	0x3e3b79a6	0.18308124
231	0x3e3c04a5	0.18361147
232	0xbdbb963e	-0.09159516
233	0x3ec07b64	0.3759414
234	0xbe8d12c5	-0.27553383
235	0xbd73bd08	-0.059506446
236	0x3e05f027	0.13079892
237	0xbea2d5b4	-0.31803668
238	0xbda001f6	-0.07812874
239	0x3e72def0	0.23717856
240	0xbe2c731d	-0.16840787
241	0xbca7e1ab	-0.020493349
242	0x3de46d7b	0.11153694
243	0xbe76c6eb	-0.24099319
244	0x3c791ed8	0.015205108
245	0x3da40101	0.08008004
246	0xbcb66e0f	-0.022269277
247	0xbd9c4c4f	-0.07631742
248	0xbddd6828	-0.10810882
249	0xbe9b9c57	-0.30392715
250	0xbe40a589	-0.18813147
251	0xbebe4bea	-0.37167293
252	0xbea3aa5d	-0.31965914
253	0x3e0e6497	0.1390556
254	0x3b8fa233	0.0043833493
255	0x3e24fa68	0.16111147

feature_attention.fc1.bias f4 [128]
0	0x3e302f84	0.17205626
1	0x3d19887c	0.037483677
2	0x3e1ec4be	0.15504739
3	0xbd5aec1e	-0.053447835
4	0xbc6a6d81	-0.014308334
5	0x3ce459ac	0.02787479
6	0x3d979873	0.07402124
7	0xbe8fb4f7	-0.28067753
8	0x3d8dbdf5	0.06920997
9	0xbdc0ffc6	-0.09423785
10	0x3b8b32a7	0.0042479816
11	0xbda21bde	-0.079154715
12	0xbdb9dc1a	-0.09075184
13	0xbc87ad59	-0.01656215
14	0xbe0c9561	-0.13728859
15	0xbd98b848	-0.07457024
16	0x3c10a540	0.008828461
17	0xbdcead42	-0.1009164
18	0x3c5bd0c9	0.0134164775
19	0x3e860b6d	0.26180592
20	0x3df8c6b1	0.121472724
21	0xbdc033fb	-0.093849145
22	0xba54ec28	-0.0008122348
23	0xbd9595d5	-0.07303969
24	0xbd966f48	-0.07345444
25	0x3bf2c06f	0.007408194
26	0xbdf3cb96	-0.11904065
27	0x3d813d40	0.06310511
28	0xbe1e7abb	-0.15476505
29	0xbd61bd91	-0.055112425
30	0x3e284569	0.16432728
31	0xbd9b1b8c	-0.075736135
32	0x3e6e284b	0.23257558
33	0xbdf79df7	-0.12090676
34	0x3ac54976	0.00150518
35	0xbd9f6b96	-0.07784192
36	0xbde258b7	-0.11052077
37	0xbda890c4	-0.08230737
38	0xbc60ae2e	-0.013713403
39	0x3d4b5ad9	0.049647186
40	0x3d320a23	0.0434667
41	0xbdceb7cb	-0.100936495
42	0xbc974b82	-0.018468622
43	0xbe4bbc49	-0.19896044
44	0x3d3cb32b	0.046069305
45	0x3d7365e0	0.059423327
46	0x3d64b78e	0.055839114
47	0xbd0d95e1	-0.034566764
48	0xbd477a06	-0.048700355
49	0xbde97614	-0.11399475
50	0xbdc622a6	-0.096745774
51	0x3e192e8e	0.14959165
52	0x3ca9f94d	0.020748759
53	0x3d48dbb9	0.04903767
54	0xbdc108b0	-0.09425485
55	0x3dbaba3e	0.09117554
56	0x3cac1885	0.021007786
57	0xbe703368	-0.2345711
58	0x3df13cfb	0.11779209
59	0x3e365084	0.17804152
60	0xbeb966e1	-0.36211303
61	0x3d879d5e	0.06621812
62	0xbe1dbff9	-0.15405263
63	0xbc9c4186	-0.019074213
64	0xbe95eda0	-0.29282856
65	0x3ce56160	0.028000534
66	0x3e1667fe	0.14688107
67	0x3e4c9528	0.19978774
68	0x3d6fd74e	0.05855494
69	0xbdd331be	-0.10312222
70	0xbe19a8b0	-0.15005755
71	0xbdfb47ba	-0.1226954
72	0x3d0b5c6f	0.0340237
73	0x3de5fa0b	0.112293325
74	0xbdfaef1d	-0.122526385
75	0xbbf8e1d4	-0.00759528
76	0x3d98f274	0.07468119
77	0xbdb1d27f	-0.08682727
78	0x3dffd6e9	0.12492163
79	0xbd83fed1	-0.06445087
80	0x3e12b055	0.14325078
81	0xbad1015b	-0.0015945839
82	0xbddf9bf0	-0.109184146
83	0xbe8e2d36	-0.27768868
84	0xbbfed54c	-0.007776892
85	0x3d8d1a2f	0.0688976
86	0xbe0451be	-0.12921807
87	0xbe35755e	-0.17720553
88	0xbd07a3f4	-0.033115342
89	0xbe2c352b	-0.16817157
90	0xbdf405c1	-0.1191516
91	0x3c69716c	0.014248233
92	0x3d9bbea5	0.07604722
93	0x3d958b34	0.073019415
94	0x3d6126be	0.054968588
95	0x3e808cf5	0.25107542
96	0x3d917934	0.07103196
97	0xbe8b6362	-0.2722426
98	0xbe53ea2f	-0.20694803
99	0x3d4b8dc1	0.049695734
100	0xbd02ec29	-0.0319635
101	0xbe222cee	-0.15837452
102	0xbda4ba17	-0.08043306
103	0xbc3deedd	-0.011592594
104	0x3db1a454	0.08673921
105	0xbd9d9e59	-0.07696218
106	0x3cc0c9c2	0.023533706
107	0xbd9ff7c1	-0.07810927
108	0xbe00eaa3	-0.12589507
109	0x3dfed97a	0.12443824
110	0x3ddeed29	0.108850785
111	0x3e1cacf1	0.15300347
112	0xbe0d8383	-0.13819699
113	0x3e8dd9db	0.27705273
114	0x3def6fd1	0.11691249
115	0x3e04c89b	0.1296715
116	0x3d1587df	0.03650653
117	0xbd85bed2	-0.06530537
118	0xbda58a39	-0.080830045
119	0xbe0bbc1d	-0.13645978
120	0xbd89cf19	-0.06728954
121	0xbe0a6755	-0.1351598
122	0xbda14aaa	-0.07875569
123	0x3e1a5eb3	0.15075187
124	0xbe243da6	-0.16039142
125	0x3e293b37	0.16526495
126	0xbd83fee3	-0.064451
127	0xbd8f878a	-0.07008274

feature_attention.fc2.weight f4 [58, 128]
0	0xbe906aed	-0.28206578
1	0xbd82c8f3	-0.06385984
2	0xbd82dbe7	-0.06389599
3	0x3dd29b9d	0.10283587
4	0xbe0b5a04	-0.13608557
5	0xbc0d6bd5	-0.008631666
6	0x3d3e179e	0.04640924
7	0x3d2278de	0.03966605
8	0xbd1eff49	-0.038817678
9	0xbd600895	-0.054695684
10	0xbe405658	-0.18782938
11	0xbd592677	-0.0530152
12	0xbe2bbe97	-0.16771923
13	0x3d1906c6	0.037359975
14	0xbd822cc5	-0.06356195
15	0xbce5784e	-0.028011467
16	0xbd792e4d	-0.06083517
17	0x3daadd05	0.083429374
18	0xbeb714e1	-0.35758117
19	0x3e6a94da	0.22908345
20	0x3d608b35	0.05482026
21	0x3b98be3a	0.0046613486
22	0x3da573e4	0.08078745
23	0x3d806ecb	0.06271132
24	0xbd61d5e1	-0.05513561
25	0x3cc55528	0.024088457
26	0xbcbbbb98	-0.0229166
27	0xbd8246c1	-0.063611515
28	0xbe043486	-0.12910661
29	0xbddb7aac	-0.10716757
30	0xbdab7aa0	-0.08372998
31	0x3e4dd45a	0.20100537
32	0xbdf92ddb	-0.12166949
33	0xbc12e720	-0.008966237
34	0xbd675614	-0.056478575
35	0xbbe8582a	-0.007090588
36	0xbd527b14	-0.051386908
37	0xbe1cb31a	-0.15302697
38	0xbd74e855	-0.05979188
39	0xbdd1dd62	-0.102473035
40	0x3d63291a	0.05545912
41	0xbe57efdc	-0.21087593
42	0xbc4a8480	-0.012360692
43	0xbe041036	-0.12896809
44	0xbd664cd3	-0.05622561
45	0x3df1eedc	0.11813137
46	0x3d41bcf4	0.04729934
47	0x3e067d82	0.13133815
48	0x3a60cfbb	0.0008575876
49	0xbca7caf8	-0.020482525
50	0x3d558b90	0.05213505
51	0x3db5f197	0.0888397
52	0x3d85b317	0.06528299
53	0xbbd80527	-0.006592411
54	0xbd88e3aa	-0.066840485
55	0xbd37c832	-0.044868656
56	0xbd29f1af	-0.041490253
57	0xbd874fee	-0.06607042
58	0x3d5f01e7	0.054445174
59	0x3e0584fc	0.13039011
60	0xbe2983d6	-0.16554198
61	0x3c6f810f	0.014618172
62	0xbdbe6677	-0.09296887
63	0xbe387ccd	-0.18016358
64	0xbd9e5041	-0.07730151
65	0xbde1398f	-0.109973066
66	0xba453db0	-0.0007524146
67	0x3dcf05be	0.10108517
68	0xbe1e12bc	-0.15436834
69	0xbe204ec1	-0.15655042
70	0xbdf842af	-0.12122094
71	0xbc4dadff	-0.012553691
72	0xbd604ea4	-0.054762498
73	0xbc9485e3	-0.018130248
74	0xbd45c1fb	-0.048280697
75	0xbdbadb11	-0.09123815
76	0x3cfb82d0	0.030702025
77	0x3dce6721	0.10078264
78	0xbde1cbe8	-0.1102522
79	0xbdefa805	-0.11701969
80	0xbeb219f9	-0.3478544
81	0xbd6e606f	-0.058197435
82	0xbc8174d4	-0.015802778
83	0x3db878a4	0.090073854
84	0x3dea9645	0.11454443
85	0xbcd52670	-0.026019305
86	0x3d2aaabe	0.04166674
87	0xbdfdf222	-0.12399699
88	0x3c538aed	0.01291154
89	0x3c75af34	0.014995385
90	0xbda81d63	-0.0820873
91	0xbbd12d42	-0.006383569
92	0x3db73ee5	0.08947543
93	0x3d40b042	0.047043093
94	0xbeca4da2	-0.39512354
95	0x3e0601d6	0.13086638
96	0xbd7582f1	-0.05993933
97	0xbc241e9b	-0.010017063
98	0xbbd5507d	-0.006509839
99	0x3e01c8e2	0.12674287
100	0xbd6542a1	-0.055971745
101	0x3d152dcb	0.036420625
102	0xbc2d85f9	-0.010591024
103	0xbc5f5382	-0.01363075
104	0x3da247d1	0.07923854
105	0x3ec5b3b4	0.38613665
106	0x3d1b555d	0.037923206
107	0x3c9d1ae6	0.019177865
108	0x3d9c8656	0.0764281
109	0xbd81ae20	-0.0633204
110	0x3d8b6c54	0.06807771
111	0x3d770dce	0.0603159
112	0xbd7ecdef	-0.062208112
113	0x3b55f5ad	0.0032647655
114	0xbd9c807a	-0.076416925
115	0x3da3f18a	0.08005054
116	0x3d2a53ea	0.041583933
117	0x3ce7d659	0.028300451
118	0x3c8405af	0.016115991
119	0x3d8067d7	0.06269806
120	0xbd9cd444	-0.07657674
121	0x3d9dd160	0.07705951
122	0xbc4f571c	-0.012655046
123	0xbe91aeec	-0.28453767
124	0x3e0bbf0a	0.13647094
125	0x3d1465f5	0.036230046
126	0xbda650e1	-0.08120895
127	0xbcbe1489	-0.023203151
128	0x3d3f6106	0.046723388
129	0x3e01b031	0.12664868
130	0xbd7c21be	-0.061555617
131	0x3e028c56	0.12748846
132	0xbe0a8755	-0.13528188
133	0x3d9c4f4f	0.076323144
134	0xbe42edbf	-0.19036005
135	0xbe4f5f89	-0.20251288
136	0x3c0eed66	0.008723592
137	0xbda8b310	-0.082372785
138	0x3cce8948	0.025211945
139	0x3e3af5ee	0.18257877
140	0xbe9f6cce	-0.311377
141	0x3c8125df	0.015765129
142	0xbca48997	-0.02008514
143	0x3d690088	0.056885272
144	0xbd969266	-0.07352142
145	0x3cd22ae4	0.025655217
146	0x3da991c5	0.082797565
147	0x3eae5116	0.3404624
148	0x3f41448f	0.7549524
149	0xbb0132c0	-0.0019714087
150	0xbe03e35d	-0.12879701
151	0x3d3e9bd6	0.046535335
152	0x3e8de12f	0.27710864
153	0xbd3d8a23	-0.046274316
154	0xbe3f20ac	-0.18664807
155	0x3d2df5a2	0.04247058
156	0xbeb32183	-0.34986505
157	0xbe5c9877	-0.21542536
158	0x3ec1007f	0.3769569
159	0x3d2b87bc	0.041877493
160	0x3f9b3273	1.2124771
161	0xbd295cfe	-0.04134845
162	0x3d562273	0.052278947
163	0x3ceaf0e3	0.028679317
164	0xbd25d22a	-0.04048363
165	0x3df2d6fa	0.1185741
166	0xbbe9791c	-0.007125033
167	0xbe42a027	-0.19006406
168	0x3c9cd3e8	0.019144014
169	0x3f12f51b	0.5740525
170	0xbc19ae08	-0.009379871
171	0xbce11b3b	-0.027478805
172	0x3e968654	0.2939936
173	0x3e84e8b0	0.25958776
174	0xbc78a5a7	-0.015176213
175	0x3dcd4571	0.100230105
176	0x3d8a47af	0.06751954
177	0xbcbc46e4	-0.022983022
178	0x3d7f9815	0.062400896
179	0x3eafc9a6	0.34333533
180	0xbc997755	-0.01873366
181	0xbd99b180	-0.075045586
182	0x3db4397d	0.088000275
183	0x3d18e2f6	0.03732582
184	0xbdc04116	-0.09387414
185	0xbed23502	-0.41056067
186	0x3d750019	0.059814546
187	0x3d807643	0.06272557
188	0xbf2aff6c	-0.6679599
189	0xbe14a7ce	-0.14517137
190	0xbe82f168	-0.25574803
191	0xbda8cb0f	-0.08241855
192	0xbe4b28d1	-0.19839789
193	0x3e952b7b	0.29134735
194	0xbd457496	-0.04820689
195	0x3bc3a966	0.0059711216
196	0x3f9201e3	1.1406826
197	0x3e6ecc0b	0.23320024
198	0x3d8c4bb1	0.068503745
199	0xbd113dc6	-0.035459302
200	0x3db6b60b	0.08921441
201	0x3e939061	0.2882109
202	0xbefb5833	-0.49090728
203	0xbcbb737c	-0.022882216
204	0x3e25044c	0.1611492
205	0x3b806ebf	0.003919452
206	0x3bd6fd90	0.0065609887
207	0x3e3f9271	0.18708207
208	0xbd5419b9	-0.051782344
209	0xbd20772b	-0.039176147
210	0xbd5173dd	-0.051135886
211	0x3e5de88b	0.2167074
212	0x3e74d91e	0.23910949
213	0x3c426d08	0.011866815
214	0xbd9c706c	-0.0763863
215	0x3e7e0108	0.24805081
216	0xbd4a289c	-0.049355134
217	0xbdb98f9f	-0.09060597
218	0xbd0965db	-0.033544403
219	0x3dacbe56	0.08434741
220	0x3c13da6f	0.009024247
221	0xbc53f3c8	-0.01293654
222	0xbcf8aa80	-0.030354738
223	0x3e8b3840	0.27191353
224	0x3df208b4	0.11818066
225	0xbe115dfb	-0.14196007
226	0xbdeb8277	-0.114994936
227	0x3f123e07	0.57125896
228	0x3eca3e19	0.39500502
229	0xbd9372cf	-0.071996324
230	0xbe459388	-0.1929456
231	0x3e36f56c	0.17867059
232	0x3d04a1b0	0.03238076
233	0xbe991e04	-0.29905713
234	0xbe3216d9	-0.17391528
235	0xbdd6f372	-0.10495652
236	0xbcdf3e0d	-0.027251268
237	0x3ea21735	0.3165833
238	0x3de54a36	0.11195795
239	0x3ec65aac	0.38741052
240	0xbbadb544	-0.0053011496
241	0x3ed8c5e3	0.42338476
242	0x3e0d95ef	0.13826726
243	0x3e050962	0.1299186
244	0xbd991de9	-0.07476408
245	0x3d9303d8	0.071784675
246	0xbdeec2d1	-0.11658252
247	0xbda971cf	-0.082736604
248	0x3bf2ea4a	0.0074131833
249	0x3c49426c	0.012283903
250	0x3cc76da5	0.024344275
251	0xbd99aa43	-0.07503178
252	0xbd0c779c	-0.034293756
253	0x3e32217b	0.17395584
254	0xbe7adb4f	-0.24497722
255	0xbcf44a60	-0.029820621

feature_attention.fc2.bias f4 [58]
0	0x3e127772	0.14303377
1	0x3e057596	0.13033137
2	0xbd62ae51	-0.055342022
3	0xbdad023e	-0.08447693
4	0x3ed95d52	0.4245401
5	0xbe1f2bdf	-0.15544079
6	0x3aa43640	0.0012528375
7	0x3d161d53	0.03664906
8	0xbe6ee960	-0.23331213
9	0xbe14e43e	-0.14540192
10	0xbe159e39	-0.14611138
11	0xbd680de6	-0.05665388
12	0x3d10a871	0.03531689
13	0xbdc73909	-0.097276755
14	0xbe2b3730	-0.16720271
15	0x3e331efa	0.17492285
16	0x3dce36b5	0.10069028
17	0xbe86ab79	-0.26302698
18	0xbe90eca0	-0.2830553
19	0x3e245243	0.16047005
20	0xbe8c8478	-0.27444816
21	0x3de30607	0.11085134
22	0x3db42c7d	0.08797548
23	0xbce09c0a	-0.027418155
24	0x3ea346ac	0.31889856
25	0xbd93ac41	-0.07210589
26	0x3ed5d21a	0.41761857
27	0x3efaceec	0.48985994
28	0xbdb9a63a	-0.09064908
29	0x3d2f3a6e	0.042780332
30	0x3ed0d4ae	0.40787262
31	0x3e4a1237	0.19733511
32	0x3e07a1fa	0.13245383
33	0xbdff677d	-0.12470911
34	0x3e240083	0.1601582
35	0x3d497051	0.04917938
36	0x3e6b821a	0.22998849
37	0xbda03f91	-0.07824624
38	0xbe8f933f	-0.28042027
39	0xbd5f54aa	-0.0545241
40	0xbc863119	-0.016380833
41	0x3e663f60	0.22485113
42	0x3ddc80c9	0.10766751
43	0x3e1d154f	0.1534016
44	0x3c4b9cdd	0.012427536
45	0xbd210b62	-0.039317496
46	0x3d81d21e	0.06338905
47	0x3db491b3	0.088168524
48	0xbe9ad9ae	-0.302442
49	0xbeaa4429	-0.33255127
50	0x3e89b564	0.26896203
51	0x3dfadad3	0.12248769
52	0x3e136ccf	0.14396976
53	0x3dfd1c47	0.12358909
54	0xbe22cee2	-0.15899232
55	0x3d35743d	0.044300307
56	0xbc15e158	-0.009147964
57	0xbd9cf958	-0.07664746

experts.0.0.weight f4 [16, 1, 3, 3]
0	0x3eccf565	0.4003097
1	0xbd475bca	-0.04867152
2	0xbd1caab2	-0.038248725
3	0xbe1b3a22	-0.15158895
4	0xbe05fa4a	-0.13083759
5	0xbc1c4657	-0.009538255
6	0x3da096bf	0.078412525
7	0xbeb4315d	-0.3519391
8	0x3e723c80	0.23655891
9	0x3e9bc05c	0.30420196
10	0xbee19be5	-0.4406425
11	0xbe91e1a7	-0.28492472
12	0xbef3115a	-0.47474176
13	0xbf2ed6fc	-0.6829679
14	0xbf27bd69	-0.6552339
15	0xbe281ebe	-0.16417977
16	0xbe81988d	-0.253117
17	0xbe9ec377	-0.31008503
18	0xbef61509	-0.48062924
19	0xbeabc4b2	-0.33548504
20	0xbec44a77	-0.38338062
21	0xbe853a98	-0.26021266
22	0x3e9162c6	0.2839567
23	0x3e2d6c56	0.16935858
24	0xbeb191f5	-0.3468167
25	0xbff797f7	-1.9343251
26	0xbf66078a	-0.89855254
27	0xbcaa01a0	-0.020752728
28	0x3ed96c75	0.4246556
29	0xbecc1fc0	-0.39867973
30	0x3e0fadd4	0.14031154
31	0xbfadb297	-1.3570126
32	0xbcc4b06b	-0.024009904
33	0xbf8d4a2a	-1.1038258
34	0x3e811556	0.2521159
35	0xbea6c114	-0.32569182
36	0x3dc6bf41	0.097044475
37	0xbccb78aa	-0.02483781
38	0xbe746037	-0.23864828
39	0x3e71c30f	0.23609565
40	0xbe2429cf	-0.16031574
41	0xbe6148ef	-0.22000478
42	0x3f4d6c0e	0.80243003
43	0xbfa7cd74	-1.3109574
44	0xbf39da7d	-0.7259901
45	0x3d18059f	0.037114736
46	0x3e4c9cde	0.19981715
47	0x3bed61ce	0.0072443252
48	0xbeb017cc	-0.34393156
49	0x3ee09437	0.4386308
50	0xbdca9eb4	-0.098935515
51	0xbf92f626	-1.1481369
52	0xbfde00ca	-1.7343991
53	0x3e6a4a70	0.22879958
54	0xbf2204b1	-0.6328841
55	0xbf4f5774	-0.8099282
56	0x3eaee5a8	0.3415959
57	0xbd723920	-0.05913651
58	0xbf6c2acf	-0.9225282
59	0xbf54da2c	-0.83145404
60	0xbefb6220	-0.490983
61	0xbf9848f2	-1.1897261
62	0xbf915052	-1.1352637
63	0xbddb5695	-0.107098736
64	0x3e4aefda	0.19818059
65	0xbda20b1e	-0.07912277
66	0xbe23bfaa	-0.15991083
67	0x3eede542	0.46463972
68	0x3ee83114	0.45349944
69	0x3c081acb	0.008307169
70	0xbd9fdc48	-0.07805687
71	0x3dcd5f9a	0.10028
72	0x3d59386b	0.05303232
73	0x3ee2b679	0.4427984
74	0x3b47bba8	0.0030476842
75	0xbf264d3a	-0.6496159
76	0x3eec4600	0.46147156
77	0xbf8336b1	-1.0251065
78	0xbf239aa2	-0.63907826
79	0xbe2ad815	-0.16683991
80	0xbf123ae6	-0.5712112
81	0x3e883232	0.26600796
82	0x3eddbca4	0.43307984
83	0xbef1f6ac	-0.47258508
84	0xbf00bb0f	-0.5028543
85	0xbfbb7e8c	-1.4647994
86	0x3dc4ba74	0.096058756
87	0x3da0966a	0.07841189
88	0x3d951812	0.07279982
89	0xbd10cdf4	-0.035352662
90	0x3e46d05e	0.19415423
91	0xbe84244c	-0.25808942
92	0x3eafe95d	0.3435773
93	0xbdc3087d	-0.095231034
94	0xbf92b3e1	-1.1461145
95	0x3df8ce25	0.12148694
96	0xbd416fbe	-0.047225706
97	0xbd13d722	-0.03609384
98	0xbdc4eb45	-0.096151866
99	0xbe6c616b	-0.23084037
100	0xbe2b9848	-0.1675731
101	0x3eeea9ba	0.46613866
102	0x3e2ef368	0.1708504
103	0x3e446211	0.19178034
104	0xbfb0f255	-1.3823954
105	0xbca9a676	-0.020709258
106	0x3c896754	0.016772904
107	0x3ca9dce3	0.02073521
108	0xbe9d33ad	-0.30703488
109	0x3f168eff	0.58811945
110	0xbe9a296e	-0.30109733
111	0xbe0716e1	-0.13192321
112	0x3c761fcc	0.015022229
113	0x3b9b7d17	0.0047451365
114	0xbe8d7753	-0.276301
115	0x3c0d1b8d	0.008612526
116	0xbd4110f8	-0.047135323
117	0x3eadb4ac	0.33926904
118	0x3e89a73c	0.26885402
119	0x3d246377	0.04013392
120	0xbf953d5d	-1.1659352
121	0xbe87ab5a	-0.26497918
122	0xbfbbbce2	-1.4667017
123	0xbe04c908	-0.12967312
124	0x3dae6b59	0.08516569
125	0xbe7827fa	-0.24234
126	0x3ecdd7ca	0.40203696
127	0x3f319cfb	0.6938016
128	0x3e1bb415	0.15205415
129	0xbe09fafe	-0.13474652
130	0xbd37d72e	-0.044882946
131	0xbe98f44e	-0.2987389
132	0xbf55f991	-0.83583933
133	0xbf2b5494	-0.6692593
134	0x3d0a5246	0.03376987
135	0x3e95315d	0.29139224
136	0xbeb587f6	-0.35455292
137	0xbe90b34a	-0.28261787
138	0xbeadee14	-0.33970702
139	0x3ed15bbb	0.40890297
140	0xbf0854f6	-0.5325464
141	0x3de5e092	0.11224474
142	0xbec0a038	-0.37622237
143	0xbe9dddf7	-0.30833408

experts.0.0.bias f4 [16]
0	0xbbfb70f8	-0.007673379
1	0x3e0c0569	0.13673939
2	0x3e302d1e	0.17204711
3	0x3c203669	0.009778597
4	0xbd840dce	-0.064479455
5	0x3cd46a3c	0.025929563
6	0x3e0a2dbb	0.13494007
7	0xbc20e9e6	-0.009821391
8	0xbe0a2989	-0.13492407
9	0xbc6fd2cd	-0.014637661
10	0x3b2bc9a1	0.002621271
11	0xbaeb8ecf	-0.0017971637
12	0x3bba4e56	0.005685608
13	0x3baef1a7	0.005338866
14	0x3c8e90d9	0.017403053
15	0x3c132f69	0.008983471

experts.0.3.weight f4 [32, 16, 3, 3]
0	0x3e2ebdf0	0.17064643
1	0x3e2ac43a	0.16676417
2	0xbc7f1139	-0.015568071
3	0xbe39026f	-0.18067335
4	0x3e56bce3	0.20970492
5	0x3e240edf	0.16021298
6	0xbdb9964a	-0.090618685
7	0x3e258641	0.16164495
8	0xbc780368	-0.015137531
9	0xbefaca43	-0.48982438
10	0x3d2ac1bb	0.041688662
11	0xbe689056	-0.2271131
12	0xbda51d44	-0.080622226
13	0x3e5b407f	0.21411322
14	0xbcaf93cb	-0.021432778
15	0x3dc833c6	0.097755
16	0xbdb1f2c4	-0.08688882
17	0xbf1b8bc9	-0.6076017
18	0x3b099f71	0.0020999575
19	0xbedad772	-0.42742497
20	0xbe575d01	-0.21031572
21	0x3db4becf	0.08825456
22	0x3e116123	0.14197211
23	0x3cf613a2	0.030038659
24	0xbd89b0c7	-0.06723171
25	0xbdaa37d5	-0.0831143
26	0x3ec5de27	0.3864605
27	0xbdb4dcb1	-0.08831156
28	0xbe687605	-0.22701271
29	0x3de77dd2	0.11303295
30	0x3d6007e2	0.054695018
31	0x3e98789c	0.29779518
32	0xbe1ce811	-0.15322901
33	0x3eb388d7	0.35065338
34	0xbedc3a00	-0.43013
35	0xbf108de1	-0.5646649
36	0xbd567a4a	-0.052362718
37	0x3d83e9b2	0.06441058
38	0x3e656dca	0.22405162
39	0xbf50e8d9	-0.816053
40	0xbe82d847	-0.25555632
41	0xbe25e6d7	-0.1620134
42	0x3da5ac1d	0.08089469
43	0x3d094889	0.03351644
44	0x3e8c278b	0.2737392
45	0xbe71342a	-0.23555055
46	0xbe0f4836	-0.1399239
47	0xbe8b2189	-0.27174023
48	0xbe38cc36	-0.1804665
49	0xbd5d01af	-0.053956684
50	0x3eb2a36c	0.34890306
51	0x3e4a876f	0.19778226
52	0xbb241765	-0.0025038358
53	0xbe551c52	-0.20811585
54	0xbdfe3306	-0.12412076
55	0xbef57adc	-0.47945297
56	0x3edcaaf4	0.43099177
57	0xbc02395a	-0.007948244
58	0x3e2ba622	0.16762593
59	0xbe8ea90f	-0.27863356
60	0x3ea706dc	0.3262242
61	0xbec84131	-0.39112237
62	0x3e567ebd	0.20946784
63	0x3c847155	0.016167322
64	0x3cbf8432	0.023378465
65	0x3e36fbac	0.17869443
66	0x3d23553d	0.03987621
67	0xbe496654	-0.19667941
68	0x3e4912c9	0.19636072
69	0x3e1150e1	0.14191009
70	0x3da5cc78	0.0809564
71	0xbe4d5fc1	-0.20056058
72	0xbd3d24c1	-0.04617763
73	0x3ea8f6b8	0.3300073
74	0xbcf4f623	-0.029902523
75	0xbee1a4f2	-0.44071156
76	0xbee159ed	-0.4401392
77	0xbd57d66f	-0.052694734
78	0xbe089fcc	-0.13342208
79	0xbe88fdfb	-0.26756272
80	0xbd72911b	-0.059220415
81	0xbe09df53	-0.13464098
82	0xbd489d37	-0.048978057
83	0x3d837fa6	0.064208314
84	0xbd8fa3ad	-0.070136406
85	0x3e9e97b7	0.30975124
86	0xbcb81bd8	-0.022474214
87	0x3e388f70	0.18023467
88	0xbf0117bd	-0.50426847
89	0xbee1a429	-0.44070557
90	0xbd2172ee	-0.039416246
91	0x3e1637c6	0.14669713
92	0x3ccd65ee	0.025073018
93	0x3cbf8550	0.023378998
94	0x3ddb90cf	0.107209794
95	0xbe073e16	-0.13207278
96	0x3e0ed8ff	0.13949965
97	0x3def4921	0.1168387
98	0xbe88222e	-0.26588577
99	0xbdcf649a	-0.1012661
100	0x3e024b53	0.12724046
101	0x3d7d8216	0.061891638
102	0x3e6adf33	0.22936706
103	0xbe007f58	-0.12548578
104	0x3de663a5	0.112494744
105	0xbeb928b0	-0.36163855
106	0xbf0e03a1	-0.5547429
107	0x3e22437a	0.15846053
108	0x3e0dbf49	0.13842501
109	0x3da4bd9d	0.08043978
110	0x3e0998d1	0.13437201
111	0x3dc03f5e	0.09387086
112	0xbd2d2ec8	-0.042280942
113	0xbdd2fae9	-0.103017636
114	0xbdd307a1	-0.103041895
115	0xbf2a42d6	-0.66508234
116	0xbd7c0a87	-0.061533477
117	0xbe7dd7bb	-0.24789326
118	0xbdbd30e1	-0.092378385
119	0xbe1fa3ce	-0.1558983
120	0x3cf42b6d	0.029805863
121	0x3e50f45e	0.20405719
122	0xbda4a444	-0.08039144
123	0x3e97df15	0.29662386
124	0xbe11a409	-0.1422273
125	0xbee36671	-0.44414094
126	0x3e888ec9	0.26671436
127	0x3e6d45d5	0.2317117
128	0xbdffe702	-0.12495233
129	0xbe818ea1	-0.2530413
130	0x3e03505e	0.12823626
131	0x3dcd4481	0.10022832
132	0x3e489b37	0.1959046
133	0xbe303e00	-0.17211151
134	0x3e08c636	0.13356861
135	0xbe96b97a	-0.29438382
136	0x3d87303f	0.06600999
137	0x3d5fc23b	0.054628592
138	0x3e486380	0.19569206
139	0xbe0bfa97	-0.13669811
140	0x3e3411ab	0.17584865
141	0x3e97427e	0.29542917
142	0xbe11d6dd	-0.1424212
143	0xbe0e3f1c	-0.13891262
144	0xbd108930	-0.035287082
145	0x3cd54ae8	0.026036695
146	0xbdd14855	-0.10218874
147	0xbc947c68	-0.018125728
148	0xbd1a3613	-0.037649225
149	0xbdd1955f	-0.102335684
150	0xbd89cb34	-0.06728211
151	0xbdba29e5	-0.09090022
152	0xbd499e21	-0.04922307
153	0xbd35c039	-0.04437277
154	0x3ceb8b27	0.028752876
155	0x3d1b17b2	0.037864394
156	0xbdd0e3f3	-0.10199728
157	0xbcf63ca3	-0.03005821
158	0xbce366a8	-0.027758911
159	0xbb872734	-0.0041245464
160	0x3d25163f	0.04030442
161	0xbde99d32	-0.11406936
162	0xbcda6270	-0.026658267
163	0xbe045321	-0.12922336
164	0xbd942571	-0.07233704
165	0x3c569c0f	0.013098731
166	0xbde19837	-0.11015361
167	0xbdf42a94	-0.11922184
168	0xbd9e272f	-0.077223174
169	0xbd7c8b99	-0.06165657
170	0xbccfe3a4	-0.025377102
171	0x3d224601	0.039617542
172	0xbd3bd6ea	-0.045859255
173	0x3c660f05	0.014041667
174	0xbdae427b	-0.08508774
175	0x3acbf7f4	0.0015561567
176	0x3d259df4	0.04043384
177	0x3d572241	0.0525229
178	0xbd204672	-0.039129682
179	0xbd59f8b8	-0.053215712
180	0xbd8e52c1	-0.06949378
181	0x3ccd112c	0.025032602
182	0xbd5baeeb	-0.05363361
183	0x3c84baad	0.016202295
184	0xbdd4b428	-0.103859246
185	0xbdacbd61	-0.08434559
186	0xbcdd3675	-0.027003506
187	0xbd1c0bba	-0.03809712
188	0xbcbaa934	-0.02278576
189	0xbd1a4474	-0.03766294
190	0x3d5048c6	0.050850652
191	0x3d185210	0.037187636
192	0x3cd89629	0.02643879
193	0xbdaeaffb	-0.08529659
194	0xbd4be86d	-0.049782205
195	0xbd1061f9	-0.035249684
196	0xbd686aba	-0.056742407
197	0xbc211f3d	-0.009834108
198	0x3d69a10d	0.057038356
199	0x3c90f685	0.017695675
200	0x3bd50f8e	0.0065020984
201	0xbda03f05	-0.0782452
202	0xbda9f854	-0.08299318
203	0xbd4ee617	-0.0505124
204	0xbddae866	-0.10688858
205	0xbc24ad19	-0.010051035
206	0xbd9bf4a9	-0.076150246
207	0xbda31139	-0.07962269
208	0x3d3cd56e	0.04610198
209	0xbdd180d5	-0.10229651
210	0x3ca6f489	0.020380275
211	0xbd869d7f	-0.06573009
212	0xbda7cfe2	-0.081939474
213	0xbc35f2e0	-0.011105269
214	0x3d0227e0	0.03177631
215	0xbdd454bd	-0.10367725
216	0xbc1702ec	-0.009217005
217	0xbcc3aa0d	-0.023884797
218	0xbdd94a5e	-0.106098875
219	0xbdb61c01	-0.0889206
220	0x3cdf1925	0.02723367
221	0xb9c4e388	-0.00037553557
222	0x3d417381	0.047229294
223	0xbcd3c459	-0.025850462
224	0xbd86329a	-0.0655262
225	0x3cd09ef6	0.025466423
226	0x3c53a678	0.012918107
227	0x3bc70be6	0.0060744165
228	0xbd1be45a	-0.03805957
229	0xbd88d4d5	-0.066812195
230	0xbd90b2fe	-0.0706539
231	0xbddc16b1	-0.107465155
232	0xbca1bfb9	-0.01974474
233	0xbd5b6014	-0.053558424
234	0xbbbdf61a	-0.00579716
235	0xbdddb6c5	-0.10825876
236	0xbc540a50	-0.012941912
237	0xbcd7a1ef	-0.026322333
238	0xbd0054d6	-0.031330906
239	0xbd1ecc46	-0.03876903
240	0xbcc7a73d	-0.024371738
241	0xbd29d667	-0.041464236
242	0x3d22ebdf	0.039775725
243	0x3d79ae37	0.06095716
244	0x3bd6b296	0.006552051
245	0xbd27e00a	-0.040985145
246	0xbdb3666e	-0.08759771
247	0xbde19a5a	-0.11015768
248	0xbde014fb	-0.10941502
249	0xbd882bb7	-0.06648963
250	0x3cb93fac	0.022613369
251	0xbd063883	-0.032768738
252	0x3bba3a4b	0.0056832186
253	0x3d359f62	0.044341452
254	0xbd84749f	-0.06467556
255	0x3ccc21ba	0.024918426

experts.0.3.bias f4 [32]
0	0xbcf72742	-0.030170087
1	0xbdc3f333	-0.09567871
2	0x3dcec5c8	0.100963175
3	0xbcfba6bc	-0.030719154
4	0xbc7f8dc7	-0.015597767
5	0x3c87cd93	0.016577518
6	0x3c4160f5	0.0118029015
7	0xbe18160d	-0.14852162
8	0xbd65c8a3	-0.056099545
9	0xbcc30833	-0.02380762
10	0x3d2aa11d	0.041657556
11	0x3e2adfba	0.16686907
12	0x3d83b3c3	0.06430771
13	0xbdb80981	-0.08986188
14	0xbd54a005	-0.05191042
15	0x3d0e461b	0.034734827
16	0xbdc228b4	-0.0948042
17	0x3dd64b3a	0.10463567
18	0x3d146f43	0.03623892
19	0x3d69c96d	0.05707686
20	0xbd7b0e0f	-0.061292704
21	0xbdfdd37b	-0.12393852
22	0xbd12a76d	-0.0358042
23	0xbd470cce	-0.048596196
24	0x3e39fb10	0.18162179
25	0x3da3f5a0	0.080058336
26	0x3e5946db	0.21218435
27	0xbdca5cd2	-0.09880985
28	0xbdbbc448	-0.09168297
29	0x3b882d42	0.004155786
30	0xbde7b32d	-0.11313472
31	0xbd0f0df4	-0.034925416

experts.1.0.weight f4 [16, 1, 3, 3]
0	0x3ed8376d	0.42229787
1	0x3e8c7a33	0.2743698
2	0xbddea5c7	-0.10871463
3	0x3e2232b1	0.1583965
4	0xbd66fafb	-0.056391697
5	0x3ea669e0	0.3250265
6	0x3e9491c5	0.29017463
7	0xbebd396e	-0.36957878
8	0x3f016cd7	0.505567
9	0x3e85c9f4	0.2613064
10	0xbe3270e2	-0.17425874
11	0x3eb8e7e9	0.36114433
12	0x3d950c24	0.07277706
13	0x3ee72f4a	0.45153266
14	0x3eacbfa6	0.33739966
15	0xbe67409a	-0.22583237
16	0x3e97f34b	0.29677805
17	0x3ea3f63a	0.32023793
18	0x3ed8dba1	0.42355064
19	0x3e3a0fe8	0.1817013
20	0x3e0c5bf5	0.13706954
21	0x3e8bbb10	0.27291155
22	0x3e9216b6	0.28532952
23	0x3eb0d35b	0.3453625
24	0x3e233b8a	0.15940681
25	0x3ea26b4c	0.31722486
26	0x3e3da703	0.18520741
27	0xbe384ee0	-0.17998838
28	0xbf6593fd	-0.8967894
29	0xbf63c1d6	-0.88967645
30	0xbe2943e9	-0.16529812
31	0xbe4272cf	-0.18989109
32	0xbecb4a46	-0.39705104
33	0xbf0344f9	-0.5127712
34	0xbf3f0ecd	-0.7463196
35	0xbec4ecda	-0.38461953
36	0xbe9085f0	-0.28227186
37	0xbeb3f7bf	-0.35149953
38	0xbf05c9da	-0.52261126
39	0xbe3b086c	-0.18264931
40	0xbd6dada5	-0.05802693
41	0xbe1bd9b6	-0.15219769
42	0xbe29a92a	-0.16568437
43	0xbdff2966	-0.12459068
44	0xbe7a5dc3	-0.2444983
45	0x3ed59b45	0.41720024
46	0xbeb55522	-0.35416514
47	0xbedc53cc	-0.43032682
48	0xbe83122a	-0.25599796
49	0xbf53c3cf	-0.82720655
50	0x3adb63f3	0.0016738161
51	0xbea7d609	-0.32780483
52	0xbdccd990	-0.10002434
53	0xbf05dbf4	-0.52288747
54	0x3e5578ee	0.20846912
55	0x3e3adcb8	0.1824826
56	0xbe34f508	-0.17671597
57	0x3eddef34	0.4334656
58	0x3e29a20d	0.16565724
59	0x3e0cee66	0.13762817
60	0x3dfb16ac	0.12260184
61	0xbe11c81a	-0.14236489
62	0x3d60a3e6	0.054843806
63	0x3dfdf659	0.12400503
64	0x3c70a3a0	0.014687449
65	0xbd8b7bba	-0.06810708
66	0xbd69942f	-0.057026085
67	0xbd4c57b4	-0.049888328
68	0xbc8bd04c	-0.017067097
69	0x3e3db699	0.18526687
70	0x3d2e89da	0.042611934
71	0x3ea23910	0.3168416
72	0xbe427fb9	-0.18994035
73	0x3e090995	0.13382562
74	0xbdd358da	-0.103196815
75	0x3e3bb698	0.18331373
76	0x3e3e9b64	0.18613964
77	0x3e3cc554	0.1843465
78	0x3e979936	0.29609078
79	0x3e8efb57	0.27926132
80	0x3d14d449	0.036335263
81	0x3e60c5e6	0.21950492
82	0xbf209c98	-0.62738943
83	0xbf543ab9	-0.82902104
84	0xbdb91f6d	-0.09039197
85	0xbe82eafa	-0.25569898
86	0xbe4a5ebc	-0.19762701
87	0xbf0b5378	-0.5442424
88	0xbeece0e3	-0.46265325
89	0xbf0966ce	-0.5367249
90	0xbec8fb2d	-0.39254132
91	0xbf3c3fdc	-0.7353494
92	0xbf35a983	-0.7096178
93	0xbef9de18	-0.48802257
94	0x3e0cb498	0.13740766
95	0xbcfec0c5	-0.031097779
96	0xbe8a8c92	-0.27060372
97	0xbf21b387	-0.6316456
98	0xbef3d3bb	-0.47622475
99	0x3e9a0ab7	0.300863
100	0xbe3fb828	-0.18722594
101	0x3ddc10cc	0.10745391
102	0x3d9209fc	0.071308106
103	0xbddfccac	-0.1092771
104	0xbae8c632	-0.0017759262
105	0x3d8f8f45	0.07009748
106	0x3dd7fdf1	0.10546482
107	0x3eb5987b	0.35467896
108	0xbf1b7c20	-0.60736275
109	0x3d20b70f	0.03923708
110	0x3d86cc91	0.06581987
111	0xbe178867	-0.14798127
112	0xbef88c9b	-0.48544773
113	0xbeb2deb3	-0.3493553
114	0xbf16c71c	-0.58897567
115	0xbebe62c2	-0.3718472
116	0x3e7e1a8a	0.24814811
117	0xbe7191d8	-0.23590791
118	0x3e964f28	0.29357266
119	0xbe572985	-0.21011932
120	0x3e878a31	0.2647262
121	0x3e7d4083	0.2473164
122	0x3e96e6d2	0.29472977
123	0xbe5ef6e1	-0.21773864
124	0x3e5c649d	0.21522756
125	0xbca5f2bf	-0.020257352
126	0x3e60be3d	0.2194757
127	0x3c81fe65	0.015868375
128	0x3e6b6ada	0.2298998
129	0x3dc81108	0.097688735
130	0x3decda26	0.11565046
131	0xbd58f239	-0.052965377
132	0x3e95af61	0.29235366
133	0x3ebd62e3	0.36989507
134	0x3eb19458	0.3468349
135	0x3e28d103	0.16485982
136	0x3e41dfb8	0.18932998
137	0x3dff24bc	0.124581784
138	0x3eb68dc5	0.35655037
139	0xbd968da0	-0.073512316
140	0x3e69a746	0.22817716
141	0xbd7ba06c	-0.061432287
142	0x3ecd2021	0.40063575
143	0x3d3fbf3c	0.046813235

experts.1.0.bias f4 [16]
0	0xbe9483c6	-0.29006785
1	0xbe6a87f1	-0.2290342
2	0xbe2d5f04	-0.16930777
3	0x3ea3cb86	0.31991214
4	0x3d8ce4d1	0.06879581
5	0x3e1feb16	0.15617022
6	0xbe34b7f1	-0.17648293
7	0xbe12b83c	-0.14328092
8	0xbdd7040b	-0.10498818
9	0x3e4657f3	0.19369487
10	0x3e8224c8	0.25418687
11	0xbe168051	-0.14697386
12	0x3d68c8fb	0.056832295
13	0xbe9e818c	-0.3095821
14	0xbe17c950	-0.14822888
15	0xbe0ee35b	-0.13953917

experts.1.3.weight f4 [32, 16, 3, 3]
0	0x3e0fe88e	0.14053556
1	0x3e34338c	0.17597789
2	0xbdc3c24d	-0.09558544
3	0x3e0882c2	0.1333113
4	0x3d0853f1	0.033283178
5	0x3dcfc073	0.10144129
6	0xbe8378bd	-0.25678053
7	0xbe02ba80	-0.12766457
8	0xbda29719	-0.07938976
9	0x3dad10d7	0.084504776
10	0x3e01a4be	0.126605
11	0x3d9d051c	0.0766699
12	0x3dab5b08	0.08366972
13	0x3d14fc70	0.036373556
14	0xbdf743fa	-0.120735124
15	0x3dc369f0	0.0954169
16	0xbe350a9c	-0.17679828
17	0xbe27aba7	-0.16374074
18	0x3ce18380	0.027528524
19	0x3e1a1a00	0.1504898
20	0x3dcd684a	0.10029657
21	0x3e0e838a	0.13917366
22	0x3c6328a9	0.013864675
23	0x3d5ead36	0.054364406
24	0xba1a3362	-0.00058822904
25	0xbde960a9	-0.113953896
26	0xbda7820c	-0.08179101
27	0xbbf4df99	-0.007472944
28	0xbebf4a3a	-0.37361318
29	0xbe218a34	-0.15775377
30	0x3bd4150c	0.0064722355
31	0xbe8c9f01	-0.2746506
32	0x3ace97e8	0.0015761824
33	0xbdc1d6bb	-0.09464785
34	0xbda1d0bb	-0.0790114
35	0x3bfe172d	0.0077542276
36	0x3d563713	0.052298617
37	0xbe22a7da	-0.15884343
38	0xbd1c3d76	-0.03814455
39	0xbdf05e04	-0.11736682
40	0xbe4ac144	-0.19800287
41	0xbd20e2fe	-0.039278977
42	0xbdd57ec2	-0.10424568
43	0xbc90d3db	-0.017679146
44	0xbd6026aa	-0.054724373
45	0xbe98e145	-0.29859367
46	0xbe6d415e	-0.23169467
47	0xbe413005	-0.18865974
48	0xbe09d275	-0.13459189
49	0xbd4fe6b8	-0.05075714
50	0xbb8da2b5	-0.0043223747
51	0xbbe79421	-0.007067219
52	0x3d9ac5d9	0.07557268
53	0xbdcc5813	-0.09977736
54	0x3e8d704e	0.27624744
55	0x3e82e261	0.25563338
56	0x3e524068	0.20532382
57	0xbe1f286b	-0.15542762
58	0xbdc7dd8c	-0.097590536
59	0x3d117976	0.035516225
60	0xbe1ab4d5	-0.15108044
61	0x3dbe29dc	0.09285328
62	0xbe2bcfc2	-0.16778472
63	0x3e0338ec	0.12814683
64	0xbc73de7d	-0.014884588
65	0x3c45e18f	0.012077703
66	0x3d0b8ab5	0.03406783
67	0xbd84ecec	-0.06490502
68	0xbe1284b6	-0.14308438
69	0xbe558a09	-0.20853437
70	0xbe302a98	-0.17203748
71	0x3d8401ff	0.06445693
72	0x3e1b0489	0.15138449
73	0x3c43deb0	0.011954948
74	0x3e2d8793	0.16946249
75	0x3bdc8055	0.0067291656
76	0xbd7c8e4f	-0.061659154
77	0xbdbe407e	-0.09289645
78	0x3d471ba0	0.04861033
79	0xbe615ae5	-0.2200733
80	0xbe3df0e9	-0.18548931
81	0xbe8727c7	-0.26397535
82	0xbebb4e32	-0.36583096
83	0xbdd912b2	-0.10599269
84	0xbe06b970	-0.13156676
85	0xbe5d59dd	-0.21616311
86	0x3dc4033c	0.095709294
87	0xbe491303	-0.19636159
88	0x3ddb1b08	0.10698515
89	0xbd9c65b9	-0.076365896
90	0x3d48c9b1	0.049020473
91	0xbe5d4834	-0.21609575
92	0xbe4af49e	-0.19819877
93	0xbdcd9515	-0.10038201
94	0xbe629020	-0.22125292
95	0xbe3221a3	-0.17395644
96	0xbd0bf896	-0.034172617
97	0xbd4f4872	-0.0506062
98	0x3cb9638f	0.022630481
99	0x3d57dc9e	0.05270063
100	0x3d8d95a9	0.06913311
101	0x3cb4ef13	0.022086656
102	0x3e7eb0db	0.24872153
103	0xbd34afb0	-0.04411286
104	0x3dbe1092	0.09280504
105	0xbe38d084	-0.18048292
106	0x3d154ed2	0.036452122
107	0xbd9f0f57	-0.07766598
108	0xbe523133	-0.2052658
109	0xbe8a9106	-0.2706377
110	0x3d82ae1a	0.063808635
111	0xbda51b77	-0.08061879
112	0xbd5ab83a	-0.05339835
113	0xbdcd7901	-0.10032845
114	0x3d9debca	0.07710989
115	0xbe806218	-0.2507484
116	0x3e26ada0	0.1627717
117	0x3e8a5222	0.27015787
118	0x3ea90d9b	0.33018193
119	0x3e07cefd	0.13262554
120	0xbd710606	-0.058843635
121	0x3e965998	0.2936523
122	0x3c98ecc7	0.018667592
123	0x3d00c97d	0.031442154
124	0xbe1908a1	-0.14944698
125	0xbda3219d	-0.079653956
126	0x3ca70c75	0.020391682
127	0xbb14c0db	-0.0022697959
128	0x3d307929	0.043084297
129	0x3e2e2847	0.17007552
130	0x3cfc1ecb	0.030776402
131	0xbc9d9c72	-0.019239638
132	0xbdc8df46	-0.09808211
133	0xbe46a3f0	-0.19398475
134	0xbd9e0112	-0.07715048
135	0x3ddd3fa4	0.10803154
136	0x3b28b600	0.0025743246
137	0x3e4e76b6	0.20162472
138	0x3db9541c	0.09049246
139	0x3b79b813	0.0038104102
140	0x3b7fe8ad	0.0039048598
141	0xbe211eca	-0.15734401
142	0xbe2f12c8	-0.17097008
143	0xbe110d2e	-0.14165184
144	0xbd82a5e7	-0.063792996
145	0xbde3523c	-0.11099669
146	0xbdd82784	-0.10554412
147	0xbe0fbe48	-0.1403743
148	0xbd7e005a	-0.062012054
149	0xbd3665d8	-0.04453072
150	0xbdb44d10	-0.08803761
151	0xbd9e1f69	-0.07720835
152	0xbc8ae540	-0.016955018
153	0xbd2d1805	-0.042259235
154	0xbe3d2354	-0.18470508
155	0xbc7c11d3	-0.015385109
156	0xbd822c92	-0.06356157
157	0xbd5dcb7e	-0.054149143
158	0x3d8d83ee	0.06909929
159	0xbdc7f428	-0.09763366
160	0xbe28cd46	-0.16484556
161	0xbd7e8c84	-0.062145725
162	0xbe1d2f94	-0.15350181
163	0xbe2e72d9	-0.17035998
164	0xbe3bda52	-0.18345001
165	0xbd6f3652	-0.058401413
166	0xbd46bd0b	-0.04852013
167	0xbdc9aa42	-0.09846927
168	0xbe8a83f0	-0.27053785
169	0xbe7065a7	-0.23476277
170	0xbe1be4fe	-0.15224072
171	0xbde0b590	-0.1097213
172	0x3cadab30	0.021199793
173	0xbdd26a0a	-0.102741316
174	0xbd8290de	-0.063752875
175	0xbc1392e3	-0.0090071885
176	0x3ca62e09	0.020285623
177	0xbbf1ca8c	-0.007378882
178	0xbdbdb13b	-0.0926232
179	0xbdd0c8b8	-0.10194534
180	0x3b2a3c20	0.0025975779
181	0xbd758405	-0.059940357
182	0xbd0e21f5	-0.034700353
183	0x3c9a1130	0.018807024
184	0x3cb852b7	0.022500379
185	0xbcf42240	-0.029801488
186	0x3bb1bba0	0.005423978
187	0xbe07ab35	-0.13248904
188	0xbd03caea	-0.032175936
189	0xbd5f9293	-0.054583143
190	0xbcb23ecf	-0.021758465
191	0xbe0a0b8d	-0.13480969
192	0xbb636e85	-0.0034703326
193	0x3c8cc20f	0.017182378
194	0xbdc9d1a4	-0.09854439
195	0xbd4fac50	-0.05070144
196	0x3c03874c	0.008027863
197	0xbe08a22c	-0.13343114
198	0xbd75a782	-0.0599742
199	0xbe7944a6	-0.24342594
200	0xbe915712	-0.28386742
201	0x3c5b71a9	0.013393798
202	0xbd33a192	-0.043855257
203	0xbe044dfe	-0.12920377
204	0xbd438fc1	-0.047744516
205	0xbe7732bf	-0.24140452
206	0xbd2358b3	-0.039879512
207	0x3cb3ae0b	0.021933576
208	0xbcca5abd	-0.02470147
209	0xbda344d1	-0.0797211
210	0x3d517ca3	0.051144253
211	0xbdc86a4d	-0.097859
212	0xbd5edff6	-0.054412805
213	0xbd291a42	-0.041284807
214	0xbdf2be01	-0.118526466
215	0xbc002f27	-0.007823742
216	0xbdb15f00	-0.08660698
217	0xbdd74776	-0.10511677
218	0xbe2bb0ad	-0.16766615
219	0xbcd92661	-0.026507558
220	0x3c36a86b	0.011148552
221	0xbd00c67a	-0.031439282
222	0xbd6fe704	-0.058569923
223	0xbde714af	-0.11283242
224	0xbe152b5e	-0.14567325
225	0xbca91c92	-0.020643506
226	0xbdb76b25	-0.08955983
227	0xbdd0abfc	-0.101890534
228	0x3d056f2c	0.032576725
229	0xbd93be12	-0.072139874
230	0xbdd77142	-0.10519649
231	0xbd479d13	-0.048733782
232	0xbdb88245	-0.09009222
233	0xbe24b77b	-0.16085617
234	0xbcd9f39d	-0.026605422
235	0xbd9f4504	-0.077768356
236	0xbe1ab250	-0.15107083
237	0xbab43ab1	-0.0013750402
238	0x3a5ee21c	0.0008502321
239	0x3cde9dc5	0.02717484
240	0x3d423f2a	0.04742352
241	0xbc1ada4e	-0.009451462
242	0xbd1e46e3	-0.03864182
243	0xbe1a5683	-0.15072064
244	0xbe1008dc	-0.1406588
245	0xbe0a46fb	-0.1350364
246	0xbde12024	-0.109924585
247	0xbe052c30	-0.13005137
248	0x3c4f3662	0.012647243
249	0xbe0c0824	-0.1367498
250	0xbe39c245	-0.18140514
251	0xbe40fa8d	-0.18845578
252	0xbd091d9f	-0.033475515
253	0xbb6ec64e	-0.0036434117
254	0xbdaac7fa	-0.08338924
255	0x3c96a7e2	0.0183906

experts.1.3.bias f4 [32]
0	0xbd21a3cb	-0.039462846
1	0x3cee1d90	0.02906683
2	0xbe189119	-0.148991
3	0xbc50a35e	-0.012734262
4	0xbdba6009	-0.091003485
5	0xbda8b1c6	-0.082370326
6	0x3be277c2	0.006911249
7	0x3c059c80	0.008154988
8	0x3c550bdf	0.013003319
9	0xbe15b20e	-0.14618704
10	0xbd95e9ae	-0.073199615
11	0xbe07101f	-0.13189743
12	0xbcbf6d58	-0.023367569
13	0x3c1360c4	0.008995239
14	0xbd577225	-0.05259909
15	0xbdecfb82	-0.11571409
16	0xbd70a717	-0.0587531
17	0xbe1427c0	-0.14468288
18	0xbdb2e2d6	-0.08734672
19	0xbdefa488	-0.11701304
20	0x3d4cbd33	0.049985122
21	0xbd9084f3	-0.07056608
22	0xbc0812c6	-0.008305257
23	0xbdd35311	-0.10318578
24	0xbd60105c	-0.0547031
25	0xbe5ad8c2	-0.21371749
26	0xbd9991a1	-0.0749848
27	0x3ab4e6f9	0.0013801745
28	0xbd711520	-0.058858037
29	0xbddf99b4	-0.109179884
30	0x3c81ccf0	0.015844792
31	0xbe07098b	-0.13187234

experts.2.0.weight f4 [16, 1, 3, 3]
0	0x3ea8e8db	0.32990155
1	0x3ec13765	0.37737575
2	0x3de55a3b	0.11198851
3	0x3e946e67	0.2899048
4	0x3e1697a5	0.14706285
5	0xbdbe7a63	-0.09300687
6	0x3dc98b5d	0.098410346
7	0x3e5d3396	0.2160171
8	0x3d3512eb	0.044207495
9	0x3f0a1323	0.5393545
10	0x3d5cdf88	0.053924114
11	0x3e441ce6	0.19151649
12	0xbeca9403	-0.3956605
13	0xbd37850b	-0.044804614
14	0xbc942f75	-0.018089036
15	0x3efc12dc	0.4923314
16	0x3e9053cb	0.2818893
17	0xbefd87e0	-0.49517727
18	0x3e24416f	0.16040586
19	0xbd13f6cd	-0.03612404
20	0x3e01cc40	0.12675571
21	0x3e2cc945	0.16873653
22	0xbe7bfa9c	-0.24607319
23	0x3e34522c	0.17609471
24	0x3e51eb79	0.20499982
25	0x3e749f4f	0.23888896
26	0xbdad8bb0	-0.08473909
27	0xbf171ae9	-0.59025437
28	0xbf24752e	-0.642413
29	0xbeaa3eeb	-0.33251128
30	0xbf2e4d83	-0.68087023
31	0xbe10d74a	-0.14144626
32	0xbeeeafe8	-0.4661858
33	0xbe7e156a	-0.24812856
34	0xbf0460e0	-0.5171032
35	0x3d768e6e	0.060194425
36	0x3eb1cc99	0.34726408
37	0x3f04caa4	0.51871705
38	0x3ed938d3	0.42426166
39	0xbe099155	-0.13434346
40	0x3e2d0733	0.16897278
41	0x3d85f621	0.06541086
42	0x3f1644e2	0.58698857
43	0xbe8eee73	-0.27916297
44	0xbe9cdb8b	-0.30636248
45	0xbc1b0616	-0.0094619
46	0x3e3c67f8	0.18399036
47	0x3dc852d4	0.09781423
48	0xbe65a42d	-0.2242591
49	0xbeb4a656	-0.35283154
50	0xbd6ed59f	-0.058309194
51	0xbe03d5b9	-0.12874497
52	0xbe3969b7	-0.18106733
53	0xbcd8f7f2	-0.026485417
54	0x3ef1d7ae	0.47234863
55	0xbd988f62	-0.07449223
56	0x3e7212df	0.23640011
57	0x3ebf984b	0.37420878
58	0xbe98771c	-0.29778373
59	0x3eb15ba5	0.34640232
60	0x3e666cb2	0.22502401
61	0xbe6d4b37	-0.23173223
62	0x3e93a937	0.28840038
63	0xbe9c189e	-0.3048753
64	0x3e8c5a7b	0.2741278
65	0x3eda8751	0.42681363
66	0x3ef36292	0.4753614
67	0x3ee49a83	0.44649133
68	0x3ef3e403	0.47634897
69	0xbd5439bc	-0.051812872
70	0x3ef24df9	0.47325113
71	0x3ef2dccf	0.4743409
72	0x3d8160b5	0.063172735
73	0xbe1fab52	-0.15592697
74	0xbe252fc5	-0.16131504
75	0x3ec8a115	0.39185396
76	0xbe2a22be	-0.16614816
77	0x3e8be1ca	0.273207
78	0x3d23b2b1	0.039965335
79	0x3dcd27ce	0.10017358
80	0x3e3faa9d	0.18717428
81	0xbec70a03	-0.38874826
82	0x3efa204b	0.48852763
83	0x3e22a081	0.1588154
84	0x3ed13396	0.4085967
85	0x3eb68843	0.35650834
86	0x3e25c621	0.16188861
87	0x3e871b12	0.2638784
88	0x3c499dae	0.01230566
89	0x3db172cf	0.08664476
90	0xbdfbb78c	-0.12290868
91	0xbe145c9f	-0.14488457
92	0x3e1bd45d	0.15217729
93	0xbeaa39f5	-0.33247343
94	0xbeeecba9	-0.46639755
95	0xbe75b799	-0.23995818
96	0x3e5ab1e9	0.2135693
97	0xbe92b702	-0.2865525
98	0xbe873bd8	-0.26412845
99	0xbf19989a	-0.59998477
100	0xbe2a956e	-0.16658565
101	0x3e118142	0.14209464
102	0x3e0c8699	0.1372322
103	0xbe6faf88	-0.23406804
104	0xbe70add8	-0.23503816
105	0xbecdcbcb	-0.40194544
106	0xbeda0ba4	-0.42587006
107	0xbef6a97c	-0.4817618
108	0xbf5cb452	-0.86212647
109	0xbf235d5e	-0.6381434
110	0xbed03503	-0.40665445
111	0xbe3ec1fd	-0.18628688
112	0xbe5ea320	-0.21741915
113	0x3e2643f6	0.16236863
114	0xbe768fd3	-0.24078302
115	0xbeacf94d	-0.3378395
116	0xbf059fee	-0.5219716
117	0x3e2c6a5c	0.16837448
118	0x3e7db7ff	0.2477722
119	0xbd81f94b	-0.06346377
120	0x3f0554aa	0.5208231
121	0xbe28fc68	-0.16502535
122	0xbdd10e7f	-0.10207843
123	0x3e48a7e8	0.19595301
124	0x3d165b53	0.036708187
125	0x3ea743b1	0.32668832
126	0xbba86109	-0.0051385206
127	0xbaea6f6f	-0.0017885993
128	0x3e3e85e7	0.18605767
129	0xbde5ead2	-0.11226429
130	0x3e03cb36	0.12870488
131	0xbe922746	-0.28545588
132	0xbe780b8e	-0.24223158
133	0xbe94faf7	-0.2909772
134	0xbe3a1cd3	-0.18175058
135	0xbebee2c6	-0.3728239
136	0xbe0933b4	-0.1339863
137	0x3b3ca00a	0.0028781914
138	0xbebc53f6	-0.36782807
139	0x3e04d9a0	0.12973642
140	0x3dffe562	0.12494923
141	0xbe69961d	-0.2281117
142	0xbe8b1845	-0.27166954
143	0xbd3e5bc1	-0.046474222

experts.2.0.bias f4 [16]
0	0xbb50b7ba	-0.003184779
1	0xbd3a4c1d	-0.045482744
2	0xbd59eea3	-0.053206097
3	0x3e0796b6	0.13241085
4	0xbd1c7e64	-0.038206473
5	0xbca2ad65	-0.019858072
6	0xbea643f3	-0.32473716
7	0xbd9194ea	-0.07108481
8	0xbde4b7f8	-0.11167902
9	0xbca4e891	-0.020130428
10	0xbacc0e97	-0.0015568313
11	0x3e30f23a	0.17279902
12	0x3e4c5882	0.19955638
13	0xbe61acc7	-0.22038566
14	0xbd115f77	-0.035491433
15	0x3cc8922a	0.024483759
