pth_normalized/single_mlp_model.pth (torch, 132865 bytes, 12 tensors)

network.0.weight f4 [128, 58]
000000 69 4b 62 3e ad 3e 2b 3e 38 59 80 bd b8 4d 13 3d
       0.22099079 0.16723128 -0.06267017 0.03596279
000010 c7 14 b5 be dc 5b b9 bd 7c bd c8 3d 8d 6b 6d 3e
       -0.35367414 -0.09050724 0.09801766 0.23185559
000020 b5 d0 30 3d 0b f7 08 3c 5b f6 52 3e 29 d0 13 3e
       0.04316779 0.008359681 0.2060179 0.14434876
000030 b1 50 c4 3c 8d 55 3c be 99 65 da bd f2 64 44 3e
       0.023964258 -0.1839201 -0.106639095 0.19179133
000040 c8 9c a2 3e 28 54 54 3e c9 23 77 3c dc ca da 3c
       0.3176024 0.20735228 0.015084215 0.026708059
000050 2c cd 03 bd 83 01 5f be c8 70 a9 3d c3 62 db 3e
       -0.03217809 -0.2177792 0.082734644 0.42848787
000060 ed 26 5d 3f 91 36 69 be 20 23 ab bf a5 a1 d5 3f
       0.8638752 -0.22774722 -1.3370094 1.6689955
000070 9f b8 0e be 23 77 c4 be 08 e6 ef 3e 5a e5 3d bf
       -0.13937615 -0.38372144 0.46855187 -0.7417809
000080 a2 cb 80 bf 2b 40 e7 bd 1c 67 05 be 0c 6d fc 3e
       -1.0062144 -0.11291536 -0.13027614 0.49301946
000090 28 b1 99 3f a2 0f 93 be 97 e3 c6 3e 80 9a 4b bd
       1.2007189 -0.28722864 0.38845512 -0.04970789
0000a0 37 f4 27 bf 49 c4 7d be a5 77 db 3d c0 78 b0 bd
       -0.6560702 -0.24781908 0.1071618 -0.08616781
0000b0 2d f7 29 be 4c 50 0b 3e 2e 0c 95 3f 35 c8 b7 3e
       -0.16598196 0.1360485 1.1644342 0.35894933
0000c0 61 77 15 3e a3 df d3 bf 58 ba 3b bf ad 25 8f bf
       0.1459632 -1.6552624 -0.73331213 -1.1183373
0000d0 1d 68 b6 bf 98 cd fe 3d 45 60 5d bd df 0b 8c bf
       -1.4250523 0.12441558 -0.054046888 -1.0941123
0000e0 2e 33 66 bf aa 54 93 bf 89 9d d6 3d 29 61 2d 3f
       -0.89921844 -1.1510212 0.10479266 0.6772638
0000f0 d5 c1 0a 3f b8 51 79 3d 7b fc c5 be 89 ed c3 3e
       0.54202014 0.06086895 -0.3866919 0.38267162
000100 98 ff 7b 3d 3f c0 f9 3d d6 00 67 be 82 90 51 bd
       0.06152305 0.12194871 -0.22558913 -0.051163204
000110 62 e8 ec bd ce 47 46 3c 49 0f fd bd 74 ab 2b be
       -0.11567761 0.0121020805 -0.12356431 -0.16764623
000120 1f 8f a6 be 01 dd 4d be 26 8b 19 3e f1 32 b4 3d
       -0.32531068 -0.20103838 0.14994487 0.08798779
000130 a2 03 90 3e d0 b5 2e 3d 9a 69 9c 3e 77 49 80 bf
       0.28127772 0.04265386 0.30549318 -1.002242
000140 21 5a c2 bd d4 8c 40 bc 21 e0 50 bf a3 d9 2c 3f
       -0.09489847 -0.011752326 -0.81591994 0.6751959
000150 d9 03 b0 3f 8b 43 25 bf 1c 13 11 3f b2 b3 6c bf
       1.3751174 -0.6455619 0.56669784 -0.92461693
000160 44 d3 6f bd 53 1e 18 c0 76 84 79 3f 71 c0 59 be
       -0.058551088 -2.3768508 0.97467744 -0.21264817
000170 73 ef 3e 3e 80 33 de bf 12 84 8f bc d4 eb 3a bf
       0.1864603 -1.7359467 -0.01751903 -0.73016095
000180 78 03 42 3f 60 37 52 3d 16 f4 ec 3e 4b e4 d5 bd
       0.7578654 0.05132234 0.46279973 -0.10443934
000190 5b c0 91 be ed e4 01 bf 7b 45 f3 be 29 74 f6 3d
       -0.28467068 -0.5073994 -0.47513947 0.120338745
0001a0 ad 0a da be 84 16 0a bf 81 97 24 3e fd 6d d1 bc
       -0.4258627 -0.53940606 0.16073419 -0.025565142
0001b0 82 38 4c bf 90 b6 b7 3e 9d cf 9f be 73 d4 3b 3f
       -0.79773724 0.35881472 -0.31213084 0.73371047
0001c0 82 d1 0f 3e 2a e4 94 bc c5 02 16 3e 00 f1 f2 bf
       0.14044765 -0.018175203 0.14649494 -1.8979797
0001d0 fb 00 87 be 62 ee 69 bf 4f 57 09 c0 88 b1 2b 3d
       -0.26367936 -0.9137937 -2.145954 0.041917354
0001e0 3a 05 a0 be 67 9e 05 c0 49 d9 dd bd 1d ab 5d 3e
       -0.31253988 -2.087793 -0.108324595 0.21647306
0001f0 d1 24 d2 bc 65 58 1d 3f 86 e3 dc 3d 61 0d aa be
       -0.025652321 0.61463004 0.10785584 -0.33213332
000200 75 83 c0 3e c1 e9 5c 3e e0 13 4a 3d c7 51 cc be
       0.37600294 0.21573545 0.04933536 -0.3990614
000210 34 f7 af 3b 13 d3 16 be 25 18 4a be d3 09 3a be
       0.005370045 -0.14728956 -0.19735773 -0.1816781
000220 f9 91 7a be 8a cb 19 3f cf 60 92 be bf f7 13 bf
       -0.24469747 0.600762 -0.28589484 -0.57799906
000230 5b dc a5 bf 9c 6b 6b bf c8 31 1d bf 82 17 a7 3e
       -1.2957872 -0.91961074 -0.61404085 0.32635123
000240 b4 1f 89 3d 04 b5 28 3f 68 0e 78 be 1c a7 1c bf
       0.066955 0.6590121 -0.24224246 -0.6119249
000250 2d f1 dd 3e 00 17 32 3e 31 9a e8 bd fb 4a aa 3e
       0.43348065 0.17391586 -0.11357535 0.3326033
000260 ad b7 53 3f a5 cb be 3e a1 b4 60 bf 14 06 f1 bd
       0.8270214 0.37264743 -0.8777562 -0.117687374
000270 cd 8b 68 3e e2 0a bb bf 4f f9 a3 bf c2 ac 9c bb
       0.2270958 -1.4612696 -1.2810458 -0.0047813365
000280 7e 7e 89 3c eb 72 95 3e af c1 b3 3e 21 c0 6f bf
       0.016783949 0.29189238 0.35108706 -0.9365254
000290 92 b4 ba 3e fb b4 2f be 9c 44 06 c0 47 c8 6f bf
       0.3646589 -0.17158882 -2.0979376 -0.93664974
0002a0 c1 51 85 bf ea b9 93 3f a1 3e 29 3f 63 81 16 bf
       -1.0415574 1.1541111 0.6611119 -0.5879118
0002b0 85 91 91 be b6 12 5b 3e 0f 3f 08 bf 72 b3 63 be
       -0.28431335 0.21393856 -0.5322122 -0.22236422
0002c0 4f ab 4c be fc 56 89 3d 8c 21 0e bf 43 81 e5 bd
       -0.19987224 0.06706044 -0.5551994 -0.11206295
0002d0 b0 95 66 3d 1c fe fe 3d f6 bb 2b 3e eb 0c 08 be
       0.056295097 0.12450811 0.1677092 -0.13286178
0002e0 41 95 14 3e db a3 34 3e 31 53 d0 3a a4 d2 ff bd
       0.14510061 0.17640631 0.0015893934 -0.124913484
0002f0 37 a2 e7 bd 51 95 2c be 1b a9 0e bf 64 6d a4 bd
       -0.11310237 -0.16853835 -0.55726784 -0.08028677
000300 b1 00 97 bd ee 23 4b bd ee 30 7b be 96 bb 99 bf
       -0.07373179 -0.049594812 -0.24530384 -1.2010372
000310 80 bf 17 bf 3c 71 48 3e 91 71 f0 3b 06 0d 72 bf
       -0.5927658 0.19574445 0.007337757 -0.9455112
000320 aa f0 51 bf 5e ba 97 bf 8a ad af bb 51 dd 3b 3e
       -0.8200785 -1.185375 -0.0053612636 0.18346144
000330 a3 10 46 bd ba 7c d8 3e 28 b9 b6 bf 3d fa c4 bf
       -0.04835571 0.4228266 -1.4275255 -1.5388867
000340 0e be 22 bf e5 16 ef be 14 db 92 3e 9d d6 d6 3e
       -0.6357125 -0.46697155 0.28682768 0.41960612
000350 a6 c7 5a bf 8a 73 a2 3d fd 89 bd be 0b 59 58 3e
       -0.8546089 0.079321936 -0.3701934 0.21127717
000360 8b 0f 34 3e 3a 4b 5a 3d ac 7b 4d 3e 07 0d 25 be
       0.17584054 0.053294398 0.20066708 -0.16118251
000370 28 2d f8 3d 81 f3 39 bf df 3d 32 bf 3b 5c c5 3e
       0.12117988 -0.7263718 -0.6962566 0.3854693
000380 2e fc 39 3e 6a f1 8d 3e ba 18 ed 3e ad 14 db 3d
       0.18162605 0.27723247 0.46307927 0.10697303
000390 ae 45 cf be 99 43 2a bf e8 63 14 bf b2 5d 99 bf
       -0.4048285 -0.66509396 -0.57964945 -1.1981719
0003a0 a9 e8 80 3d b3 d1 af be ab 41 ad 3d 38 a6 97 3c
       0.062943764 -0.34339675 0.08459791 0.018511876
0003b0 b2 ca bf bf e7 30 34 3e 60 90 03 3e 8d b6 13 3e
       -1.4983733 0.1759678 0.12848043 0.14425106
0003c0 55 c3 99 3e 4c 91 31 3e 92 94 98 3d 2e 15 99 bd
       0.3003184 0.17340583 0.074502125 -0.07474743
0003d0 f7 7a 3d 3d e6 76 da bd 11 48 c5 be ba 3b 6e be
       0.046259847 -0.10667209 -0.38531545 -0.23264971
0003e0 a0 f9 70 3e 22 5f 06 3e d3 11 77 bd 48 4e df 3d
       0.23532724 0.13122228 -0.060319733 0.10903603
0003f0 0e c3 4b be b9 51 26 bd 8b 3f 46 c0 39 46 00 be
       -0.19898626 -0.04060528 -3.0976284 -0.12526788

network.0.bias f4 [128]
000000 64 f3 ae bd 9a 17 03 3c 6a dd ce 3d b7 35 5d 3e
       -0.08542517 0.0080012325 0.10100825 0.21602522
000010 a8 d2 e1 bc 8e 32 c4 3d c5 85 e6 be d4 da 68 3d
       -0.027566269 0.09579955 -0.45023933 0.056849316
000020 b8 1a 16 3e fd ee 01 bf d6 5c 7a be 4f d5 5c bf
       0.1465863 -0.5075529 -0.24449477 -0.86262983
000030 c8 f5 63 3b 0f e2 b2 be cd 82 87 be 06 20 6b 3d
       0.0034783948 -0.34938094 -0.2646698 0.057403587
000040 5c 05 58 3e 36 7b ba be b5 4c e1 bd 93 0c 93 be
       0.21095794 -0.36422127 -0.11000959 -0.2872053
000050 dd 2a da be db d2 be be 63 87 27 bd 1a ec 69 bd
       -0.42610827 -0.37270245 -0.0409006 -0.05710993
000060 bf 3c 27 be a0 b4 5a bd 94 65 ae 3d a3 77 f1 3e
       -0.16331767 -0.053394914 0.08515468 0.47161588
000070 ae 46 9b 3d 8d 60 9f 3c 5f 26 a2 ba bb a7 73 3e
       0.075818405 0.019455219 -0.0012371055 0.23794453
000080 14 07 d5 be c1 9b 1b bd c7 49 24 be b8 b0 4e be
       -0.41606963 -0.037990335 -0.16043769 -0.201846
000090 87 cb 25 bd 14 4f 01 3d 81 1d bd be 96 f3 1e be
       -0.040477302 0.031569555 -0.36936572 -0.15522608
0000a0 19 07 df be bb 22 1d be 6f 6d c4 bd 87 21 30 3e
       -0.43560103 -0.1534528 -0.09591185 0.1720029
0000b0 be a6 94 bd c8 2b d8 be 07 bc a1 3d 22 97 7a be
       -0.07258366 -0.42220902 0.078971915 -0.24471715
0000c0 02 ed 9a 3e 5d 90 97 3d 06 e3 8a be cb 52 14 bf
       0.30258948 0.07400582 -0.2712633 -0.5793883
0000d0 00 09 a0 be 8f 83 2a 3e 90 be 30 3c 2c 4a a6 3d
       -0.31256866 0.16651748 0.010787621 0.08119616
0000e0 df 6c ff be fe df a1 be 9c d6 91 3d d1 d2 b8 3d
       -0.4988775 -0.31616205 0.071210116 0.09024585
0000f0 7a ba ae bd 47 fd 14 bf 05 be 7e 3d dd 56 c1 be
       -0.08531661 -0.5819897 0.062192935 -0.37761584
000100 fe a6 f1 bd 1e fd ac bd 92 ce 63 be e0 ab 96 be
       -0.11799429 -0.08446716 -0.22246769 -0.29428005
000110 0a 7c f6 be 8b e6 01 3e 09 23 17 3d f9 32 00 bf
       -0.4814151 0.12685601 0.036898647 -0.5007778
000120 ca 3a 74 3d f3 60 67 be 94 66 5d 3c 55 65 50 be
       0.059626378 -0.22595577 0.013513226 -0.20351155
000130 32 0d 14 bd 63 9e da 3d 3f 48 67 be 0a f9 10 be
       -0.036145397 0.10674741 -0.22586153 -0.14157501
000140 3e f3 aa 3d 6a 6d b8 bd cd c7 56 3d 18 bb 05 be
       0.08347176 -0.09005244 0.05243664 -0.13059652
000150 de 78 4b be af 37 84 3c 99 64 62 be 74 62 1d 3e
       -0.19870326 0.016139833 -0.22108687 0.15369588
000160 fb c6 21 be 6b ce 9d be 7b f1 94 bd f7 46 53 3c
       -0.15798561 -0.30821547 -0.07272621 0.012895337
000170 8d bf d8 bc c8 a6 2c be 55 ce b2 3d 32 9a 53 3d
       -0.026458526 -0.16860497 0.08730761 0.051660724
000180 0b 96 fb be 49 f4 60 3d ca c8 e1 bd ee f5 2c be
       -0.4913791 0.05492047 -0.110246256 -0.1689069
000190 10 07 05 be f9 71 15 3d 33 9e bc bd 01 5a 8c bd
       -0.12990975 0.036485646 -0.092098616 -0.068531044
0001a0 0f a5 9c 3d 67 f9 97 be eb 92 a4 bd 49 f4 c3 bd
       0.0764867 -0.29682466 -0.08035835 -0.09568078
0001b0 10 d5 83 be 64 89 85 be 6e 0f 95 be 2d b4 6f be
       -0.2574849 -0.26081383 -0.29113334 -0.23408575
0001c0 ab c3 88 bd 69 d9 a9 bd 4c 98 b8 bd 69 b1 c9 bd
       -0.06677946 -0.08293421 -0.09013423 -0.098482914
0001d0 01 f7 df 3d 71 df 8a be 5b 61 c2 3d 8c 3f f5 bd
       0.10935784 -0.27123597 0.09491225 -0.11975011
0001e0 d6 f7 b3 bd e5 b3 c0 bc f3 0c 49 3e 3d b3 20 3e
       -0.08787505 -0.02352328 0.19633846 0.15693374
0001f0 91 a2 d3 bd 10 e3 3e bc 34 2a 06 be 7e a5 8d bc
       -0.103337415 -0.011650816 -0.13102037 -0.017290827

network.3.weight f4 [64, 128]
000000 18 50 bf 3d 21 c6 0d bd d6 5a 36 3e 16 a6 9c 3e
       0.093414485 -0.03461278 0.17808089 0.30595464
000010 e5 8d 15 bf ff 97 d8 3e bb f6 94 bd dd 0c 8e 3e
       -0.5841964 0.42303464 -0.072736226 0.2774419
000020 ab 63 53 bc 38 45 61 be c7 9e 1a 3e 8f aa 1c be
       -0.012902181 -0.21999061 0.15099631 -0.15299438
000030 b5 37 e5 3d 14 16 58 3d 95 f3 04 3d 8d 4d df be
       0.11192266 0.05275543 0.03245886 -0.43613854
000040 12 00 cc bf 83 eb cb 3d 91 8b 74 3d f3 81 92 bf
       -1.5937521 0.0995703 0.059703413 -1.1445907
000050 d4 ef 9c bf 22 fc db 3c 2a 15 9a 3d ea ea c3 3d
       -1.226069 0.026853625 0.07523568 0.09566291
000060 6c 42 83 be 86 2b 89 be fd 53 34 3d a3 c9 a1 3e
       -0.25636613 -0.26791018 0.04402541 0.3159915
000070 7a b9 1a 3c e2 51 a9 bd ed fb 9d 3e 84 3a 9a be
       0.009443635 -0.08267571 0.30856267 -0.3012277
000080 6d 89 5b bc b1 47 44 3e 6c 8b d0 bd b7 00 4e bf
       -0.013399464 0.19167973 -0.101828426 -0.8046984
000090 9a 42 9f bd f7 c2 23 3e a6 d0 33 bd 65 5c d4 bd
       -0.07776375 0.15992342 -0.043900155 -0.10369185
0000a0 18 ed 8b be cd dd 7e be 01 e4 ed 3e 03 cc cf 3c
       -0.27329326 -0.24889298 0.46463016 0.025365835
0000b0 c2 d1 02 be 24 da b4 bd 62 83 88 bf 2e 18 2f bf
       -0.12775329 -0.088306695 -1.0665095 -0.6839627
0000c0 f9 9c d3 bf 74 5a 8b be 16 9b c8 3e 74 74 5e bd
       -1.6532279 -0.27217448 0.3918082 -0.054310277
0000d0 56 41 67 3e 33 ae c6 bd 18 d8 ac bc f1 aa 05 3d
       0.22583517 -0.097011946 -0.021099135 0.032633726
0000e0 a5 8a 27 bd 02 d6 52 be f1 50 aa bf 85 07 12 3e
       -0.040903706 -0.2058945 -1.3305951 0.14260681
0000f0 8a 6b 3e bd 15 23 ef 3d 46 11 81 3e 3d 16 9d bd
       -0.046489276 0.11676613 0.2520849 -0.07670257
000100 0c 86 9d bb a7 03 fa bc 21 65 0a be db 58 bb be
       -0.0048072394 -0.03051932 -0.1351514 -0.3659123
000110 8e 90 17 3e 1d d8 41 be e5 0f 8e be 9d 0b b8 be
       0.14801237 -0.18930097 -0.27746502 -0.3594636
000120 72 b3 b2 3e 66 c6 99 3d f4 58 9f be db 91 c5 bc
       0.3490253 0.075085446 -0.31122553 -0.0241174
000130 69 ba 70 bd b3 fb c3 bf de 20 8e bd 7e 4f 90 bd
       -0.058771525 -1.5311188 -0.06939863 -0.07046412
000140 7b 53 9c 3e bc a7 80 be 72 2d b9 3e cd 0b 2b bf
       0.3053244 -0.2512797 0.36167485 -0.6681488
000150 ec e3 08 bf 4a d0 be 3d b8 fe 8d 3c 88 17 0c be
       -0.5347278 0.09317072 0.017333373 -0.13680851
000160 89 f4 3e 3e dc 91 da bf 24 3a 05 be 14 a7 08 bf
       0.1864797 -1.7075763 -0.1301046 -0.5337994
000170 97 6a 47 3e 93 16 92 3b b9 b2 fe be 7b 3c 02 3e
       0.19474255 0.0044582575 -0.4974573 0.12718384
000180 e0 de 93 3d 1d 13 2a 3e b4 37 4f bd 03 5b 37 3f
       0.072202444 0.16608854 -0.050590232 0.7162325
000190 f1 af 89 3e 2e 30 81 3d 9c 48 f3 be 5e f8 80 3d
       0.26892045 0.06308018 -0.47516334 0.06297372
0001a0 f2 8f a0 be 39 0c 19 3e 63 65 8f 3d b0 97 9d be
       -0.31359822 0.14946069 0.0700176 -0.3077979
0001b0 3f 2e d0 3e 17 4f 97 bf a9 10 83 3d 21 3c a7 bd
       0.40660283 -1.1821011 0.06399662 -0.081657656
0001c0 d3 ac 58 bd 9f bc 4e bd 29 43 fd bc 85 a2 48 3c
       -0.052899193 -0.05047285 -0.030915814 0.012245779
0001d0 cd 31 1b 3f 64 05 a1 3d 6a bf 10 bd 27 17 0d bd
       0.60622865 0.07862356 -0.035338797 -0.034445908
0001e0 61 cb af bd b0 48 c1 3e 71 66 cd bd 98 0d 23 3e
       -0.08583713 0.3775077 -0.10029305 0.15923154
0001f0 da 31 db bc bc 5b 01 bd 24 f3 c3 bc f8 cb 6a 3d
       -0.02675717 -0.031581625 -0.02391965 0.057323426
000200 0f 0e 48 bf 32 48 0d bf d4 69 ea be 3b 87 c0 3d
       -0.7814645 -0.55188286 -0.45783865 0.09400793
000210 bd c5 b0 3e 0d 99 e4 be 8a fa d5 be 70 ac 5a bf
       0.34525862 -0.44648018 -0.4179271 -0.8541937
000220 0e 93 8d 3d 1f c5 6b be 9b d0 81 bc 66 ac 20 3e
       0.06912814 -0.23024414 -0.015846541 0.15690765
000230 88 b2 0b 3e be 93 6e 3e f8 ac a8 bd 58 14 1f bf
       0.13642323 0.23298547 -0.08236116 -0.6214042
000240 c9 39 22 bf 0e 76 17 3e d2 11 66 3d 61 73 ed 3e
       -0.63369423 0.14791128 0.05616934 0.4637709
000250 2b a2 3e 3f 5a ef be 3d f4 94 bd be b7 61 11 bd
       0.744662 0.093229964 -0.37027705 -0.03549358
000260 a0 7d 48 3f 69 2d 70 3d 7b 67 ab be 15 84 a7 be
       0.7831669 0.058637056 -0.33477387 -0.32717958
000270 69 da a8 3d ea 1f 45 be 31 7e bd bd ee 33 a6 3c
       0.082447834 -0.19250455 -0.09252585 0.020288434
000280 70 ef 04 3e 63 c1 be bd e4 88 07 bf 3e e6 8d 3d
       0.12981963 -0.09314229 -0.52943254 0.06928681
000290 0f 66 be 3d 96 50 aa be a4 44 e2 bd 8c 8f c0 be
       0.0929681 -0.33264607 -0.110482484 -0.37609518
0002a0 70 a7 84 3e 08 a6 4b be 1d 6c 58 bf 61 b8 4d bf
       0.25908995 -0.19887555 -0.8453997 -0.80359465
0002b0 e3 84 b7 3c 9e b5 28 bf 96 28 b6 be 31 dc 67 be
       0.022402233 -0.65902126 -0.3557784 -0.2264259
0002c0 43 17 23 3e a5 b8 c4 bd 54 2f 8b 3e 3a 0d 6a be
       0.15926842 -0.09605531 0.27184546 -0.22856608
0002d0 c1 08 33 bf c8 35 33 3e 53 1d 5f bd cf 71 8e 3d
       -0.6993523 0.17500985 -0.054471325 0.06955301
0002e0 83 20 a5 3e a7 df 30 be 43 1c b5 be 90 41 1c 3e
       0.32251367 -0.17272817 -0.35373124 0.15259385
0002f0 59 64 a4 bd 16 97 48 bc a0 79 09 bf a8 a3 8f be
       -0.08026952 -0.012243053 -0.5370121 -0.28054547
000300 93 61 90 3d 36 7a 77 3d e3 a1 16 3f 90 e4 a1 3e
       0.07049861 0.060419284 0.5884077 0.31619692
000310 9b 59 35 be 89 76 62 3e a4 9f 22 3c cf 0a b5 39
       -0.17709963 0.2211553 0.009925757 0.00034531063
000320 8c d6 34 bf f6 b0 be bc 96 c8 24 bd 45 73 cb bd
       -0.7063987 -0.02327774 -0.040230356 -0.09934095
000330 8b 59 2e bd 2d 0d 16 3f 0b 1e b4 be dc ad d5 be
       -0.042565864 0.58613855 -0.3517917 -0.41734207
000340 c9 04 00 bf 3f 01 f4 3e 59 8d 2e 3e 2c 6d 66 3e
       -0.500073 0.476572 0.17046107 0.22502583
000350 00 03 08 3e ac e0 9d 3d 38 6d 27 3e 18 2e af bd
       0.13282394 0.077088684 0.16350257 -0.085537136
000360 e7 9c 94 be 7f 22 db 3e 7a fe 1a 3e 7b 0e 02 bf
       -0.29025957 0.42799756 0.15136138 -0.50803345
000370 ea aa 2b 3d b6 1d 10 3d ca b5 0b be ed 81 a8 be
       0.041911043 0.035184585 -0.13643566 -0.32911626
000380 56 4a 4d 3e c8 56 42 bc c0 16 7c bd 49 94 1a 3f
       0.20047888 -0.011861511 -0.061545134 0.60382515
000390 03 76 28 be 99 31 58 3d 94 bb e4 3c ee bb 7f be
       -0.16451268 0.052781675 0.027921475 -0.24974033
0003a0 21 71 52 bf e8 be 26 3e 2c c8 29 bd f7 16 4a bf
       -0.8220387 0.16283762 -0.041450664 -0.7894129
0003b0 e1 1d f9 bc 91 e0 9b 3e 4a 42 4d be 05 b2 7d bf
       -0.030409755 0.30444768 -0.20044819 -0.9909976
0003c0 65 34 89 3d c1 7c 66 bc 1d a7 85 3e 8b 10 51 be
       0.066994466 -0.01406783 0.2610406 -0.20416467
0003d0 e9 c9 fd 3e 22 b2 ca bd 03 e9 e6 be 33 8e 2a 3d
       0.49568108 -0.098972574 -0.4509965 0.041639518
0003e0 a3 ad 9d 3d b0 65 1e 3f 9a b0 64 3d 5d b4 b8 be
       0.07699134 0.6187391 0.055832483 -0.36075106
0003f0 c9 ec 17 be 18 79 af bc 73 dd 07 bf 57 7f c4 3e
       -0.1483642 -0.021420047 -0.5307228 0.38378403

network.3.bias f4 [64]
000000 fd e7 4e 3e 23 8a 36 3d 4d a9 a2 3e f6 a6 9f 3e
       0.20205684 0.04456533 0.3176979 0.3118207
000010 3b 9b 93 3d 11 ea 12 3e d5 03 80 3e 2c 2c 9b 3e
       0.07207342 0.14347102 0.25002924 0.30307138
000020 f8 95 38 3e 1a cc 7b bd 26 5d e2 3e 51 43 6e 3e
       0.18025959 -0.061473943 0.44211692 0.23267867
000030 b0 d1 e6 3e b8 c9 6c 3e 62 44 1f 3e d9 27 88 3e
       0.45081854 0.23123825 0.1555343 0.265929
000040 84 ec 4c 3e 84 9e 50 3e 8b 53 00 3e 19 7a ae 3e
       0.20012099 0.20372969 0.12531869 0.34077528
000050 48 a1 04 3f 1c 84 52 3e b8 c5 cb 3e fe ec 61 3e
       0.51808596 0.20558208 0.39799285 0.22063062
000060 fc 74 fe 3e 0c c8 31 be 08 26 be 3e 13 db d1 3e
       0.49698627 -0.17361468 0.3713839 0.40987453
000070 c1 d6 59 3e 49 2d 91 3e 13 0a de 3d 75 a8 3c be
       0.21273328 0.28354862 0.10841765 -0.18423636
000080 d5 e1 0f 3f b9 96 de 3e a3 c4 46 3e ce 23 d7 3e
       0.5620397 0.43474367 0.19410948 0.42019504
000090 8f 8e 60 3e db c0 9e 3e 86 d0 9e 3e 39 3b c0 3e
       0.21929382 0.31006512 0.31018466 0.37545183
0000a0 d9 6a c3 3e 43 25 87 3e 39 d6 78 3d 93 5b a0 3e
       0.38167456 0.26395616 0.060751174 0.31319866
0000b0 6f 7d 7f bc 8f 30 96 3e 51 0b 4f 3e 78 29 fa 3d
       -0.015593871 0.29333922 0.2021916 0.12214941
0000c0 d9 06 a8 3e e3 ee 50 be e9 e7 8f bd 93 55 54 3e
       0.32817724 -0.20403628 -0.07026655 0.20735769
0000d0 39 ec 98 bd 12 81 7f 3e 48 db be 3e 50 4c 9e 3e
       -0.07466931 0.2495158 0.37276673 0.30917597
0000e0 5b 86 77 3e eb fe a4 3e 15 c6 de 3e 64 46 ba 3d
       0.24172346 0.32225737 0.435105 0.09095457
0000f0 b5 7a 88 3d dc 61 96 3e 4e ea a2 3e 01 48 ac 3e
       0.066640295 0.29371536 0.31819385 0.33648685

network.6.weight f4 [8, 64]
000000 d7 4b d9 3d 0b a8 e3 3d f6 78 35 bd 51 29 00 bc
       0.106101684 0.11116036 -0.04430481 -0.007822351
000010 2b 4b 9b bd e1 a6 f0 be 64 70 9e bd 3d 4d eb be
       -0.075826965 -0.47002319 -0.077362806 -0.45957366
000020 18 20 e0 3b 5b 52 81 bd 40 60 d5 3d 77 68 8e bd
       0.0068397634 -0.06314536 0.10418749 -0.06953519
000030 58 05 af 3d c4 d8 63 be e1 cb c6 be c8 44 a0 be
       0.08545941 -0.22250658 -0.38827422 -0.31302476
000040 d8 70 00 3e 89 5c b1 bc 22 71 a6 be 3d b1 11 be
       0.12543046 -0.02165057 -0.32508188 -0.14227767
000050 72 e5 93 be 99 3c ae bd a1 20 87 be 66 46 99 be
       -0.2888599 -0.08507652 -0.2639208 -0.29936522
000060 13 4d 3b 3e 65 b6 8e 3d 2b fe 22 3d 01 2c 9b be
       0.1829112 0.06968383 0.039793175 -0.3030701
000070 8c 56 40 3d 85 94 27 be 8a 8b a6 bb 4a 8d 26 bc
       0.046957538 -0.1636525 -0.0050825523 -0.010165522
000080 ea 3c 83 3c 99 b8 b5 3d 06 0e 90 3d 0d 94 1d 3e
       0.016020257 0.088731 0.07033925 0.15388508
000090 b8 8e 8a 3d ba c3 ba 3a 12 83 39 be a0 ca fa 3d
       0.06765503 0.0014249005 -0.18116406 0.12245679
0000a0 d7 b5 c6 be 67 4c 9d 3d 36 18 0b bc ea 36 9a be
       -0.38810608 0.07680588 -0.008489659 -0.3012002
0000b0 16 e6 bd bc 5b c0 6b 3d 9b ad d7 be db 88 68 bd
       -0.023181003 0.05755649 -0.42124638 -0.05677114
0000c0 b9 79 0a bd 51 0c 79 bd c0 dc bc bc 1b ab b7 bd
       -0.03380749 -0.06080276 -0.02305448 -0.08968183
0000d0 8d f1 ee bc c4 de af 3c 59 ad a3 be 44 49 39 3d
       -0.029167915 0.021468528 -0.3196819 0.045235887
0000e0 01 42 f3 be 85 a5 7d bb 65 fc 7c be b7 7c 16 3d
       -0.47511294 -0.0038703394 -0.24705656 0.03674003
0000f0 ef 69 2c bf a3 e9 1c bf b9 1a 1a 3d 1a 69 bd 3d
       -0.6734914 -0.61294 0.03762314 0.09248562
000100 e3 81 81 3d 19 44 45 bf c7 23 9f 3d 21 7d a0 be
       0.06323602 -0.77057034 0.07770496 -0.31345466
000110 c2 13 90 3c c6 dd 8c bd a7 f0 03 be 7a 8b 92 3c
       0.017587546 -0.068782374 -0.1288477 0.017888773
000120 e1 ad 79 3d 60 11 7b 3b 2d 66 88 be 0c 8b 37 3d
       0.06095684 0.0038309917 -0.26640454 0.04481034
000130 3e 8e 82 be 11 2e eb be 93 bb 82 bd 0d e3 a2 3d
       -0.25499147 -0.45933583 -0.06383433 0.07953463
000140 5f 6f 42 be 81 82 fa 3b a6 49 7a bd a5 f9 de be
       -0.18987797 0.007644952 -0.061105393 -0.4354984
000150 5c af 98 be 9a 05 29 3d 76 7b 08 bd b8 18 1c bc
       -0.2982129 0.041265108 -0.033320867 -0.009527378
000160 12 39 c5 be 31 df 68 3d ab c9 1d bc d8 91 9a be
       -0.38520104 0.056853477 -0.009630601 -0.30189395
000170 c8 88 00 bf 01 db 99 3d ce 81 b9 bd 63 79 9c bd
       -0.5020871 0.07512475 -0.090579614 -0.0764034
000180 35 6f ba be 8c a4 17 3d 76 05 10 bf 03 92 dd be
       -0.3641297 0.03702216 -0.5625833 -0.4327546
000190 ce 08 19 be 28 49 09 be 32 7e 9a bc 5a c4 10 bc
       -0.14944765 -0.13406813 -0.018859003 -0.008835876
0001a0 70 7f d1 3c d8 74 2d be df ff 7f bd 09 8c e2 3c
       0.025573462 -0.16939104 -0.062499877 0.027654665
0001b0 8a 6b 37 be 29 5b be bc 8b b6 a6 bd 84 5f 4c 3d
       -0.17912117 -0.023236828 -0.08140286 0.04989578
0001c0 61 ad 2a 3d 87 1b 13 be bc 31 a5 3b c0 a8 33 be
       0.041669253 -0.1436597 0.005041329 -0.17544842
0001d0 09 d8 a1 bc ed b5 ec bc d8 94 d2 3c 80 28 80 be
       -0.019756334 -0.028895343 0.02570574 -0.250309
0001e0 e1 ab 04 bd cc 0f bb be 95 fc a0 be 99 48 9a 3c
       -0.03239048 -0.3653549 -0.31442705 0.018833445
0001f0 4e 4b 04 be 87 7d eb bc 9f 28 1b be ea 55 5a 3d
       -0.12919351 -0.02874638 -0.15152214 0.05330459
000200 f5 d9 90 3d 50 13 8e 3d f7 88 48 be 2c 79 05 be
       0.07072822 0.06937277 -0.19583498 -0.13034505
000210 a5 58 f0 bd 2d a4 f0 3d ec 7f 8a 3d 81 da 82 bd
       -0.117356576 0.11750064 0.067626804 -0.063893326
000220 5b 2b a4 3d aa 0f 4a bd d7 70 93 3d d1 e5 6b be
       0.08016082 -0.049331345 0.07199257 -0.23036887
000230 d2 6b b4 be 7f ae 3e be 8f 2a ab 3d 51 c3 65 3d
       -0.3523851 -0.18621252 0.08357727 0.05609447
000240 99 99 23 bc 97 92 f3 bc ff fe 85 bd e1 fd 2e be
       -0.009985351 -0.029732985 -0.06542777 -0.17089035
000250 2b de 83 be b6 d5 fd bd 77 ee 53 be 9d 71 9d 3d
       -0.25755438 -0.12394278 -0.20696436 0.07687686
000260 36 08 83 be 25 5f b1 3c 22 5c d9 3c 2c 04 c0 be
       -0.25592202 0.021651814 0.02653319 -0.37503183
000270 d6 37 52 3d f0 c3 06 be 52 00 4f 3d 19 19 0a 3d
       0.05132278 -0.13160682 0.050537415 0.03371534
000280 29 75 46 be dd a9 a6 be f4 e4 53 3d 35 e3 b9 be
       -0.1938063 -0.3255147 0.05173202 -0.36306158
000290 be a7 1d bd 4f 67 b2 be 8a 97 44 be a9 cb d6 3d
       -0.03849005 -0.34844443 -0.19198433 0.10488064
0002a0 09 c4 0a 3d 70 96 b3 3c ad 44 1a 3d 68 1a 94 be
       0.03387836 0.02192232 0.03766315 -0.28926396
0002b0 f9 4b c8 bd c9 84 40 bd bc 3b 3d bf 8e 6d a6 3d
       -0.09780116 -0.047001634 -0.7391927 0.08126365
0002c0 7f 5f 16 bf 90 dd d1 bd 0a 87 07 bf 24 a2 e4 be
       -0.58739465 -0.10247338 -0.5294043 -0.44654953
0002d0 f2 1e f5 3c 26 f3 0d 3d 51 48 86 be 1b c0 58 bd
       0.029921982 0.034655713 -0.26227048 -0.05291758
0002e0 00 1a da 3c 00 5b 72 3c 98 60 a2 3d d6 9e 3b be
       0.026623726 0.014792204 0.0792858 -0.1832231
0002f0 56 92 05 be 17 23 f0 bd f2 ee 99 3d fe 13 5d be
       -0.13044104 -0.11725443 0.07516278 -0.21589658
000300 2e 2e ad 3d dd 46 87 bc d2 ef 6c be f2 18 92 be
       0.08456074 -0.016513282 -0.23138359 -0.28534657
000310 3e 67 d6 3d 84 91 53 bd ba c3 53 bd a0 df c6 bc
       0.10468911 -0.051652446 -0.05170033 -0.024276555
000320 d8 58 b4 bd de d5 33 be f2 3a 0b 3e 3e 33 d3 3c
       -0.08806008 -0.17562053 0.13596705 0.02578127
000330 a0 a5 64 bd f3 2c a1 3c d2 c1 76 be 09 1b a5 3d
       -0.055822015 0.019674754 -0.24097374 0.08061797
000340 04 7b 11 3d 27 2d 0d bd b7 54 c7 bb a6 85 31 be
       0.035517707 -0.03446689 -0.006083097 -0.17336139
000350 0b 66 eb 3d 51 e0 ff bd fc 44 26 be f7 22 2d be
       0.114940725 -0.12493957 -0.16237253 -0.1690787
000360 ed 36 08 be 3a 34 41 be d4 f2 0a 3c 79 56 4c bd
       -0.13302203 -0.18867579 0.008480746 -0.049887154
000370 b3 00 cd bd c5 6c 44 be fc b1 c0 be dc 19 39 bd
       -0.10009899 -0.19182117 -0.3763579 -0.045190677
000380 71 17 19 be 9d 72 7c be 0e eb ff bc 68 41 cc 3c
       -0.14950348 -0.24653096 -0.031240012 0.024933532
000390 10 4b af be 07 7e b2 3d 10 ba e7 3d 18 d6 cb 3c
       -0.34236956 0.08715444 0.113147855 0.024882361
0003a0 04 88 32 be 9f 39 8c bb 47 2a 7b bd 23 ca 0d bd
       -0.17434698 -0.00427933 -0.061319616 -0.0346166
0003b0 be 06 d2 bd 86 92 a0 bd 68 24 9b 3d b3 d6 15 be
       -0.10255192 -0.07840447 0.07575303 -0.14632683
0003c0 53 82 d4 3d 9c 8b 81 3c 57 4d 24 3c 5a 50 1f be
       0.1037642 0.015813641 0.010028205 -0.15557995
0003d0 e5 fb d1 be 50 c0 b1 be 93 e8 5a bb 66 6d c9 3c
       -0.41012493 -0.34717035 -0.0033402785 0.024588298
0003e0 ab d9 d4 bd 27 a9 87 3d e4 51 de 3d 1f 1b 87 be
       -0.10393079 0.0662406 0.10855463 -0.2638788
0003f0 0b 6f 76 bd 54 6a 5b bd 18 43 5b be 7a 35 b1 3d
       -0.060164493 -0.0535682 -0.21412313 0.08652778

network.6.bias f4 [8]
000000 6b 07 00 bf fa 85 ef 3e 28 55 70 be 66 c9 ba be
       -0.5001132 0.46781904 -0.23469985 -0.3648178
000010 29 64 e9 be 25 ae 5f 3f ae 27 85 be 29 ae b8 be
       -0.4558423 0.873751 -0.26006836 -0.36070374

network.0.weight f4 [128, 58]
000000 77 20 cf bd a9 61 c0 3d 8a b8 22 be b8 90 17 bc
       -0.10113614 0.09393627 -0.15890709 -0.009250812
000010 5e 4e cc 3d 76 59 1f be 54 e8 b0 bd e1 fd 42 3c
       0.09975885 -0.1556147 -0.08638063 0.01190135
000020 5a da 2f 3c c7 52 cc 3d 89 88 0e be 89 cf 59 3d
       0.010733211 0.09976726 -0.13919272 0.053176437
000030 a3 dc 11 bd 0a 5d e7 bd 20 c1 7c 3d 98 c5 ad 3d
       -0.035610806 -0.11297043 0.061707616 0.08484954
000040 32 8d 97 bb 1b a5 13 3d a8 ff ea bc a9 95 0a be
       -0.004624986 0.03604613 -0.02868636 -0.13533653
000050 cc d1 16 be e5 5b ba bd f8 09 74 3c 26 9c 9a bc
       -0.14728469 -0.09099559 0.014894955 -0.018873286
000060 76 54 bd bd 5d cb 04 bd 28 55 e8 bd 41 5a 74 bd
       -0.09244625 -0.032420505 -0.11344367 -0.059656385
000070 04 50 7e 3d 3e 85 b1 bd 69 60 9f bd 63 39 b0 3d
       0.062088028 -0.08667992 -0.07782061 0.08604696
000080 e0 08 1a bc 9f e0 0d 3c b9 f7 35 bd ee f1 21 bd
       -0.00940153 0.008659511 -0.0444257 -0.039537363
000090 76 8b 25 bc af de aa 3c 76 0b 2a bd 9e b8 d8 3d
       -0.010104051 0.020858137 -0.041514836 0.10582088
0000a0 d1 fb ed bd ec 1d 37 bc 59 f3 c8 bc f2 4d 86 3d
       -0.11620296 -0.0111765675 -0.0245301 0.06557836
0000b0 2e a9 b9 ba ea 8d 08 bc 1b 05 0c be a3 d6 8c 3d
       -0.0014164799 -0.008334616 -0.13673823 0.06876876
0000c0 9f 29 82 3d bc ed 1c be 51 a7 53 bd 81 fd e7 3d
       0.06355595 -0.15325063 -0.051673237 0.11327649
0000d0 b6 31 b7 3c d8 af a1 bd 6a ac b7 bc b1 13 39 3d
       0.022362571 -0.07894868 -0.02242108 0.045184795
0000e0 a3 54 bb bd 01 5a 60 bc 6e 60 08 bd ee 14 2e 3d
       -0.091470025 -0.013693334 -0.033295088 0.04250043
0000f0 d6 63 5f 3d 6c d5 9b 3d 85 5e e8 bd 2b 2d 0d be
       0.05453857 0.07609066 -0.11346153 -0.13786761
000100 d6 88 9c 3d 90 7e e9 bc c6 6b 93 3d 66 50 bc 3c
       0.07643287 -0.028502733 0.071982905 0.022987556
000110 47 1d 78 bd a0 8f 67 bd c1 50 72 3d f6 2c 4a bd
       -0.060574796 -0.056533456 0.059159044 -0.049359284
000120 f6 92 a8 3d 1f 5b c4 bd f2 15 ce bd a6 e0 3a bd
       0.082311556 -0.095876925 -0.100627795 -0.045624398
000130 ec ef 8d 3d 40 a8 17 be 44 d7 b0 bd 1e 16 1b be
       0.06930527 -0.14810276 -0.08634809 -0.15145156
000140 c5 f0 bb bd ab 5b 14 3d 1b b9 3e bc 97 47 bb bd
       -0.091767825 0.036220234 -0.011640812 -0.09144514
000150 10 dd a5 bc 68 8d 05 3e fb 72 ca 3d 8a 76 f8 bd
       -0.020247012 0.13042223 0.09885212 -0.121319845
000160 4a da d4 3d 2c 2a c1 3c 92 78 1e bd 9d 4a 07 3d
       0.10393198 0.02357968 -0.038689204 0.03303014
000170 06 04 15 be 5a 46 b5 bd 41 79 d3 3d 9d 5e aa 3d
       -0.14552316 -0.08851309 0.10325862 0.08318827
000180 2e a5 13 3e 84 b2 c1 3d 61 4c c3 bd 42 81 a0 bd
       0.1441848 0.09457877 -0.095360525 -0.07837154
000190 e0 6d e5 3c be 94 85 bd 08 86 95 bd 4a f3 92 3d
       0.028006494 -0.06522511 -0.07300955 0.0717531
0001a0 40 44 65 3d 3c b3 ab bd 57 20 a5 3d cf e1 21 be
       0.05597329 -0.083837956 0.08062809 -0.15808795
0001b0 ce 27 45 bc e9 f6 be 3d 92 ed 96 bd 33 07 f4 bc
       -0.012033416 0.09324438 -0.07369532 -0.02978859
0001c0 b4 af 4d 3d 66 86 2e bd ee 69 67 bd 35 1f c6 3d
       0.05021639 -0.04260864 -0.056497507 0.09673921
0001d0 b4 24 8e be 37 4e 06 bf df 97 48 be 80 24 c6 3a
       -0.27762377 -0.52463096 -0.19589184 0.0015117079
0001e0 1d fd cf be 89 a0 12 be f6 6e 3d bd 22 c5 42 3e
       -0.40622798 -0.14319052 -0.0462484 0.19020513
0001f0 9b 45 1a 3e 45 4c b3 be 3b ec 4b be b6 59 95 be
       0.15065615 -0.35019127 -0.19914334 -0.29170007
000200 4b 5b 17 3e 2c ca af be 19 d5 45 3d b2 08 b1 be
       0.14780919 -0.34333932 0.04829893 -0.34576946
000210 f5 46 2c be 77 9a 80 3d c3 c9 7f bd 91 6e 20 3d
       -0.16823943 0.06279462 -0.062448274 0.039167944
000220 5b 22 14 be e0 e8 64 be 23 b2 3f 3e 29 c9 14 bf
       -0.1446623 -0.2235446 0.18720298 -0.58119446
000230 ff 0f 01 bf 5c d2 b1 be bb 0b 8d 3d a6 d3 5a be
       -0.50415033 -0.34730804 0.06887003 -0.213698
000240 e9 ab 37 be b7 11 17 bf 4c 11 b5 be fb 64 0f 3f
       -0.17936672 -0.59011406 -0.3536476 0.5601346
000250 0c c6 4d be 9b c2 94 be 49 16 1e bf 6a 28 dc 3e
       -0.2009508 -0.29054722 -0.61752754 0.42999583
000260 19 7e ce be 40 f5 c9 bd 8c de 06 bf c4 51 d6 bd
       -0.4033058 -0.09861231 -0.5268333 -0.10464814
000270 d1 19 c1 3e ab 26 05 bf 20 7f e2 be c8 3c d7 be
       0.3771501 -0.5201213 -0.44237614 -0.4203856
000280 6d 40 c6 be 5c 74 95 bd 65 66 d4 be 1c f1 ae bd
       -0.38721028 -0.072975844 -0.4148437 -0.08542082
000290 83 78 1a be d5 9b d0 bd 31 a7 80 3e ee 06 18 3c
       -0.15085034 -0.101859726 0.25127557 0.009278996
0002a0 78 5a 23 3e 07 03 56 bd 02 de 31 bd 21 38 7f be
       0.1595248 -0.05224898 -0.043424614 -0.24923755
0002b0 b7 6c b9 bd e3 cc 0a bd 23 57 68 bd 79 f3 c5 bd
       -0.09053939 -0.0338868 -0.056723725 -0.09665579
0002c0 cd 79 d1 bd 14 e9 b7 bc 8a 00 42 bc cc df 0a be
       -0.1022831 -0.022450007 -0.011840949 -0.13561934
0002d0 40 a0 43 3c b6 5d 3b bd 16 f0 f8 bd 73 b8 c0 3d
       0.011940062 -0.045743667 -0.12155168 0.09410181
0002e0 74 9e f8 bc 84 96 d6 3c eb f7 d4 bd 01 b1 93 3c
       -0.030348994 0.026194818 -0.10398849 0.018028738
0002f0 f2 4d e9 3c 9d 6c bf 3d 38 8e f4 bd 68 86 56 bd
       0.02847955 0.09346888 -0.119411886 -0.052374274
000300 db 3f 20 3d 1d 67 f3 bd c5 53 38 3b 36 45 53 be
       0.039123397 -0.11884902 0.0028126102 -0.2063187
000310 92 92 12 3d 50 88 33 3c 7d ee 36 3d 62 82 b9 3c
       0.03578431 0.010957792 0.044661034 0.02264518
000320 1b f8 d1 bd fb 74 0d 3d e5 50 14 bd 21 3f 2c be
       -0.102524005 0.03453539 -0.03620996 -0.16820957
000330 8e 2d da bd c7 7f 83 bd 70 58 af 3d 0c af 2c 3e
       -0.1065322 -0.06420856 0.0856179 0.1686365
000340 ef ce 24 3d fe 8b db 3d dc ae 84 3d e8 59 3a be
       0.04023641 0.10720061 0.06478664 -0.18198359
000350 4a 66 84 bd 7a bf 90 3d 5b e4 e3 3d 90 6b 12 bd
       -0.064648226 0.07067771 0.1112754 -0.03574711
000360 85 83 52 3d 1b bb 8a bd 11 75 a0 bd af c6 07 3d
       0.051394958 -0.06773969 -0.07834829 0.033148464
000370 71 77 a0 3d 9b a1 db 3c a2 50 83 bc 3b 18 38 3d
       0.07835282 0.026810458 -0.01602966 0.044944983
000380 f7 7d 3f be d7 ea 49 be c6 75 cd bd d1 e9 e1 bd
       -0.18700396 -0.1971849 -0.10032229 -0.11030925
000390 2c 03 ac bd e0 c3 3e bd 3b c9 4e be c6 bb 01 be
       -0.083990425 -0.04657352 -0.20193951 -0.12669286
0003a0 3f 19 45 3d 62 85 4c bd 8e 80 b9 bd a8 4a ec 3c
       0.04811978 -0.04993189 -0.09057723 0.028844193
0003b0 75 cd e1 bc a4 5c 95 bb 92 14 ff bd aa cc 46 bd
       -0.02756379 -0.0045581628 -0.12455095 -0.048535027
0003c0 52 c4 83 bd 9e c6 cc 3d 66 15 0d be ee ac 5e bd
       -0.064339295 0.09998821 -0.13777694 -0.054364137
0003d0 53 33 45 3c df 8b 8c bd f8 4e 09 be 2c b7 01 be
       0.012036162 -0.06862616 -0.1340903 -0.12667531
0003e0 e5 68 ac 3d f1 2c 30 bd f0 90 46 3d b2 e1 c3 bd
       0.084184445 -0.04301161 0.048478067 -0.09564532
0003f0 f7 12 01 3c 48 c0 46 bd 9c ca 92 bd 54 35 0d 3e
       0.007878057 -0.048523217 -0.07167551 0.13789874

network.0.bias f4 [128]
000000 a3 10 0a bd c5 6e b4 bd d2 b9 1f be f8 7e b7 bd
       -0.033707272 -0.0881019 -0.15598229 -0.08959764
000010 c2 b6 1d bd 57 60 1a bd 6e 4e 37 bc 3b 52 0e bd
       -0.03850437 -0.037689533 -0.011188133 -0.03474639
000020 4d 78 ba bd 16 32 57 3c 68 e4 12 be e1 57 04 be
       -0.09104977 0.0131345 -0.14344943 -0.12924148
000030 6a 75 e5 bd c8 c9 cc bc ee ac 0c 3d 0c 84 13 3d
       -0.112040356 -0.02499856 0.034344606 0.0360146
000040 d0 7d 01 be f2 db 5c bd 11 cf 02 be ea 61 93 3c
       -0.1264565 -0.053920694 -0.12774302 0.017991025
000050 82 c9 a0 3b f3 84 a2 3a e2 f6 cf bc 56 6a 18 bd
       0.004906834 0.0012399241 -0.025386278 -0.037210785
000060 79 4f 90 bd 8f 5c f7 bd dd 79 dd bd 7b 82 87 3d
       -0.07046408 -0.12078201 -0.10814259 0.06616684
000070 90 c6 ec bd d3 1c e7 3c 4d 81 7e bc 9d fc 6e be
       -0.1156131 0.028211987 -0.015533757 -0.23338552
000080 37 39 40 bd df 0e 8c 3d 57 6d 6f bd 48 7a 1a bc
       -0.046929564 0.06838774 -0.058453884 -0.009428568
000090 fd 7f 09 be 98 44 0c be 24 43 03 be ea 83 14 3d
       -0.1342773 -0.13698041 -0.12818581 0.036258616
0000a0 f8 d0 72 3d 4c af 24 be 7e b7 23 bd d7 60 9d bd
       0.05928132 -0.16082495 -0.039969914 -0.07684486
0000b0 70 22 8a bd bb cf 9a 3d f9 51 ab 3c 7f b8 39 bd
       -0.0674485 0.07559153 0.020913111 -0.045341965
0000c0 f9 23 a9 bd cd 8b 6f bd 2e 75 f2 bd 18 08 49 be
       -0.08258814 -0.058482934 -0.118387565 -0.19631994
0000d0 59 be 6f 3d 07 10 17 3c 15 6b cf bd 93 3a c9 bd
       0.05853114 0.00922013 -0.10127846 -0.09825625
0000e0 d0 e4 0b be eb 94 d9 3d d0 35 2a bd 9c 6a 9a bc
       -0.13661504 0.10624107 -0.041555226 -0.018849663
0000f0 8c 40 c4 3d 16 89 c5 ba 3a 13 30 be bc 19 8a 3d
       0.09582624 -0.0015070762 -0.17194834 0.0674319
000100 f7 bf 10 be 82 5d 3d 3d ad b2 17 be 06 a9 b6 3d
       -0.14135729 0.046231754 -0.14814253 0.089189574
000110 d8 a4 b9 bd da 66 9f bc 72 da cb 3c ea 0e 26 bd
       -0.090646446 -0.019458223 0.024884436 -0.040541567
000120 ba 42 c3 bd fc 00 be bd 22 75 ac 3c 32 8c a3 3d
       -0.095342115 -0.092775315 0.021051947 0.079857245
000130 80 bd b5 bd 76 c7 3e bd 5d 8b d4 bd 38 91 95 bd
       -0.08874035 -0.04657694 -0.10378144 -0.07303089
000140 44 e9 a4 bd ba a9 d2 ba ce 28 3f 3d 8a b4 02 be
       -0.080523044 -0.0016072311 0.046669774 -0.12764183
000150 79 a4 4d 3d 8b 2c f1 3b 7f c1 d4 bd 5b 6f 37 be
       0.05020568 0.0073600463 -0.10388469 -0.17913572
000160 21 75 87 bd 5a 31 be 39 5b 96 9e 3c e9 ee bd bd
       -0.066141374 0.00036276394 0.019358804 -0.09274084
000170 ee ba 09 be 7e 6a 50 ba 63 3c 66 3c 17 0c 0a be
       -0.13450214 -0.0007950439 0.014052483 -0.13481174
000180 10 84 bc bb be c6 ed bd fe cc 84 3c f7 57 ec bd
       -0.0057530478 -0.11610173 0.01621103 -0.115402155
000190 bc 38 ed bd 95 e5 c1 bd 61 ab 92 bd b5 5a 35 bd
       -0.11583087 -0.094676174 -0.07161594 -0.044275958
0001a0 f3 a2 f1 bd ef c9 96 3d a4 60 84 3d 59 66 b7 bd
       -0.11798658 0.073627345 0.06463745 -0.08955068
0001b0 0d cb fe bd 86 e4 4b bd b4 f8 3a 3c fb bb f5 bd
       -0.124410726 -0.049778484 0.0114118345 -0.11998745
0001c0 34 e4 e3 bd df 12 d9 3c b7 9f ae bc 4f 25 30 be
       -0.11127511 0.026498256 -0.021316392 -0.17201732
0001d0 4f d2 a4 bd cc 79 06 be 53 f7 18 bc 44 ee c0 bd
       -0.08047926 -0.131324 -0.00933631 -0.094204456
0001e0 1f df a4 3d 5a db 0f 3d 8e 2b 08 be e5 d4 46 bc
       0.080503695 0.0351213 -0.13297865 -0.012135719
0001f0 1e 3a fe bd b1 b9 9b bd f0 65 b5 bd ca 68 72 be
       -0.12413429 -0.07603777 -0.08857334 -0.23672786

network.3.weight f4 [64, 128]
000000 32 4b 04 3c 1e f2 98 3d 25 58 25 bd 33 78 74 3d
       0.008074569 0.07468055 -0.040367264 0.059684943
000010 01 08 97 bc c1 78 df bd ae 98 91 3d 6a af c5 bc
       -0.018436434 -0.10911704 0.071091995 -0.024131496
000020 dd f4 f9 3c 18 36 28 3c 64 3c be 3c fc 39 0f 3e
       0.030512268 0.010266803 0.023222156 0.13986963
000030 d6 27 44 3d 5c f6 96 bc 64 b2 29 bd 96 55 08 bd
       0.047889553 -0.01842802 -0.041429892 -0.033284746
000040 7e 2f 77 3d 16 1c f0 bc 11 48 9a bc ab dd 3c 3d
       0.060348026 -0.029310267 -0.018833192 0.046109837
000050 13 ea 4f bd 6b 51 99 bd 8b 4d d3 bd 05 aa 7d bd
       -0.05076034 -0.07486232 -0.103175245 -0.06192972
000060 ca 9e ac bc ba 07 ba bc 0a 19 2a bd b7 09 8d bd
       -0.02107181 -0.022708762 -0.041527785 -0.068866186
000070 dd 7b ef bd 40 dc 70 3c 39 38 dd bd 0e 5d ad be
       -0.11693547 0.014700949 -0.10801739 -0.33860058
000080 29 3f 8a bb b5 4d 91 bd 06 de 7d 3d 17 ff 00 bd
       -0.004218955 -0.070948996 0.061979316 -0.031493273
000090 0b 9d 72 3d 1b b2 5b 3d 26 ce 57 3d ce 47 9a bd
       0.0592318 0.05363665 0.052686833 -0.07533227
0000a0 4a 1d d8 3b 23 27 b2 bd 7a 79 43 3d fa 8e 9e bd
       0.0065952884 -0.08698871 0.04772327 -0.07742114
0000b0 fd eb ff bc ff 46 37 bd a5 94 c4 bd c0 e1 c8 bb
       -0.031240458 -0.04474544 -0.09598664 -0.006130427
0000c0 d2 4a fa bc 9b c7 a9 3c 29 09 c1 bc 7e 85 05 be
       -0.030553255 0.020725062 -0.023563938 -0.13039204
0000d0 5d 0c 5e 3c d5 ac c5 bd 05 d5 84 bd 25 2a bf 3c
       0.013552752 -0.09652106 -0.06485943 0.023335526
0000e0 b2 7a 25 3e 03 13 83 3d 50 37 6e 3b ac e8 35 3d
       0.16160086 0.064001106 0.0036348887 0.044411346
0000f0 3c a2 5e bd cc 69 87 bc 3a f2 81 3d c5 25 9f bb
       -0.054353938 -0.01652994 0.06345029 -0.0048567974
000100 10 b3 94 bc 83 86 ea bb 2d 95 46 bd fb 55 0f 3d
       -0.01815179 -0.0071571483 -0.04848211 0.034994107
000110 00 5f b2 bc bb f4 b0 bb 56 45 27 3d 3b a5 dd bc
       -0.021773815 -0.005400268 0.04083761 -0.027056327
000120 d9 f8 11 bd fe 62 84 3d 40 af c4 bd 5c 0b 1d be
       -0.03563771 0.06464194 -0.09603739 -0.15336365
000130 b4 67 d5 3b be c9 9c bd b8 85 29 bd d9 34 e8 bd
       0.0065126065 -0.07655667 -0.04138729 -0.11338205
000140 be 2c 3a bd f9 1f b6 3d fb 4e 5c 3e 4a ae 17 3d
       -0.045452826 0.08892817 0.21514504 0.03703145
000150 7f 06 c3 bd 29 32 85 bd 7a 6b 94 bd 99 ed 24 be
       -0.095227234 -0.06503708 -0.07247062 -0.16106261
000160 96 72 54 bd e2 ad b5 3b c5 76 8b bd 6b 6b ee bd
       -0.05186709 0.00554441 -0.06809763 -0.11641582
000170 e5 46 bf 3d 11 04 5a 3d b7 06 57 3d 01 70 ba bc
       0.09339694 0.053226534 0.05249664 -0.022758486
000180 9b ba b0 bd bb 78 0c 3d 4b af ef bd fc 75 b8 3c
       -0.08629342 0.034294825 -0.11703356 0.022517197
000190 c8 16 e4 bc 7d ac b2 bd 57 11 0c 3c 81 af 14 be
       -0.027842894 -0.08724306 0.008549056 -0.14520074
0001a0 69 38 92 bb f0 25 16 3d df 2d f0 3c 6c 12 9d bd
       -0.004462291 0.036657274 0.029318748 -0.07669529
0001b0 35 18 3a 3d d6 16 e1 3b ea 33 e2 bc 65 73 88 bd
       0.045433242 0.0068691773 -0.027612645 -0.06662635
0001c0 00 ca 52 bd 08 a4 94 bd 01 fc 29 3d 7e 3b 61 bd
       -0.051462173 -0.07257849 0.041500095 -0.054988377
0001d0 b4 e3 3d 3d 5f d7 5f 3d 64 e8 70 bc 71 b6 18 3d
       0.046359733 0.054648753 -0.014703844 0.037283365
0001e0 20 9e 9d bd d1 38 ba 3b db ab 96 bc 93 1a 05 be
       -0.076961756 0.0056830426 -0.018392494 -0.12998419
0001f0 bc 7e c0 bd ae 3c ab bc 3d 30 8e bd 46 e4 83 39
       -0.09399173 -0.020902958 -0.069427945 0.00025156344
000200 0f a5 b6 bd 70 f5 5c 3d f7 81 93 bd bd 04 7c 3d
       -0.08918201 0.053945005 -0.07202523 0.061527956
000210 5a e7 cb bd 70 5f 65 3d 3a 7e 34 3f bb 11 11 3d
       -0.09956236 0.05599922 0.70505106 0.0354173
000220 df 75 c1 bd a5 34 fa bd 11 a7 f2 bc fe e4 fe bc
       -0.0944631 -0.122170724 -0.02962068 -0.031115051
000230 d7 2b 31 3d af 24 72 bd f2 b1 0d 3f a9 55 9f 3d
       0.0432547 -0.059117015 0.5534965 0.0778001
000240 16 c9 7c bd ea c9 32 3d ba bc 80 bd 28 a6 11 be
       -0.061715208 0.04364959 -0.06285997 -0.1422354
000250 74 82 56 bd 3f a1 a1 bd 19 69 21 3f b1 cc 22 be
       -0.052370504 -0.078920834 0.6305099 -0.15898396
000260 a0 35 cc bd 21 09 75 bc 3a 21 0c bd d4 a3 0d bd
       -0.09971166 -0.01495579 -0.034211375 -0.034580067
000270 ef e6 4f 3c 02 2f d8 bd 7c 21 f0 bd 80 8b 90 bd
       0.012689336 -0.10555841 -0.11725137 -0.070578575
000280 92 f9 66 bd 0c f1 c9 bd 6c 62 1a bd 5c 65 95 3d
       -0.056390353 -0.09860429 -0.03769152 0.072947234
000290 86 ba 74 3d 5c 87 9a 3d e0 30 53 3b 80 da 30 3b
       0.059748195 0.07545349 0.0032225177 0.0026985705
0002a0 78 df 5d bd eb db 3e bd f1 42 17 be 20 f8 fc 3b
       -0.054168195 -0.04659645 -0.1477163 0.0077200085
0002b0 aa 6c 2a 3d 29 a9 94 bd 5b 38 10 3f a2 bb 13 3f
       0.041607536 -0.07258827 0.5633599 0.5770818
0002c0 0f da ef bd 51 dc 66 bd 94 3a 8e bd e9 ec af bd
       -0.11711513 -0.056362454 -0.06944767 -0.08590109
0002d0 1f 67 ee bc e6 47 cc bd 4d 43 d7 bc 3f 76 00 3d
       -0.029101906 -0.09974651 -0.026277209 0.03136277
0002e0 10 02 0f be 35 b3 9b bd c7 24 cb bc 53 4d 23 3c
       -0.1396563 -0.076025404 -0.02479781 0.009967166
0002f0 a5 b7 8b bd 3f 67 e7 bd d8 7e 71 bb 18 9b 36 bd
       -0.06822137 -0.112989895 -0.0036849286 -0.044581503
000300 05 f6 1e bc 15 4e 46 bd 1c e1 14 3f de 4d 23 3c
       -0.00970221 -0.04841431 0.5815599 0.009967295
000310 c4 3d 39 bd 03 b9 42 be d8 87 47 bd 1a 7a db bd
       -0.04522492 -0.19015889 -0.048713535 -0.107166484
000320 d9 c2 f6 3c 7b 41 7f bd 1e 31 60 bb 3e 6d 71 3d
       0.030122207 -0.062318306 -0.0034208964 0.058942072
000330 6e 56 aa 3c be f3 8d bd 43 df 67 3c 74 a6 86 bd
       0.020793166 -0.06931256 0.014152351 -0.06574717
000340 74 d7 46 bc 89 26 8d bd 71 d4 3d bc 73 d2 c2 3c
       -0.012136329 -0.068921156 -0.0115862945 0.02378199
000350 07 d8 72 3d 73 0a 9e bb b6 08 45 3d 2b 71 4f 3c
       0.05928805 -0.004823023 0.04810401 0.012661259
000360 e3 e6 52 be 4b 20 15 be 3e 53 a0 bd 9d 29 2e bd
       -0.20595889 -0.145631 -0.07828377 -0.042520154
000370 3d 47 68 3d e2 8f 8a 3d da 9d 6b bd 48 8d 01 bd
       0.056708563 0.06765725 -0.057523586 -0.031628877
000380 fc 4e ca 3b c0 6b 01 bd b9 e6 cf 3a 87 1c 24 bd
       0.0061739665 -0.0315969 0.0015861607 -0.04006627
000390 d7 99 99 bd de dc 88 bd dd 42 9e bd cd 5a 6c bd
       -0.07500046 -0.06682752 -0.07727597 -0.057703782
0003a0 7c b8 b0 bd f8 55 af bd 3c a0 3c bd 22 cb 74 3e
       -0.086289376 -0.08561319 -0.04605125 0.23905614
0003b0 3a 0b 7c bd b0 cb 56 3c 03 7e 8f bd 77 3d 06 be
       -0.061534144 0.013110086 -0.07006457 -0.13109384
0003c0 da 16 87 3d f5 1f 3c bd 81 f8 9f bd 6a e8 f5 bd
       0.065961555 -0.045928914 -0.0781107 -0.1200722
0003d0 d1 8d 9a bd 92 00 ad bc 9e 0e ab bd a2 0f a2 bd
       -0.075465806 -0.021118436 -0.083523974 -0.07913138
0003e0 8a 38 45 3c b3 fc a2 bd 2c c1 0a 3d fd 17 eb bd
       0.012037406 -0.07958355 0.03387563 -0.11479185
0003f0 1c d8 37 bd 7e 85 8c 3d 28 7a a8 bd 8d 8e 04 be
       -0.044883832 0.06861399 -0.082264245 -0.12945004

network.3.bias f4 [64]
000000 a8 44 82 bd fc 8e 40 be 70 fb 01 bd a0 3b 91 be
       -0.063607514 -0.18804544 -0.03173393 -0.28365803
000010 29 b9 13 be 60 9a 2a be 55 cf 81 bd 64 11 2f be
       -0.14426102 -0.16660452 -0.063383736 -0.17096478
000020 f8 02 2a be f7 a9 08 be 5a d3 7b be 3d 98 0f be
       -0.16602695 -0.13346086 -0.24592343 -0.14022918
000030 89 07 21 bd bf 34 01 bd 1a 20 88 be 8c a2 6c bd
       -0.039313827 -0.031544443 -0.26586992 -0.057772204
000040 34 66 57 be 02 5e 5a be dc 77 51 bd 07 ae 89 bd
       -0.21035081 -0.21324924 -0.051139697 -0.06722646
000050 c1 5b 6d be 0d 62 a5 bc 1b 2a e1 bc cb 72 2f be
       -0.23179533 -0.020188356 -0.027485898 -0.17133634
000060 45 46 a2 be b4 0d 97 be 04 0e c7 be 38 ad 8a bd
       -0.31694236 -0.29502642 -0.3887788 -0.0677132
000070 40 51 d3 bd ef 81 0a be 4d d2 ae bd 78 41 81 bd
       -0.103182316 -0.13526128 -0.085362054 -0.06311315
000080 44 96 e2 bd 6d ed 1f be 05 4c 69 be c7 c2 87 bd
       -0.11063817 -0.15617914 -0.22782905 -0.06628948
000090 e9 5f 09 be a2 a0 48 be f4 2f 02 be 5f 08 24 bd
       -0.13415493 -0.19592527 -0.12713605 -0.040047046
0000a0 4e 48 cb bd d0 d4 8f be ab 59 d5 bd 57 cd 8e bd
       -0.099259004 -0.2809205 -0.104174934 -0.06972759
0000b0 e8 03 89 bd 82 7e 86 be 2a 04 97 be 5f d7 5d be
       -0.06690198 -0.26268393 -0.29495364 -0.21664189
0000c0 cf ac 7b bd 9c 63 10 be 0b 7e 99 bc 29 0a b9 bc
       -0.0614441 -0.14100498 -0.01873686 -0.022587853
0000d0 22 7c 0c be 1f bd 4e bd e4 a5 da bd 20 44 5d bd
       -0.13719228 -0.05047333 -0.106761724 -0.054020047
0000e0 46 ae 03 be b3 a0 72 bd fa cb 39 be fd 3a f0 bd
       -0.12859449 -0.059235286 -0.18144217 -0.11730001
0000f0 32 4f 9e bd 3f 54 ab bb fe 23 bb bd 9a c8 4c bd
       -0.07729949 -0.005228549 -0.09137724 -0.049995996

network.6.weight f4 [2, 64]
000000 47 df b1 bd a7 a2 17 3f 61 d0 06 bc b6 ab b9 bd
       -0.08685165 0.5923256 -0.008228392 -0.090659544
000010 6d 74 55 3d ff 75 50 3d 72 7e 12 3e 70 6b 31 3f
       0.052112985 0.05089378 0.14306048 0.6930456
000020 86 44 8b bd 51 04 88 3c 14 84 a6 3c 25 58 7f bd
       -0.06800179 0.01660362 0.020326652 -0.06233992
000030 74 4d 2b 3e 36 06 33 3c 6f 4c a3 3d b3 80 9f 3d
       0.16728765 0.010926774 0.07973563 0.07788219
000040 cd 0a bc bc f2 22 fe 3e d0 fc 2e 3e 11 64 60 3d
       -0.022954369 0.49636036 0.17088628 0.05478293
000050 a9 e5 a2 3e 62 a9 02 3d 4d 86 ea bb 63 cb de 3d
       0.31815842 0.031899817 -0.007157123 0.10878637
000060 2e d9 4e 3d 9c 63 da 3d f8 56 8d 3d 40 8d 8d 3d
       0.050500087 0.1066353 0.069013536 0.06911707
000070 4e b9 11 3e 99 3b 3d bc 4a 6b fe 3d 61 ea b8 3c
       0.14230844 -0.011549854 0.124228075 0.022572698
000080 c4 e9 f6 3e 52 f8 98 3d 2e 17 67 3e 0f 77 cd 3c
       0.48225224 0.07469238 0.22567436 0.025081186
000090 93 8c b0 bd 96 d3 ec bd c3 aa 92 3e 92 3b 6f bd
       -0.086205624 -0.11563794 0.28645906 -0.05840642
0000a0 b9 41 af bc 84 67 12 3f b4 5a 2f 3a da 6f 6a 3e
       -0.021393644 0.571892 0.0006689236 0.2289423
0000b0 2f 5b ae bc f4 53 f5 3e 90 51 a3 3e a2 42 0e be
       -0.021283714 0.47915614 0.31898165 -0.13892606
0000c0 9d dd c7 ba c4 75 1b 3e 6a 1a 25 3c 21 9a a1 bd
       -0.0015248541 0.15181643 0.010077098 -0.07890726
0000d0 6c a8 38 3f f7 c9 6b bd a2 ed 26 3e dc f9 9b 3e
       0.7213199 -0.057565656 0.16301587 0.30464065
0000e0 ac 3e 8c 3d 3b b4 bf 3d 5b 75 02 3f c8 b4 db bd
       0.06847891 0.09360548 0.5096032 -0.10727841
0000f0 e7 58 f3 bc 8d 67 e9 3c 90 ee 1b bd 6a a5 98 bd
       -0.029705478 0.02849176 -0.038069308 -0.07453425
000100 81 47 96 bd 0f c6 13 bf d4 a3 a5 bc 7c 6f af bd
       -0.07337857 -0.5772409 -0.02021972 -0.08566186
000110 cc 81 db 3d ec 46 59 3d 1a aa 25 bd 70 c3 24 bf
       0.10718116 0.053046152 -0.040445425 -0.64360714
000120 70 55 15 bd 72 c8 08 3d ec 4b ff bc 5a 22 10 bb
       -0.036458433 0.033394285 -0.031164132 -0.0021993131
000130 71 3f 00 be 2f 6e 9c 3c e8 3d 4f 3d 60 94 90 bd
       -0.12524201 0.019095508 0.050596148 -0.0705955
000140 e1 4d 40 3d fb dd 14 bf 34 09 72 bd 0b 59 5e 3d
       0.04694927 -0.58151215 -0.059090808 0.054284137
000150 90 87 22 be c7 62 12 be 6f e3 86 bc e1 8d 32 3d
       -0.15872025 -0.14295493 -0.01646587 0.043592338
000160 2f db 24 bc 85 e6 17 bd c7 38 22 be f0 4a df bd
       -0.010062023 -0.037085075 -0.15841971 -0.10902965
000170 3c 5a 73 bc df 61 7e bd 10 a8 16 be 63 cc b3 3c
       -0.0148530565 -0.062105056 -0.14712548 0.021948045
000180 61 98 0c bf ca 08 80 bb 88 31 5a be 43 9b 33 bd
       -0.5492001 -0.0039072977 -0.21307957 -0.04384924
000190 50 6a b7 bd 65 b4 07 bc 2a 35 52 be 87 d7 fd bd
       -0.089558244 -0.0082827555 -0.20528093 -0.12394624
0001a0 1a 74 1b bd f5 44 ea be f3 ce 8d ba a5 5a 39 be
       -0.03795252 -0.45755735 -0.0010819122 -0.18100984
0001b0 c5 ef 61 3c 2d a3 b8 be d6 1f df be 6f af cd 3d
       0.013790076 -0.36061993 -0.43578976 0.10043227
0001c0 36 ae d2 bd 49 30 a0 3b 5b 16 2d be eb 8f 90 bd
       -0.10287134 0.0048885685 -0.16903059 -0.070587
0001d0 c9 4b 2b bf 02 36 f6 bb c1 f2 44 be 16 0e 69 be
       -0.66912514 -0.0075137625 -0.19233228 -0.2275928
0001e0 79 72 82 3c c8 38 6a 3d 99 04 ed be 5a af 5f bd
       0.015923725 0.057183057 -0.4629257 -0.054610588
0001f0 48 ff 18 bd 25 3a 13 be a1 1c c8 bc ff c0 3e bd
       -0.03735283 -0.14377649 -0.024427714 -0.046570774

network.6.bias f4 [2]
000000 45 dc b2 be d0 ab e1 3e
       -0.34933677 0.44076395
