pth/emotion_model.pth (torch, 67351 bytes, 6 tensors)

network.0.weight f4 [128, 58]
00000000: 7443 c5bd e4b7 003e 2233 533d e0a2 f1bb
00000010: 8eab 4fbc 6e4e da3d 006c f039 135e fa3d
00000020: f467 163d 5201 c4bd dc20 8f3c c5e5 a33a
00000030: e439 303d c9c6 bd3c e111 debd feed c0bd
00000040: 718b ac3d eb5f 1c3d 5d51 b13b 2137 5bbc
00000050: 1407 953d f916 153d 114d d0bd e4eb c83d
00000060: 5293 bebd a683 c1bd 61da 94bd 3967 03bc
00000070: 48b1 bd3d b743 183d 2c1f 74bd ea82 c43d
00000080: bb66 0c3e 3ce0 213d f81e bb3d 4ea2 b33d
00000090: ead1 09be 7e86 dc3d ae6a d43d 16e7 e93d
000000a0: 3747 c13d 5c76 113d 6790 ffbd 5941 fcbd
000000b0: 0139 9b3c 3425 ed3d fcf5 00bd 3bf9 90bd
000000c0: 0819 98bd deef 613d ed33 33bd a4a1 aebc
000000d0: 4ed5 c1bd 91cf b9bb 57e0 d9bd 50d7 c4bd
000000e0: 7ebb fd3d b818 133e 9e10 61be d914 eabd
000000f0: 3e91 47be 003a 6e3d 8d35 3d3b a1e1 13be
00000100: 48e1 53bd 6e29 5a3d 2a6b e2bd 4ef7 31be
00000110: d1af 22be 4d8c fc3c af1f 65bd 901e 32be
00000120: ba2b 58be 34b0 4fbd 783e 74be 06c2 34be
00000130: d446 a33d 9c8f 1cbe 5adb c8bd c425 d63b
00000140: e37f 73be 778c 463b 9b5b e93c 200e 9fbd
00000150: 27ec 54bd 8eaf 88bc 81b5 6ebe f6cc 5cbd
00000160: 3227 a53d 8948 213e 8fe1 983d e9e1 443d
00000170: 5a60 2bbe 36e9 e6bc 8e7a 923d 7ef9 0dbd
00000180: ae05 21bd 42d1 07bd 8d79 333d bb0e d0bd
00000190: c852 b93d f59a debd dd8b 91bc 6d90 44be
000001a0: 9484 a53d 3fdf 4a3d 6ea8 43bd 5df0 16be
000001b0: 0826 3c3c 880e 3fbe e98e eb3c 40d7 1bbe
000001c0: bab5 57be ec0c 03be b54c 113c cade 933c
000001d0: d17a 4abd 7a43 123e 81ca 92bd 6ec3 db3d
000001e0: 06aa ec3d ed94 e9bc 00d2 033e 4f81 073e
000001f0: ecf9 4f3d aa0e d43c dcbc 8abc cf1a 1bbe
00000200: 12cf a53d 763c af3b 2ad8 05be 72f2 0bbd
00000210: 1e22 cabd de29 2abe 9e1d 33bd e427 053d
00000220: 3f4c 3d3c b65f 91bc ba00 afbd 02bf a43d
00000230: 6566 f53c 97ae 89bc c95a e9bd 496a bdbd
00000240: fc36 fdbc 2f27 cdb9 7ae1 bfbd 9325 40bd
00000250: 8dff a8bc e046 c8bd 32c1 a1bc 3479 273d
00000260: 92b3 9cbd 6a84 953c 9961 9e3d 88ca 7bbd
00000270: 218c c33d deda aa3c 8b7c 9a3c fdf6 8ebd
00000280: 0e5a 46bd 9420 06be 501b e83d a33c 9d3d
00000290: 98b3 0d3c 6b63 7f3d 9e0f 03bd 1c1b e6bd
000002a0: ffea e8bd fbeb 1a3d 02f8 343d 5661 103d
000002b0: 0ef3 23bd adff e8bd d104 97bd 2087 73bd
000002c0: 61d4 5ebc f067 273c d9f7 51bd fe32 17be
000002d0: ee76 07bd e95d 68bc b592 c1bd f211 313d
000002e0: f7cb 7fbd 604b a7bd cb2e bd3c fb0d 78bc
000002f0: 6280 02be dc72 73bd d331 8fbd 7486 ed3d
00000300: c2f9 033d 5bb0 debb 9945 f83c 2072 853d
00000310: 767c bbbb efdc 103e fe3d f93c bc1b 4ebc
00000320: ea3b 483d 4f71 a4bd d0cd adbd 8e10 2b3e
00000330: b326 d0bd 9185 1b3d 59b7 993d ebef 91bd
00000340: f4ce f23c 7ec3 2fbd 51f5 e73c 2407 353d
00000350: 2a7c c33c 42b9 df3d a6e1 81bd b079 893b
00000360: 8368 17bd 3ff3 ad3d eb04 aabd 0535 53bd
00000370: ab65 8bbc 086b acbd 2548 3f3e 3624 173e
00000380: 3cdf f9bc 94b8 313e 91be 5abd a815 f03d
00000390: 79d3 16bc 7975 0a3e 1271 bc3d 402a 2c3e
000003a0: db5c a53d 8d54 65bd 10ef c73d 187b ab3c
000003b0: 938d fe3d a936 3c3d 2cbc 9fbc 2f1e 58bc
000003c0: 74a0 c23d ff0d b3bd 4ead e43d 16db 993d
000003d0: a415 0dbe 7f1f cabd 1ab9 553d 1d75 213d
000003e0: e996 c63d c35c 03bc e656 aebc b10d cbbd
000003f0: ae5a 03be 1c69 003c 7f52 0ebc 4976 8bbd
-0.09632006 0.12570149 0.051562436 -0.0073741525 -0.012675179 0.106594905 0.00045856833 0.122249745
0.03672023 -0.09570564 0.017471723 0.001250439 0.04302396 0.023166077 -0.10843254 -0.094203934
0.08425034 0.038177412 0.0054113106 -0.013379843 0.07276741 0.03639886 -0.10170949 0.098106176
-0.09305443 -0.09448938 -0.07268215 -0.008020216 0.09262329 0.037173953 -0.05960004 0.095952824
0.13711064 0.039520487 0.09136766 0.087711915 -0.13458982 0.1076784 0.1037191 0.11421029
0.09437411 0.035513267 -0.124787144 -0.123171516 0.01894808 0.115793616 -0.03148459 -0.07078787
-0.07426649 0.055160396 -0.043750692 -0.02131731 -0.09464513 -0.005670496 -0.106384926 -0.0961138
0.12389277 0.14364898 -0.21978995 -0.114297576 -0.19488999 0.05816078 0.002887103 -0.1444154
-0.051728517 0.053262167 -0.11055596 -0.17379496 -0.15887381 0.03082862 -0.05593842 -0.17394471
-0.2111043 -0.05070515 -0.23851955 -0.17652139 0.07972494 -0.15289158 -0.09807463 0.0065352637
-0.23779254 0.0030296126 0.028486064 -0.07766366 -0.051983025 -0.016685273 -0.23311426 -0.053906403
0.080641165 0.15750326 0.07464897 0.048067007 -0.16735974 -0.028187376 0.07152282 -0.034661762
-0.039312057 -0.03315855 0.04381709 -0.101590596 0.090489924 -0.108693995 -0.017766887 -0.19195719
0.08081928 0.04952931 -0.04776805 -0.14740129 0.011483677 -0.18657887 0.028754668 -0.1521883
-0.21065417 -0.12797898 0.008868386 0.01805057 -0.049433533 0.14283553 -0.07167531 0.10730635
0.11555867 -0.028513396 0.12873077 0.13232921 0.050775453 0.025885899 -0.016935758 -0.15146945
0.08096136 0.0053477837 -0.13070741 -0.03416676 -0.098697886 -0.16617534 -0.043729417 0.032508746
0.011553823 -0.017745834 -0.085450605 0.08044244 0.029956052 -0.016806884 -0.11394269 -0.09248788
-0.030910008 -0.0003912984 -0.09369178 -0.046910834 -0.020629669 -0.09779143 -0.019745443 0.040887073
-0.07651438 0.018251617 0.07733459 -0.061472446 0.09548212 0.020856317 0.018858215 -0.06980703
-0.048425727 -0.13098365 0.113333344 0.07677581 0.0086487755 0.06235067 -0.031997316 -0.112356395
-0.11372947 0.037822705 0.04418183 0.035249077 -0.040026717 -0.11376891 -0.073739655 -0.059455037
-0.01360044 0.010217652 -0.051261757 -0.14765546 -0.033072405 -0.014182546 -0.0945181 0.043230005
-0.062450375 -0.081686735 0.023093602 -0.015140052 -0.12744287 -0.05943571 -0.06991925 0.115979105
0.03222061 -0.0067959256 0.030306624 0.06515908 -0.005721624 0.1414678 0.030425068 -0.012579855
0.048885264 -0.080294244 -0.08486521 0.16705534 -0.10163631 0.037969176 0.07505674 -0.07125839
0.029639699 -0.042911045 0.028315218 0.044196263 0.023862917 0.10924007 -0.06341867 0.0041954145
-0.036964905 0.08493661 -0.08301719 -0.051564235 -0.017016253 -0.08418852 0.18679865 0.14759907
-0.030501954 0.17355567 -0.053404395 0.117228806 -0.009205692 0.13521375 0.09201254 0.16812992
0.080743514 -0.055988837 0.097623944 0.02093272 0.12429347 0.045950565 -0.019498907 -0.01319079
0.0950326 -0.08742904 0.11165868 0.075124905 -0.13777786 -0.09869289 0.05217848 0.03941833
0.096967526 -0.008017722 -0.02128167 -0.09914721 -0.1282756 0.00783756 -0.008686661 -0.068096705

network.0.bias f4 [128]
00000000: 9c58 353d bfb6 75be a52b 94bc 54fd 3b3e
00000010: 0d68 e9bc 34ce f5bb 7d04 823c 96f3 18bc
00000020: b1fa 293d a78f 9ebd bce6 363e 38e3 1f3d
00000030: fb95 913d ac3e 8ebd 0581 9abd dddc 233d
00000040: 2167 48bd 4df6 26bc 86ac 8fbd 4cb7 9abd
00000050: d5fc 513e dd69 cc3d 00d1 cbbd 03bd 3abe
00000060: 8cad 663e c23b 643d 3d1d 51bc 36f7 7f3d
00000070: 03c3 f0bd 2fb4 9c3c 0291 913e 514b b6bd
00000080: 796c 293e ecb8 a0bd ec0b 0cbd 907d c23c
00000090: 699b 3f3e 85bc 993d 77c4 a73d 421f 1dbe
000000a0: c509 85bd 8631 fc3d 4444 4a3d d021 4bbd
000000b0: 34ce 733e 60f2 1fbd a813 f93d ff01 2cbd
000000c0: cc8a e23d 9bc1 19bd 82ea 6abe eb95 9b3d
000000d0: 9486 8dbd 3987 08bd 22c2 223e bfdc 943d
000000e0: 7429 5a3c d9c4 c03d 44b8 e43d b3be 99bb
000000f0: a78d 8d3d fe52 843d 46b0 873e 2353 273e
00000100: feb5 e93d 58ce 51bd e1ef 35be d6e7 c13d
00000110: 70ad 94bd 45db be3c 4088 843d e320 b63c
00000120: aae7 18bc 7287 56be 9a6f c6bd 36d0 79bc
00000130: 044c 0ebe fa45 39bc 2254 10be 44eb 02be
00000140: e958 4a3d 00e4 573d 4a63 c93d f7a6 1a3e
00000150: a74c 3dbd 84f7 cd3e 8334 ffbd 4c93 17be
00000160: 86b9 d6bd 52f8 3ebd cfd0 5c3e 0a38 d8bd
00000170: abe7 4cbe 1cd5 0bbe 2cea 3d3c ac57 373d
00000180: 06cb 3b3a 64a4 b93d f200 42bd 069f 773d
00000190: f273 203e 95c7 03be 8827 5dbc c01d ef3e
000001a0: 05df 08be ab4c 7bbd 15c4 4a3e 5e32 f53c
000001b0: 1914 dc3d 1cf0 e9bc a3f9 bcbd f1bf 563d
000001c0: 8bfd 983b 5690 5c3e 9c09 0e3e adf2 18bd
000001d0: e328 65bd 2f10 bbbd a6fb f53d 5cbc 8a3e
000001e0: b70d 3bbd 9a5e c63e b87a 953d 0b6b b03c
000001f0: 8deb 883d cb2f 4a3e ebc8 d93b b419 cabc
0.044273958 -0.23995493 -0.018087218 0.18358356 -0.028491998 -0.007501388 0.01587128 -0.009335419
0.041498844 -0.07742243 0.17861456 0.039035052 0.07108685 -0.069455475 -0.0754414 0.040005554
-0.048926476 -0.010190559 -0.07015328 -0.07554492 0.20506604 0.09981129 -0.09951973 -0.18236165
0.2252714 0.055721052 -0.012763319 0.062491618 -0.117559455 0.019128887 0.28430945 -0.08901084
0.16545285 -0.07847771 -0.034191057 0.023741513 0.18711628 0.0750666 0.081917696 -0.15343955
-0.06496004 0.12314133 0.04938151 -0.049592793 0.23809129 -0.039049506 0.12161952 -0.04199409
0.1106163 -0.037538152 -0.2294102 0.07596954 -0.06910434 -0.033332083 0.15894368 0.072686665
0.013315547 0.09412546 0.111679584 -0.0046919226 0.06911784 0.06461142 0.26501673 0.16340308
0.114116654 -0.051222175 -0.17767288 0.09468047 -0.07259643 0.023297915 0.064713 0.022232478
-0.009332577 -0.20950106 -0.09689255 -0.015247395 -0.13896185 -0.011308188 -0.14094594 -0.12785059
0.049401198 0.052707672 0.09833391 0.15102755 -0.04621568 0.40227902 -0.12461188 -0.14802283
-0.104846045 -0.046623535 0.21564029 -0.105575636 -0.2001025 -0.13655514 0.011591475 0.044761345
0.0007163737 0.09064558 -0.047364183 0.06045439 0.1566923 -0.12869103 -0.0134981945 0.46702385
-0.13366325 -0.061352413 0.19801362 0.029931244 0.10746021 -0.028556876 -0.09227302 0.052429143
0.0046688966 0.21539435 0.13870853 -0.03734081 -0.055947196 -0.09133946 0.12010889 0.27096832
-0.045667376 0.3874405 0.07298797 0.021535417 0.06685553 0.19744794 0.0066462657 -0.02467046

network.3.weight f4 [64, 128]
00000000: d4ce 633d 7ad0 81bd 4a36 2c3d 0cf9 b0bd
00000010: d478 a3bd 25d0 7c3d 1904 893d f62e 9ebd
00000020: 38b6 54bd de6d 90bd 4daf e0bd c40b 93bc
00000030: 3de1 51bd c023 113d 47b6 c9bc f77b 87bd
00000040: efe7 88bd b3ae b9bc bc7e a6bd 1d10 9fbd
00000050: 6626 5dbd e243 f3bc b9ff 393c da99 24bd
00000060: fde6 21bd c3be bf3b ccb9 bcbd 1e64 c6bd
00000070: 5e2e 063b ba2a b6bd cca8 1fbd 440b 343d
00000080: e85f 87bd b810 203d d5da 2bbd 92c0 45bd
00000090: 2bc0 7fbc ba85 1f3d f9e7 9dbd ef60 763d
000000a0: 0b28 8abc 136f 003d d868 6e3c 2910 a2bd
000000b0: fe01 c4bd 8141 e23b 43ea 5fbd f4ed 35bd
000000c0: 50f3 bdbb a12c a83d a9b4 243d f44e 9cbd
000000d0: 8c3e 8d3d ef59 fb3c e263 383d 67fc 143a
000000e0: da7d d1bd 3213 91bb 932b acbd 1b44 5ebd
000000f0: eb51 383d 88df 2ebc 0597 0c3d 3de9 c3bd
00000100: 39d4 3e3c cec6 263d 47db 8a3d 1255 aebb
00000110: 4a02 0bbd 7577 d9ba 2c73 e3bc 6070 8bbd
00000120: caa1 8cbd a17d 0a3d 2de9 acbc eeb5 58bd
00000130: 30e2 343d 5b7c ccbd cd0b e8bc b22b 583d
00000140: 1d91 863d 99d7 c6bb 4854 cebc e0bd 1dbd
00000150: e7c8 cbbd 442b e6bc ac5f c8bd a388 c2bd
00000160: ec7f 82bd 0a41 ec3b 831e abbc dbde ad3c
00000170: d53e 54bd e1c1 183d 868a 92bd 2908 3d3d
00000180: 98de 3d3d 5310 22bc fb51 1a3a 86cf e9bc
00000190: 3639 0c3c d511 153d 7e7c e5bc 1fa3 62bd
000001a0: d064 b23c d661 bbbd 2eb9 3f3d 6e43 dbbd
000001b0: 2202 cdbd 3e15 183d 25dd b0bd 1e38 fd3c
000001c0: eb59 d8bc ce4f 14bd 25c3 0e3d 1fbb 14bd
000001d0: 8074 973c d8c1 5abc 170b b3bd 2230 93bd
000001e0: 6996 b3bc 0f83 413b c368 5bbd fd3e 4ebd
000001f0: 2cc4 cebd 7b5c f8bd afd0 bbbc c748 a13d
00000200: 258e fdbb f678 843d 8d5c 08bd 9d1a b13c
00000210: f8c6 c6bd caca 13bd f2f5 32bc 85a9 413d
00000220: d6fe 0c3d fe38 033d 10b1 77bd d685 42bd
00000230: 89c6 c5bd c292 453d f0b1 fabc 9794 5fbd
00000240: 8ad7 3dbc a84e c5bd 1477 1bbd a742 31bd
00000250: 0ef3 b4bd 7a8f ab3d ee1f 733c dc8d 51bd
00000260: 98c6 febc b084 8bbd 0157 aa3d 7a55 0f3d
00000270: d0a7 633d f069 c7bd 2c5a 863d fbf1 2dbc
00000280: 81f9 22bd 3aa2 91bd 76ce 27bc 8030 b13a
00000290: 2322 eb3c f7dc 2ebd d838 2c3c 9db4 5f3d
000002a0: 1673 5e3d 5b7e 38bd ab15 783d 1467 93bc
000002b0: 554d 923b 26b0 3a3d ae78 56bd 212c 103c
000002c0: 38f4 a4bc 5aec 90bd 98c8 723d 7c19 5bbc
000002d0: f4c6 ff3c 9321 073d ba5b afbc da09 aa3c
000002e0: 3336 fdbc 5009 1abd 926d 2abd 43f3 843d
000002f0: 4dfd 09bc 7777 92bd ba67 88bd c2d7 a5bd
00000300: 97a8 83bd 735e 773d 59d0 01bd 7de8 06bc
00000310: f4fb bcbb 6c8c 75bd 8058 8bbd 2add b2bd
00000320: 9aef 40bd a6d0 1a3d 313f a7bd 8432 06bd
00000330: 7e81 183d 7568 9e3d 4b10 563d b813 8abb
00000340: 7806 253d 1cb5 c8bc 7ad7 263d 874d 9dbd
00000350: e8e9 3d3c f41f 3ebd 05b8 f2bc f990 b03c
00000360: a290 a2bd bb6c f0bb 0cc3 dcbd 356f 88bd
00000370: 14c3 033d 02d7 0d3d d0ce 0b3d 697f aebd
00000380: a13c 0c3c af2f aabd b2f2 c6bd 4ebf 9fbd
00000390: 486e 1cbd 8599 5bbd c48d debc d9cb c7bd
000003a0: c9d3 91bd 73e0 04bd 6614 fdbc 2d91 75bd
000003b0: 507b b8bd 897d 9c3d a9a9 a2bd b7fb a6bc
000003c0: b609 8ebd f9bc 92bd 4cca e2bc 46d9 79bc
000003d0: 47ec 0f3d f77e a4bd 6cb2 7f3b 639c 45bd
000003e0: 318f bcbd 905a 0cbd a65a 9bbd c601 5dbd
000003f0: b50f 0bbd 1d89 c8bd e807 b7bd 093d 9dbd
0.05561717 -0.06338592 0.04204396 -0.08641252 -0.079820305 0.06172194 0.06690235 -0.07723801
-0.05193159 -0.070522055 -0.10970936 -0.017949946 -0.051240195 0.035434484 -0.02462305 -0.06615441
-0.06684863 -0.02266631 -0.081296414 -0.07766745 -0.053991698 -0.029695455 0.011352473 -0.040185787
-0.03952693 0.005851598 -0.092151254 -0.096870646 0.0020474414 -0.08894868 -0.038979337 0.043956056
-0.066100895 0.039078444 -0.04195674 -0.048279352 -0.015609781 0.03894589 -0.07710261 0.060151037
-0.016864797 0.03135593 0.014551364 -0.079132386 -0.095706925 0.0069047813 -0.05466677 -0.044416383
-0.0057968274 0.08211637 0.040211353 -0.076322466 0.068966955 0.030682532 0.04501713 0.0005683363
-0.102290824 -0.004427337 -0.084067486 -0.05426417 0.044999998 -0.010673411 0.03432371 -0.09565971
0.0116472775 0.04071694 0.06780105 -0.0053201998 -0.03393773 -0.0016591387 -0.02776488 -0.06808543
-0.06866796 0.033811215 -0.02110728 -0.052907877 0.04416102 -0.099846564 -0.02832594 0.052776046
0.06570647 -0.0060681817 -0.025186673 -0.038511157 -0.099504285 -0.028096803 -0.09783873 -0.09498718
-0.063720554 0.0072099017 -0.020888573 0.02122443 -0.051817734 0.037294272 -0.071553275 0.04615036
0.04635486 -0.009891587 0.000588685 -0.028541338 0.008558562 0.03639396 -0.028013464 -0.055331346
0.021776587 -0.0914952 0.04680746 -0.107062206 -0.100101724 0.037129633 -0.0863593 0.030910548
-0.026410064 -0.03620892 0.034854073 -0.036311265 0.018488169 -0.01335188 -0.087423496 -0.07186915
-0.021922307 0.002952758 -0.053566705 -0.05035304 -0.100960106 -0.12127014 -0.022926657 0.07875209
-0.007737892 0.06468384 -0.03329139 0.021619136 -0.09705919 -0.036082067 -0.010922896 0.047280807
0.034422718 0.032036774 -0.060471594 -0.047490917 -0.09657008 0.048235662 -0.030602425 -0.054585066
-0.011587033 -0.09634143 -0.03795536 -0.043276455 -0.088354215 0.08376975 0.014839156 -0.05116068
-0.031100556 -0.068124175 0.08317376 0.034993626 0.05557996 -0.09737003 0.06560168 -0.010616775
-0.039788727 -0.071110204 -0.010242095 0.0013518482 0.028702801 -0.042691197 0.0105115995 0.054615606
0.054308973 -0.045042377 0.06056754 -0.017993487 0.004464785 0.045578144 -0.052361183 0.008799584
-0.020135984 -0.070763305 0.059273332 -0.013372775 0.031222798 0.032991003 -0.021406043 0.02075665
-0.030909633 -0.037606537 -0.0416084 0.06491711 -0.008422208 -0.07151692 -0.06660409 -0.08097793
-0.0642864 0.06039281 -0.031692836 -0.00823414 -0.00576734 -0.05994837 -0.068039894 -0.0873359
-0.0471035 0.03779664 -0.0816635 -0.03276302 0.03723287 0.07734767 0.052261632 -0.0042137764
0.040289372 -0.024500422 0.04073284 -0.07680803 0.011591412 -0.04641719 -0.029628763 0.021553503
-0.07937743 -0.0073371804 -0.1077939 -0.06661836 0.032168463 0.034628876 0.03413278 -0.08520395
0.008559377 -0.08309876 -0.09714259 -0.0780016 -0.03819111 -0.053613205 -0.027167208 -0.09755678
-0.07120473 -0.032440614 -0.030893516 -0.059952904 -0.09007895 0.076411314 -0.07942516 -0.020383699
-0.06935446 -0.0716495 -0.027684353 -0.015249556 0.03513744 -0.08032029 0.003901626 -0.048244845
-0.09206999 -0.034266055 -0.07585649 -0.05395677 -0.033950526 -0.09791777 -0.08937055 -0.07677657

network.3.bias f4 [64]
00000000: 8643 fe3c 2c4e ebbd 0b39 48bd 106f b13a
00000010: 52f9 4d3c 6740 9bbd 918d d6bd ee29 19be
00000020: bcdd 25be e484 13bd 0d75 0cbd 0e7e 1c3c
00000030: 5090 c7bd 3242 a9bd 484a 4bbd 3099 543c
00000040: 250b f6bd b854 a1bc 65c8 883b c411 00be
00000050: d787 19be d6b4 1cbd 640a c7bc f4e1 f4bd
00000060: 9f4b d5bc afde 56bd b4f3 e8bd c5fb 09be
00000070: 3286 2fbc 7893 50bc aaf1 99bd 5b6a 64bd
00000080: b397 06be a379 fbbd c1cf 29be a7d1 873c
00000090: 357e d1bb c62b 90bc c52d 49bd fa71 993c
000000a0: 4957 bcbc 3877 4fbc bcd1 1bbe f38d 85bd
000000b0: fdaa 01be 7c6d 2dbe 6d1b e1bd f9b1 dbbd
000000c0: 15ca 64bd df4b 3fbe d50b 11bd 624c 14be
000000d0: 276d eabc 46d5 02be 3b44 afbd ed41 ffbd
000000e0: eee9 11be 8173 74bd a3da 20be fb54 c4bd
000000f0: c0ca 31be 92e0 eebd d439 0dbe 9ff0 6fbd
0.031038057 -0.114895195 -0.048882525 0.0013537128 0.01257165 -0.07580643 -0.104762204 -0.14957401
-0.16197866 -0.036015406 -0.034291316 0.009551538 -0.09744322 -0.08264579 -0.049631387 0.012975976
-0.120138444 -0.019693717 0.0041742795 -0.12506777 -0.14993225 -0.038258396 -0.024296947 -0.1195716
-0.026037036 -0.05245846 -0.11374608 -0.13474949 -0.010713147 -0.012730472 -0.07516797 -0.05576549
-0.13143806 -0.1227906 -0.16583158 0.016579462 -0.006393219 -0.017598998 -0.049115915 0.018731106
-0.02299084 -0.012662701 -0.15216726 -0.06521215 -0.12662883 -0.16936296 -0.10991559 -0.10727305
-0.055856783 -0.18681286 -0.035411675 -0.14482263 -0.028616501 -0.1277667 -0.08557936 -0.12463746
-0.14249393 -0.059680466 -0.15708403 -0.09586521 -0.17362499 -0.11663927 -0.13791591 -0.058579084

network.6.weight f4 [8, 64]
00000000: 47ee 233d 0242 5f3d 387b c6bd 480e 2f3d
00000010: b844 163d 1159 93bc ebf5 763d 5670 97bd
00000020: 0501 8a3b 51ee 393d b7ab 233b cf5a abbd
00000030: 62e5 753d 9265 8cbc 3f15 61bd 4b27 d1bc
00000040: 5459 7a3c 960b 97bd 07e0 40bd dfb0 b43d
00000050: e964 103d 9ff4 abbd 34fb b03d ff42 d8bd
00000060: 27ad 813c 78dc 1b3d e87b bbbc 8b85 403d
00000070: 82eb 61bc 77d0 03bd ac58 e3bc e3d6 4abc
00000080: 61ec ddbd e4d0 bf3b 71bd d7bd 3882 e1bd
00000090: 9537 5cbb 14c1 533c ca91 183d a58e 633d
000000a0: 5719 79bd 0b52 423c 0beb abbd 3aad a53d
000000b0: a280 af3d 91a2 6a3c 524d 4f3d 54ab 593d
000000c0: 6cc0 4cbd 0afc 93bd 1883 953d 4556 b0bd
000000d0: 3abd 9cba 5d16 8abd 7881 94bd 95b2 923d
000000e0: 4175 903d a579 a03b 6a4b a33d 0c9f 923c
000000f0: 796a acbc 7659 3c3d 6239 a63d 9bac edbd
00000100: b7a0 df38 9ad4 263b 59ac a13d e401 1c3d
00000110: d51b aabd 918a 7e3c 7233 49bd 4910 8dbd
00000120: 7b61 05be df5a fc3c 35a4 c43a 7a67 e83d
00000130: 861f 6c3d cd66 97bd a7d4 30bd 76d2 3cbd
00000140: 811b 9dbd 3892 803d 791c 06bd 6cdb b6bd
00000150: 9847 82bc b66c 8dbd 748c 143d ba61 8c3d
00000160: 4739 b6bd ae73 c93c 5630 e03d 1459 e73b
00000170: b845 25bd 89dd 49bd aa35 ccbd 3eef 95bd
00000180: 72d6 9b3c 0902 613d 8ee1 cb3d 03f1 c6bc
00000190: 2d16 eebc 1bdc 963b 9db9 f3bc f852 df3d
000001a0: a350 433d 8f81 cfbd 6e76 813c 606c d5bd
000001b0: d804 92bd 10c2 9dbd 5854 3a3d b263 60bd
000001c0: 5702 c3bd 0ea5 f13d 5f01 9cbd 8f7e 9f3d
000001d0: 9c9d 873d fae2 cc3c aba9 75bd e661 433c
000001e0: fc9a fd3c ab01 833d 0218 ad3d c06b 5e3d
000001f0: b7e2 b9bd 4570 bb3d a916 03bd 9ddf 393d
00000200: 4c88 39bd afc7 18bd 42a0 043c 3a07 24bc
00000210: 29e0 243d 938c e83c 7024 d43a 04c9 c83d
00000220: f2ec ab3c d4a4 79bd 0453 953d 91f1 633d
00000230: 2477 2338 62ed c63b c23f d6bd 6a48 5c3d
00000240: f767 09be c482 eebc a4fd 8d3d f01f ab3d
00000250: 0473 c53c e45a 8b3d ceea 50bc effb cfbc
00000260: 3473 8abd 9255 853d 6dd8 8e3d 7720 bb3a
00000270: 59f4 9cbd 2ecf c839 e08a 59bd 7687 12be
00000280: 6d33 8fbd 4a3d 8b3d 6bd4 9e3d 03a8 173c
00000290: d7e9 7f3d 654a 3bba 4fc6 a73b fd0b 5e3d
000002a0: d334 103d 1ba8 1f3d 8037 8a3d a332 d93d
000002b0: fdff a83d 7158 23bd 4bd6 9cbd e451 fe3c
000002c0: 4f35 76bd 9a16 c73c bc1b 413c a91a ff3c
000002d0: 6f3d a83d 1fc1 86ba 4cb9 c33b 6a7a 06bc
000002e0: 2dfd b7bd 792c b4bd 45f9 d4bd 4a8d 8f3d
000002f0: 0af1 79bd 163b 95bd b8f0 99bd 9e3b 31bd
00000300: 24bf ee3b a651 bd3d 85e2 6d3d 0444 93bd
00000310: e620 0d3d 7276 fc3c a4d7 1a3c 837b bdbc
00000320: c423 d0bc 64d9 9c39 459e b23d 8cb2 a83c
00000330: 8185 063d 31ba bdbd 6c0c 2ebd f377 afbd
00000340: cfea 513b 2fbb b1bd 5999 86bc 51f1 d63d
00000350: a28d 4a3d 3286 c83d 8b09 c83d 54f8 623d
00000360: 091f 873c 8ddf 76bc 71e2 b43d 43c8 55bd
00000370: 4222 163d 7d30 ab3d 61cf 203c 4694 f2bc
00000380: 40b6 ecbb 2138 a9bd b068 4cbd ed43 c2bd
00000390: 69b2 d73c c15c 97bd acbe a9bd 8a15 23bd
000003a0: 833b a03c 14d6 8b3d 6bfa 65bd 1827 8bbd
000003b0: 0ee7 763d 1612 9f3d 550f 05bb 1bf2 803d
000003c0: caa2 99bd dce6 0a3d a752 bbbd 31f2 07bd
000003d0: f5cb a33d fb70 473d 0c4a 343d ae8f 2a3d
000003e0: 6bf1 14bd 39b4 bfbc 6e5d 5e3d d463 a0bd
000003f0: d95c 8f3d adf0 263d 999f 7d3d b6d1 f3bc
0.04002216 0.05450631 -0.09691471 0.04273823 0.03668663 -0.017986806 0.06029312 -0.07394473
0.0042115473 0.04539329 0.0024974176 -0.0836693 0.06003321 -0.017138276 -0.054951902 -0.025531432
0.015280087 -0.07375257 -0.04708865 0.08822798 0.035252485 -0.08396267 0.08641663 -0.105596535
0.015829636 0.038052052 -0.022886232 0.047002356 -0.01378906 -0.03218123 -0.027752243 -0.012380335
-0.10836101 0.005853759 -0.1053418 -0.110111654 -0.0033602465 0.012924451 0.03724841 0.05555596
-0.06081518 0.011860381 -0.0839444 0.08089681 0.08569457 0.014320985 0.050610848 0.053141907
-0.049988195 -0.07225807 0.07300395 -0.086102046 -0.0011958249 -0.06742547 -0.07251257 0.07162968
0.070536144 0.0048973137 0.079733685 0.017898105 -0.021046864 0.045983754 0.08116414 -0.116051875
0.00010663404 0.002545631 0.07894201 0.03808774 -0.0830609 0.0155359665 -0.049121328 -0.06887872
-0.13025467 0.03080505 0.0015002551 0.113478616 0.05764725 -0.073926546 -0.04317155 -0.04609915
-0.076712616 0.06277889 -0.032741997 -0.0892857 -0.01590328 -0.069055006 0.03626676 0.06854577
-0.088976435 0.024591293 0.10946719 0.0070601795 -0.040349692 -0.049283538 -0.09971173 -0.073210225
0.019023154 0.05493358 0.099551305 -0.024284845 -0.029063309 0.0046038753 -0.029751593 0.10904497
0.047684323 -0.10132133 0.015803542 -0.104210615 -0.0712983 -0.0770303 0.045490593 -0.054782577
-0.09521931 0.1179906 -0.07617449 0.07787811 0.066218585 0.025010575 -0.05997626 0.011925196
0.030957691 0.063968025 0.08451845 0.054301977 -0.090764455 0.09152273 -0.032004032 0.04537927
-0.045296 -0.037299808 0.008094849 -0.010011489 0.04025284 0.028387344 0.0016185176 0.09803966
0.020987008 -0.060948208 0.072912246 0.055650298 3.8973187e-05 0.0060707787 -0.104613796 0.053779997
-0.13418566 -0.029115088 0.06933144 0.08355701 0.024102695 0.068044454 -0.012751294 -0.025388686
-0.067602545 0.06510462 0.06974874 0.0014276643 -0.07663793 0.00038301334 -0.053110957 -0.14309487
-0.069922306 0.06798799 0.07755359 0.009256366 0.062478866 -0.00071445695 0.005120076 0.05421065
0.035206627 0.038978677 0.06748867 0.10605361 0.08251951 -0.039879266 -0.07658061 0.031044908
-0.060109433 0.02430277 0.011786398 0.031140642 0.082148425 -0.0010280943 0.005973017 -0.008207897
-0.08983836 -0.08797545 -0.10399107 0.070093706 -0.06102089 -0.072866604 -0.075166166 -0.043269746
0.0072859693 0.09244089 0.058077354 -0.07190707 0.034455203 0.030818198 0.009450827 -0.023130184
-0.02540768 0.00029916607 0.08721594 0.02059295 0.032842163 -0.09264029 -0.042492315 -0.085678004
0.0032030826 -0.086782806 -0.016430544 0.10495246 0.049451478 0.09791221 0.09767445 0.055412605
0.01649429 -0.015067947 0.08832253 -0.052192938 0.036653765 0.08358858 0.009815068 -0.029611718
-0.0072238743 -0.08262659 -0.049904525 -0.09485612 0.02633019 -0.07390738 -0.08288321 -0.039815463
0.019559627 0.068279415 -0.05614702 -0.06794566 0.060278945 0.077671215 -0.0020303328 0.06296178
-0.07501753 0.03391157 -0.09146624 -0.033189956 0.07997886 0.04869173 0.04401593 0.04164093
-0.036363047 -0.023401367 0.05428832 -0.07831541 0.07000131 0.04075687 0.061919782 -0.029763084

network.6.bias f4 [8]
00000000: 8e9f 01bf 6236 eb3e a226 aebe 8e7d aebe
00000010: 52ee 4fbf 02ae 543f 029e 19be f50e 36be
-0.50634086 0.45939928 -0.3401385 -0.34080166 -0.8122302 0.83078015 -0.15001681 -0.17779143
