pth/focus_model.pth (torch, 65815 bytes, 6 tensors)

network.0.weight f4 [128, 58]
-0.06198048 -0.014881158 -0.1191807 -0.08775444 0.069922015 -0.03552492 0.0061860085 -0.026969114
-0.11034708 -0.104287766 -0.027502285 0.042332362 0.038753215 -0.070333466 -0.057892364 -0.0059756194
0.12054851 -0.12183466 -0.0968951 -0.012537388 0.092040375 -0.12223653 -0.086983465 -0.09417349
-0.07284376 -0.0520515 0.0770336 0.05810751 0.080404714 0.07546566 0.17348543 -0.0064175157
-0.098883465 0.0075955945 -0.09843253 -0.09054419 0.10029312 -0.0121152885 0.13110477 0.033693537
0.08554635 -0.09741986 -0.0024763749 0.060016572 -0.019239513 0.05281124 -0.08656949 0.13154143
0.045520704 -0.11943449 -0.105256826 -0.06577104 0.04462278 -0.046687387 -0.11395568 -0.11974485
-0.1915639 -0.19764969 0.0056785634 -0.17804247 0.028945608 -0.09086034 -0.0052814516 -0.071712784
0.0889238 -0.032238748 -0.0006311733 -0.074306704 -0.0022825766 -0.097512424 -0.020366628 -0.06567714
0.11878962 -0.14962997 0.050119616 -0.16243434 -0.06356632 0.049812395 -0.0007539867 -0.01117808
-0.14563987 0.0082712555 -0.050983686 -0.14768708 -0.09234012 -0.10277033 -0.06459206 -0.16763988
0.0062846695 0.12245548 0.00895982 0.041145533 0.009722341 -0.038979523 0.036589097 -0.0992054
0.02889541 -0.017085299 -0.1138137 0.11768548 -0.11655426 -0.060525227 -0.12225349 -0.042101122
0.058501787 -0.022271799 -0.18253635 0.042158928 0.008725795 -0.09544341 -0.18630646 0.0129906805
0.030204177 -0.10175349 -0.11495977 -0.055205133 0.0491547 -0.18475573 0.046665702 -0.11739786
-0.08117193 0.11623633 0.037531644 -0.21356487 -0.05244352 0.20570154 -0.27259707 -0.09343875
0.06839625 0.07108684 0.029747106 0.23559566 0.22014841 0.08784121 0.13265365 0.09076619
0.13725416 -0.009037225 0.05904503 0.019524887 -0.02111302 -0.0036633592 0.1409849 0.012839962
-0.08244511 0.08273097 0.014733017 0.062341873 -0.14179902 0.010970354 -0.08889312 0.094694175
-0.09701777 0.036438625 -0.049438246 0.1229406 -0.12130567 0.13730657 0.21013546 0.25338268
0.26962337 0.120754965 -0.041750424 0.2153252 0.05662885 0.020708453 0.15550798 0.22826368
0.13924628 0.13724166 0.06707983 0.014276813 0.08399579 -0.030537255 -0.16173081 0.0784227
-0.2069857 -0.0677331 -0.052290894 -0.18307458 0.122477084 0.05523828 0.049413085 -0.31519237
0.12366646 -0.011476883 -0.31548762 -0.17318636 -0.2694721 -0.126856 -0.094481744 -0.10088387
0.036569364 -0.06409716 -0.08798691 -0.19702426 -0.05177205 -0.033878114 0.051594492 -0.11634654
0.016953753 -0.05922073 -0.07687958 -0.09991421 -0.10684689 0.014695221 0.112523556 0.09355212
0.09786934 -0.13261521 -0.13507533 -0.032803133 -0.011022059 -0.07124151 0.046614997 0.09286908
0.08799161 0.072071604 -0.040811885 -0.21168673 -0.052693635 0.087669514 -0.25541335 -0.25827676
0.021355165 -0.11367504 -0.08060394 -0.22447829 -0.13025026 -0.18044448 -0.14541142 -0.09744591
0.09513607 0.07359905 -0.12691198 0.030618712 0.0545507 -0.13983175 0.011307627 0.091778025
-0.14045636 -0.12795003 0.042530455 -0.20260854 0.060435075 -0.02329248 -0.20431446 0.0443993
-0.058064513 -0.19838454 0.03448136 0.016399866 -0.1683039 0.023764323 0.19856365 0.06421593
00000000: 3edf 7dbd 1ad0 73bc 0315 f4bd 9ab8 b3bd
00000010: 4633 8f3d 9482 11bd 00b4 ca3b 55ee dcbc
00000020: a6fd e1bd d394 d5bd 794c e1bc b364 2d3d
00000030: b1bb 1e3d fe0a 90bd 8b20 6dbd 21cf c3bb
00000040: 23e2 f63d 7384 f9bd f070 c6bd 9e69 4dbc
00000050: aa7f bc3d 2557 fabd 6324 b2bd 08de c0bd
00000060: 1c2f 95bd f433 55bd cbc3 9d3d 2402 6e3d
00000070: 3aab a43d bd8d 9a3d 2aa6 313e 064a d2bb
00000080: 6a83 cabd 77e4 f83b ff96 c9bd 3b6f b9bd
00000090: 7b66 cd3d 347f 46bc 5440 063e 3c02 0a3d
000000a0: ed32 af3d 1084 c7bd ad4a 22bb f0d3 753d
000000b0: 2f9c 9dbc 9950 583d 584b b1bd ccb2 063e
000000c0: eb73 3a3d 129a f4bd e490 d7bd f8b2 86bd
000000d0: 60c6 363d 463b 3fbd 9861 e9bd ca3c f5bd
000000e0: 5429 44be ae64 4abe 3e13 ba3b c450 36be
000000f0: 571f ed3c fc14 babd 0710 adbb 27de 92bd
00000100: ae1d b63d c70c 04bd 5375 25ba 1d2e 98bd
00000110: 4897 15bb 98b4 c7bd ead7 a6bc bd81 86bd
00000120: f947 f33d 9938 19be 3a4a 4d3d 3055 26be
00000130: 0f2f 82bd 1508 4c3d 31a7 45ba 4424 37bc
00000140: 9e22 15be 2984 073c 45d4 50bd 483b 17be
00000150: d11c bdbd 4079 d2bd d848 84bd caa9 2bbe
00000160: a1ef cd3b f0c9 fa3d 35cc 123c 3888 283d
00000170: 744a 1f3c fea8 1fbd 73de 153d 332c cbbd
00000180: 11b6 ec3c 78f6 8bbc 2817 e9bd 1605 f13d
00000190: 00b4 eebd 4de9 77bd 0a60 fabd 3a72 2cbd
000001a0: 929f 6f3d 5973 b6bc cfea 3abe d7ae 2c3d
000001b0: a3f6 0e3c d677 c3bd 1fc7 3ebe ddd6 543c
000001c0: c06e f73c 2264 d0bd 0770 ebbd c71e 62bd
000001d0: 7056 493d 9b30 3dbe 8924 3f3d 4a6e f0bd
000001e0: 783d a6bd 500d ee3d c8ba 193d c0b0 5abe
000001f0: 04cf 56bd 6da3 523e d891 8bbe d15c bfbd
00000200: 5513 8c3d fa95 913d 34b0 f33c fd3f 713e
00000210: 966e 613e 18e6 b33d 5cd6 073e a0e3 b93d
00000220: 5b8c 0c3e de10 14bc 34d9 713d a8f2 9f3c
00000230: 36f5 acbc f814 70bb 585e 103e b45e 523c
00000240: fbd8 a8bd db6e a93d c162 713c 315a 7f3d
00000250: c333 11be 00bd 333c 990d b6bd 05ef c13d
00000260: 41b1 c6bd ab40 153d c27f 4abd 48c8 fb3d
00000270: 1b6f f8bd 189a 0c3e c02d 573e 60bb 813e
00000280: 130c 8a3e 614e f73d 7e02 2bbd 367e 5c3e
00000290: a7f3 673d c6a4 a93c 7c3d 1f3e f4bd 693e
000002a0: 9496 0e3e 1489 0c3e 2661 893d 4be9 693c
000002b0: fc05 ac3d 4429 fabc c39c 25be 159c a03d
000002c0: 0ff4 53be a7b7 8abd fa2e 56bd e777 3bbe
000002d0: 44d5 fa3d 8941 623d 6065 4a3d e560 a1be
000002e0: d744 fd3d 8909 3cbc 9887 a1be c457 31be
000002f0: 3ff8 89be 8ae6 01be a57f c1bd 349c cebd
00000300: c2c9 153d 5f45 83bd 7b32 b4bd bac0 49be
00000310: ee0e 54bd c7c3 0abd bf54 533d 1847 eebd
00000320: 99e2 8a3c 7091 72bd 0b73 9dbd d29f ccbd
00000330: 8bd2 dabd 39c4 703c c072 e63d 4198 bf3d
00000340: b86f c83d 48cc 07be 3051 0abe 945c 06bd
00000350: de95 34bc 12e7 91bd 5eef 3e3d 2532 be3d
00000360: f234 b43d 479a 933d 5d2a 27bd 68c4 58be
00000370: 48d5 57bd 138c b33d 8ac5 82be da3c 84be
00000380: 07f1 ae3c 76ce e8bd ae13 a5bd a3dd 65be
00000390: 5360 05be 70c6 38be bbe6 14be b991 c7bd
000003a0: b3d6 c23d 19bb 963d 37f5 01be 18d4 fa3c
000003b0: 8e70 5f3d 0e30 0fbe a043 393c 1ef6 bb3d
000003c0: cbd3 0fbe 5505 03be 6a34 2e3d 9d78 4fbe
000003d0: c58a 773d dfcf bebc cf37 51be 0adc 353d
000003e0: 0ed5 6dbd 5125 4bbe 543c 0d3d 0359 863c
000003f0: dc57 2cbe 66ad c23c 4554 4b3e a483 833d

network.0.bias f4 [128]
-0.024535645 -0.09830771 -0.044957835 -0.07853783 -0.013190396 -0.03397252 -0.105340175 0.027629003
0.025714811 0.04431134 -0.12339353 -0.18370616 -0.069245346 0.1983766 -0.0018833831 -0.21810639
0.28897032 0.028962119 -0.002737772 0.15582123 0.057561375 -0.06942079 -0.17796278 -0.21915749
0.113686875 0.0670404 -0.011223201 -0.24286944 0.302402 0.19375446 -0.028174784 -0.16826795
0.041488387 -0.09107174 -0.1345159 -0.029063998 0.17827748 0.10137959 -0.1486558 -0.13386543
0.3354205 -0.043603398 0.026166847 -0.07624829 0.008800933 0.07292201 -0.060935326 0.119948104
0.12054902 -0.14321454 -0.09753649 -0.03946894 0.18694119 0.1279867 -0.18164076 -0.024464564
-0.033771846 0.12278519 -0.06364935 0.14423288 0.006437297 0.008011769 -0.039541554 -0.034716778
-0.026122775 -0.057615243 -0.09699492 -0.044777434 -0.14408317 -0.22420645 -0.14918266 -0.11146486
-0.06844913 0.108824104 0.07997151 -0.0057100775 -0.006111983 0.24858597 -0.014493629 0.05151051
-0.073038936 -0.2480143 -0.10648452 0.09045748 -0.10652873 -0.08030818 0.39768323 0.17903306
-0.04605795 -0.09484378 -0.055739228 -0.08249212 0.16981372 0.023253871 0.04533958 -0.19961964
-0.17994753 -0.089266196 -0.09448316 0.04058595 0.053699303 0.15869078 -0.025987 0.016823303
0.011324244 -0.09009838 -0.11202197 -0.039718203 -0.057795722 -0.015830947 0.1383034 0.11365845
0.08399833 -0.11740657 -0.22251515 -0.021035159 0.28757346 0.14256202 0.004548177 0.35344076
0.092524946 0.028970718 -0.09702016 0.17929995 -0.08958663 -0.053858176 -0.207259 0.21338628
00000000: fafe c8bc 8d55 c9bd b525 38bd 71d8 a0bd
00000010: 881c 58bc c526 0bbd 97bc d7bd 3856 e23c
00000020: dea7 d23c cf7f 353d bfb5 fcbd 781d 3cbe
00000030: 81d0 8dbd 3c23 4b3e dadb f6ba 4857 5fbe
00000040: ebf3 933e f741 ed3c 316c 33bb 9a8f 1f3e
00000050: 7ac5 6b3d 7d2c 8ebd e03b 36be d26a 60be
00000060: aad4 e83d 7a4c 893d 84e1 37bc c4b2 78be
00000070: 6fd4 9a3e 9267 463e cece e6bc 6f4e 2cbe
00000080: baef 293d d283 babd 89be 09be 9f17 eebc
00000090: 5f8e 363e 1aa0 cf3d 3a39 18be 0514 09be
000000a0: 3cbc ab3e 7a99 32bd db5b d63c 1028 9cbd
000000b0: ca31 103c 2358 953d 5297 79bd 5aa7 f53d
000000c0: 68e2 f63d d5a6 12be 36c1 c7bd 2faa 21bd
000000d0: 836d 3f3e f20e 033e 0900 3abe e969 c8bc
000000e0: 5954 0abd cd76 fb3d 975a 82bd c9b1 133e
000000f0: f6ef d23b cb43 033c 53f6 21bd 2e33 0ebd
00000100: 6eff d5bc f6fd 6bbd 46a5 c6bd 8b68 37bd
00000110: 8a8a 13be 6096 65be 57c3 18be b047 e4bd
00000120: 0f2f 8cbd 2cdf de3d 1ac8 a33d 9a1b bbbb
00000130: 0847 c8bb 528d 7e3e b076 6dbc affc 523d
00000140: 7095 95bd 76f7 7dbe 8e14 dabd c541 b93d
00000150: bc2b dabd 9d78 a4bd 239d cb3e 7154 373e
00000160: 43a7 3cbd 753d c2bd d14e 64bd a1f1 a8bd
00000170: a6e3 2d3e e77e be3c ffb5 393d 1769 4cbe
00000180: 2a44 38be 32d1 b6bd 6380 c1bd 743d 263d
00000190: cdf3 5b3d d67f 223e b0e2 d4bc 06d1 893c
000001a0: 5289 393c 8085 b8bd c66b e5bd 8eaf 22bd
000001b0: 35bb 6cbd e7af 81bc 689f 0d3e c3c5 e83d
000001c0: 5107 ac3d db72 f0bd 03db 63be ed51 acbc
000001d0: d43c 933e c7fb 113e e008 953b 30f6 b43e
000001e0: b87d bd3d 0054 ed3c 81b2 c6bd 689a 373e
000001f0: 3279 b7bd 649a 5cbd b43b 54be ef81 5a3e

network.3.weight f4 [64, 128]
-0.010512675 -0.07727969 -0.08732597 -0.052946433 0.009685241 -0.079835705 -0.1123258 -0.054636776
-0.012456777 0.019656977 -0.028921448 0.030845268 0.02500716 -0.13293932 -0.068943985 -0.074958004
-0.14336896 0.016003694 -0.040476143 0.005111357 0.015773572 -0.09826025 0.08885305 0.028247101
0.046056557 -0.0365838 0.044451065 0.07191293 -0.06406436 -0.03172225 -0.043076787 -0.007886549
-0.05992843 0.025839234 -0.039984226 0.075575344 -0.045184992 0.080727465 -0.08399377 0.020363454
-0.085851625 -0.052219268 0.03742509 -0.059748564 0.017683877 -0.024798192 -0.055231497 -0.03610837
-0.06017952 0.06651357 -0.06489828 -0.051099237 -0.0607802 -0.035686288 0.018328073 -0.08529177
-0.01398842 -0.09080121 -0.04570011 -0.05848978 -0.060768753 -0.078611314 -0.0027265947 0.048523605
-0.05924002 0.019185238 -0.015157575 0.028114438 0.04095919 -0.023805 0.037247144 -0.011479589
-0.050216958 0.022048838 -0.0025141754 0.062473897 -0.016181648 -0.08178224 -0.032410484 0.044621162
-0.021033792 0.0064745303 0.013931106 -0.0909899 -0.121655345 -0.028561983 -0.07229221 -0.096343845
-0.026812768 0.02673449 -0.051604915 -0.04009144 -0.08374043 -0.10801723 -0.05495389 -0.09393116
-0.046669517 -0.055653397 0.011600527 0.016258135 -0.12830256 -0.012161324 0.050217766 -0.02561592
-0.018215414 -0.025922392 -0.022367101 0.010563435 0.006788236 -0.0938816 0.030019123 -0.06400968
-0.059315987 -0.03580009 -0.085523166 0.018456528 -0.026033564 -0.051179796 0.012981139 -0.007915775
0.04597401 -0.027613224 0.057120267 0.05505767 -0.061181467 -0.09372304 0.068713225 -0.029387644
-0.031645667 -0.084913604 -0.09536292 0.01071336 0.008491206 0.057110183 -0.05427954 0.0035881791
-0.035166945 0.024537288 -0.07542672 -0.051800214 0.035171583 0.026631113 -0.011947896 -0.05365981
-0.07810953 -0.037056886 -0.026452007 0.03326944 0.0013741329 -0.10101994 0.0141758025 0.01958681
-0.039797034 -0.032796264 0.018914547 0.051675644 -0.056635186 -0.10873933 -0.00832307 0.0216686
0.030151831 0.0065038283 -0.021552302 -0.059384033 -0.05802649 0.035050593 0.05656002 -0.05570069
-0.0101661645 0.004071726 0.05451408 0.006559769 0.08104216 0.034344994 0.028220534 -0.07165464
-0.12175095 -0.013490465 0.047837358 -0.011169952 -0.06526317 -0.1178622 -0.024552956 0.03164435
0.014366925 -0.055947807 -0.062008053 -0.0900382 -0.020440483 -0.07068694 0.046681706 0.021430127
0.07515677 0.021121794 0.05705455 -0.0048436755 -0.0076484103 0.0022790986 0.05812271 -0.07410621
-0.046892636 -0.037369125 -0.0022419554 0.041486353 -0.0081414515 0.018795295 0.035772182 -0.02580279
-0.0082687 -0.053736158 -0.040455356 -0.078174956 -0.09402121 0.009725321 -0.055975676 -0.020574655
-0.006811009 0.009011048 0.033888813 -0.035059284 -0.033992678 0.034355883 -0.05604752 0.04150909
-0.05374186 0.046732962 0.03684386 0.04418273 0.035257265 -0.037555452 -0.01574289 -0.043216232
-0.056677055 -0.01787412 -0.02190191 -0.057137612 0.034440532 -0.04450962 0.03057223 -0.07325691
-0.05184682 0.06836096 -0.1143371 -0.08028869 -0.08668486 0.06447758 -0.08595694 -0.10995564
0.033162475 0.01598951 -0.032439794 -0.079826415 -0.02635655 0.03404781 0.015078448 -0.109654985
00000000: 5b3d 2cbc d044 9ebd f5d7 b2bd 5cde 58bd
00000010: d8ae 1e3c e780 a3bd 120b e6bd d0ca 5fbd
00000020: 8217 4cbc ab07 a13c acec ecbc 37af fc3c
00000030: d1db cc3c 3f21 08be 8132 8dbd 9583 99bd
00000040: 50cf 12be 2e1a 833c 50ca 25bd 2c7d a73b
00000050: 9437 813c ac3c c9bd 96f8 b53d 7766 e73c
00000060: cda5 3c3d e5d8 15bd 5212 363d 1647 933d
00000070: 2d34 83bd 31ef 01bd 4971 30bd 9636 01bc
00000080: 8377 75bd cdac d33c 80c6 23bd 3fc7 9a3d
00000090: e613 39bd 7154 a53d ed04 acbd 42d1 a63c
000000a0: fad2 afbd dfe3 55bd 0d4b 193d e9ba 74bd
000000b0: c7dd 903c 9425 cbbc 6c3a 62bd 5fe6 13bd
000000c0: cd7e 76bd 4438 883d 64e9 84bd 6f4d 51bd
000000d0: a9f4 78bd c92b 12bd c124 963c 74ad aebd
000000e0: b02f 65bc fcf5 b9bd 0a30 3bbd fb92 6fbd
000000f0: a8e8 78bd f8fe a0bd abb0 32bb b0c0 463d
00000100: aaa5 72bd 5c2a 9d3c 7a57 78bc 4050 e63c
00000110: d3c4 273d b402 c3bc 7690 183d e314 3cbc
00000120: 4cb0 4dbd c49f b43c ddc4 24bb a1e4 7f3d
00000130: 608f 84bc 727d a7bd dbc0 04bd aec4 363d
00000140: 0f4f acbc 4c28 d43b 4b3f 643c ea58 babd
00000150: 7026 f9bd d2fa e9bc f00d 94bd ec4f c5bd
00000160: 73a6 dbbc 4a02 db3c ad5f 53bd ec36 24bd
00000170: 1a80 abbd 2338 ddbd 5517 61bd fb5e c0bd
00000180: 8928 3fbd d1f4 63bd 2310 3e3c c82f 853c
00000190: bf61 03be 4a40 47bc 25b1 4d3d 7ad8 d1bc
000001a0: 7e38 95bc 325b d4bc 363b b7bc 4212 2d3c
000001b0: da6f de3b ff44 c0bd aaea f53c 8217 83bd
000001c0: 52f5 72bd 1da3 12bd c526 afbd 2532 973c
000001d0: 5744 d5bc e8a1 51bd d8ae 543c 2bb1 01bc
000001e0: 3e4f 3c3d 2135 e2bc f1f6 693d 2784 613d
000001f0: 6b99 7abd ddf1 bfbd 85b9 8c3d 5bbe f0bc
00000200: e39e 01bd 2fe7 adbd a24d c3bd 1787 2f3c
00000210: b31e 0b3c 5eec 693d 3954 5ebd a827 6b3b
00000220: 370b 10bd 6c02 c93c 5379 9abd 762c 54bd
00000230: 1410 103d 7e29 da3c 1cc1 43bc 64ca 5bbd
00000240: e4f7 9fbd f6c8 17bd e1b1 d8bc 8945 083d
00000250: 401c b43a 8be3 cebd a041 683c 8574 a03c
00000260: 3702 23bd 6055 06bd aef2 9a3c d7a9 533d
00000270: 4cfa 67bd bab2 debd 7c5d 08bc 5982 b13c
00000280: f900 f73c 111e d53b 748e b0bc ac3c 73bd
00000290: 2fad 6dbd 3691 0f3d 7bab 673d 6826 64bd
000002a0: fc8f 26bc 1d6c 853b 284a 5f3d 55f3 d63b
000002b0: 6ff9 a53d 56ad 0c3d c02e e73c abbf 92bd
000002c0: 9058 f9bd 1c07 5dbc 1bf1 433d 2d02 37bc
000002d0: b2a8 85bd bd61 f1bd 4823 c9bc 829d 013d
000002e0: 4063 6b3c 8729 65bd 28fc 7dbd f365 b8bd
000002f0: cd72 a7bc 50c4 90bd 5135 3f3d 3c8e af3c
00000300: cbeb 993d 9d07 ad3c 08b2 693d b2b7 9ebb
00000310: 849f fabb ee5c 153b 1412 6e3d ffc4 97bd
00000320: 7e12 40bd 5e10 19bd c5ed 12bb 98ed 293d
00000330: b963 05bc 97f8 993c da85 123d 5f60 d3bc
00000340: 7179 07bc 721a 5cbd 84b4 25bd 311a a0bd
00000350: 318e c0bd f456 1f3c c046 65bd 2e8c a8bc
00000360: e22e dfbb 13a3 133c ffce 0a3d 539a 0fbd
00000370: e83b 0bbd c1b8 0c3d 1692 65bd 7005 2a3d
00000380: 6d20 5cbd 106b 3f3d 96e9 163d f3f8 343d
00000390: ec69 103d bfd3 19bd 3cf7 80bc 8103 31bd
000003a0: 3326 68bd bf6c 92bc a26b b3bc 2109 6abd
000003b0: 8411 0d3d b84f 36bd 9d72 fa3c b807 96bd
000003c0: 555d 54bd d500 8c3d 9229 eabd 666e a4bd
000003d0: d587 b1bd d20c 843d 310a b0bd 6c30 e1bd
000003e0: 60d5 073d 6ffc 823c 97df 04bd 087c a3bd
000003f0: b1e9 d7bc b775 0b3d 980b 773c cb92 e0bd

network.3.bias f4 [64]
-0.1584661 -0.012865041 0.019500539 -0.048793063 -0.08045717 -0.12794323 -0.14285342 -0.049416266
-0.12781689 -0.09207414 -0.05129057 -0.080789894 -0.079599656 -0.17032029 -0.04338347 -0.04647564
-0.09973196 -0.008145426 0.0380217 -0.07726146 0.050065808 0.012329969 0.012376939 -0.036803428
-0.1283731 -0.13870552 -0.055711266 -0.1041051 -0.09857803 0.01157146 -0.18672054 0.04052461
-0.13567786 -0.0868464 -0.030303175 -0.006928434 -0.021598712 -0.12468621 -0.12672356 -0.06300709
-0.072935365 -0.04532143 -0.13641827 0.027617412 -0.18683009 -0.2402897 -0.10330443 -0.10888899
-0.041380294 -0.08374164 -0.084729314 -0.08202968 -0.066634454 -0.13457051 -0.09640648 -0.06961977
-0.045221422 -0.0721684 0.0048064664 -0.06784495 0.0059944605 -0.04172247 -0.03848947 -0.0021710456
00000000: f044 22be e5c7 52bc 98bf 9f3c 3cdb 47bd
00000010: bbc6 a4bd 8d03 03be 2b48 12be b668 4abd
00000020: 6ee2 02be 5e91 bcbd 1016 52bd 2c75 a5bd
00000030: 2505 a3bd 7168 2ebe deb2 31bd 3e5d 3ebd
00000040: 4540 ccbd 6574 05bc a4bc 1b3d 423b 9ebd
00000050: ce11 4d3d a303 4a3c a5c8 4a3c 31bf 16bd
00000060: 3d74 03be d208 0ebe 7f31 64bd 0e35 d5bd
00000070: 47e3 c9bd 3996 3d3c ab33 3fbe 22fd 253d
00000080: 23ef 0abe 86dc b1bd 5d3e f8bc eb07 e3bb
00000090: c8ef b0bc 7c5b ffbd d2c3 01be dc09 81bd
000000a0: 235f 95bd f7a2 39bd 3bb1 0bbe e93d e23c
000000b0: 6350 3fbe 810e 76be 4691 d3bd 3101 dfbd
000000c0: 627e 29bd bd80 abbd 9086 adbd 2dff a7bd
000000d0: a577 88bd dacc 09be c370 c5bd cf94 8ebd
000000e0: 193a 39bd 07cd 93bd 907f 9d3b 4bf2 8abd
000000f0: 2e6d c43b 2ee5 2abd 22a7 1dbd 1a48 0ebb

network.6.weight f4 [2, 64]
-0.036200926 -0.043869503 0.08032108 0.0821073 0.044675883 -0.09575638 -0.019408926 -0.045198042
-0.060670074 -0.04264802 -0.10344465 0.030308764 0.057613462 0.06376997 -0.0060884557 -0.041682895
-0.02350794 0.016339354 0.056235943 -0.07483821 -0.004766869 -0.02521809 -0.105888374 0.031963892
-0.04364033 -0.07039698 -0.014076006 -0.047727272 0.07336895 -0.017577069 -0.05229183 -0.06456903
-0.0584104 0.04985496 0.08689397 0.088770844 0.05388268 -0.08479741 -0.02629063 -0.077300616
-0.009665956 0.010389504 0.040247932 -0.089819275 -0.06860864 0.07229659 0.035573542 0.030182933
-0.053769536 -0.06641104 -0.030426493 0.046060555 -0.068784356 0.0820707 0.039842818 -0.04065852
0.04325186 0.005121012 -0.031699456 0.08597718 -0.06934052 -0.019152116 -0.11487427 0.04001732
-0.023631435 -0.09146062 0.013362709 0.034781158 0.09622094 -0.068043485 -0.014569447 0.036751974
-0.055963174 -0.0071221925 -0.089247696 0.039466154 0.10204159 0.09544773 0.038319524 0.013356327
-0.038835607 -0.069944635 0.037259962 0.008849017 -0.06194949 0.021355707 -0.059222694 0.09200229
0.020834588 -0.05145076 -0.070011094 -0.07440802 0.050663806 -0.07400658 -0.09115524 -0.10014168
-0.09863811 0.0025360973 0.038979135 0.061966725 0.002393306 -0.07848544 -0.0007633235 -0.0119992485
0.0028025836 0.053373195 0.050781954 -0.087783724 -0.052055184 0.12836476 0.017966527 -0.0051326505
-0.010147313 -0.11791867 0.031835653 0.037979893 -0.06191612 0.008362305 0.06555404 0.0342277
0.095653705 -0.043247763 -0.03593266 0.08338497 -0.08974543 0.030116789 -0.11306073 0.01841141
00000000: 6c47 14bd 82b0 33bd 617f a43d df27 a83d
00000010: 0ffe 363d ec1b c4bd 78ff 9ebc 9521 39bd
00000020: 2f81 78bd b1af 2ebd cada d3bd 164a f83c
00000030: 18fc 6b3d d499 823d ab81 c7bb afbb 2abd
00000040: b993 c0bc 1cda 853c a957 663d c744 99bd
00000050: 6533 9cbb 2b96 cebc 01dc d8bd 92ec 023d
00000060: 34c0 32bd 4b2c 90bd 0c9f 66bc ac7d 43bd
00000070: 7642 963d c9fd 8fbc f52f 56bd c53c 84bd
00000080: be3f 6fbd b734 4c3d 77f5 b13d 7dcd b53d
00000090: 16b4 5c3d 44aa adbd 735f d7bc c94f 9ebd
000000a0: f55d 1ebc bd38 2a3c 04db 243d 2bf3 b7bd
000000b0: b082 8cbd 3c10 943d 90b5 113d 3342 f73c
000000c0: 723d 5cbd 8302 88bd fb40 f9bc fea9 3c3d
000000d0: d0de 8cbd af14 a83d 3932 233d 8c89 26bd
000000e0: dd28 313d 2ace a73b 4ad7 01bd ce14 b03d
000000f0: 6702 8ebd e6e4 9cbc 3443 ebbd 34e9 233d
00000100: b696 c1bc b54f bbbd 44ef 5a3c b076 0e3d
00000110: 7c0f c53d 625a 8bbd b1b4 6ebc 3d89 163d
00000120: a439 65bd 4861 e9bb 7fc7 b6bd 43a7 213d
00000130: 2efb d03d 197a c33d eff4 1c3d 7fd4 5a3c
00000140: 1612 1fbd 223f 8fbd e79d 183d 78fb 103c
00000150: c0be 7dbd 2af2 ae3c 7f93 72bd b26b bc3d
00000160: 4cad aa3c 08be 52bd fa61 8fbd 3b63 98bd
00000170: da84 4f3d c390 97bd 99af babd 1517 cdbd
00000180: c702 cabd a734 263b 96a8 1f3d d2d0 7d3d
00000190: 03d9 1c3b f9bc a0bd c619 48ba 7f98 44bc
000001a0: 8dab 373b da9d 5a3d bd00 503d f4c7 b3bd
000001b0: d137 55bd 0d72 033e 8a2e 933c cb2f a8bb
000001c0: ea40 26bc 587f f1bd 1a66 023d ce90 1b3d
000001d0: c29b 7dbd 0d02 093c 3241 863d 5832 0c3d
000001e0: 17e6 c33d 9124 31bd 202e 13bd bdc5 aa3d
000001f0: 74cc b7bd 7cb7 f63c 628c e7bd 86d3 963c

network.6.bias f4 [2]
-0.4956318 0.33843943
00000000: 74c3 fdbe ef47 ad3e
