pth/shared_bottom_model1.pth (torch, 103022 bytes, 10 tensors)

shared_bottom.0.weight f4 [128, 58]
00000000: 334b c8bd 5821 1a3e 80aa 47be f8f6 e63d
00000010: c4f6 0cbe 56af 0e3d 3e08 9fbd 4a28 113d
00000020: 7aff be3c 8b88 073d 8190 423e e11f 26be
00000030: 1ad0 1dbc 516c 503d 2fda 923d edd0 c63c
00000040: cc68 d03d f006 25be 5b97 0f3d 89fe bcbd
00000050: 3ea6 933d b245 e4bd 5a4f 073c 7edb 6b3c
00000060: 6409 84bd c6cb c6bd d146 15be 56b9 eabd
00000070: b9f1 15be 022b 703e 6e61 b7bd dbbc f13b
00000080: c142 a73d 5e4e 373d 7c43 a43c 941c 3f3d
00000090: a3b9 bfbd 5203 33bd 5e19 58be 0039 903b
000000a0: 8e1c 1b3d 2d11 55be f7c7 073d 5345 a3be
000000b0: 2ab7 b4bd 093d 16be b5ea d03d 411e 2dbe
000000c0: 15c8 4abd 8b2e a4bd afa0 083e 3380 083e
000000d0: 5085 263e f9ea 573d f63a 9a3d 66ea 023e
000000e0: fd74 4c3d 6407 a03d f254 a6bc eee9 863d
000000f0: 85ec 0dbe e69e bc3d c042 873d 1afa 1ebe
00000100: 6aaf 36bd 3e89 bcbd ed28 20bd 23c9 9ebd
00000110: 958e a1bd ce3d ff3d 7ecc 89bd 9bec 79bd
00000120: 1a07 3a3d c99b f63c a4e7 07be a955 8c3d
00000130: ea4e eabc 6cdc a63d 3a05 a83d 9072 eebc
00000140: 6075 603d 5bf2 1abe f3ab 2bbe 6f45 00be
00000150: fac2 bc3d d6a1 9ebd 1179 8c3c ff85 08bd
00000160: 4b4c f93c fdc2 e13d 0183 a9bc fa74 e6bd
00000170: 1336 eb3d 3da1 27bd effe fe3d 56c4 823d
00000180: 66be 5cbd 6e31 92bd 209d bcbc 5dc0 08be
00000190: c546 433c d963 1abe 0600 6ebe da65 dbbd
000001a0: 5e79 833c cd7e 133d ebfb dbbd 8dce 1c3d
000001b0: eec4 23be d634 2d3c f972 d8bd 850b 833c
000001c0: 1eb8 3dbd 30bd 4bbe cdf0 3abe abd2 4f3b
000001d0: 29b0 c7bd d5aa bf3c c305 aabc 1084 e9bd
000001e0: 4da2 1cbe 8590 91bc dce0 b3bd bc2b 4d3e
000001f0: e2e0 793e a23a 8abd 01b2 b73d d6e2 f13d
00000200: 6965 f4bd 74d3 4cbe ac12 00be 02bf 8dbd
00000210: b358 4ebd cf1d d3bc 05f8 5bbd 34e0 09be
00000220: eb7c 4abe 669a d9bc 86f7 80bd 1746 96bd
00000230: 4bf8 80be eae1 09be 5c53 013e 1f3c 24be
00000240: 70aa 21be 6828 54be 4d55 11be 8515 00be
00000250: fd80 9abc 5268 febd de64 80bd 4223 36be
00000260: 1a00 93bc ea03 a23d 9fd3 693d de11 c4bd
00000270: 3bac b4bd 76e0 c33c ea0a f8bd 3a6f 14be
00000280: f38e 1cbe 558e c3bd 9914 6bbe b516 e93c
00000290: 3015 ecbd b5f3 23be e288 d9bc 0c32 2cbd
000002a0: be97 14be 265a f0bd dc60 6fbc ba29 b1bd
000002b0: 6086 35be f524 aabd 6603 bd3e cf8f a8bd
000002c0: 8bf1 ca3e 58b0 af3d 5b86 c7bd e9b8 a73e
000002d0: cbad b9bd fb5e 403e 6b76 1abe 25b3 043f
000002e0: bf98 a83e 0d40 17be 4196 073f 2939 1d3f
000002f0: 22c6 073f 37c4 a93e af02 063f 28a8 c13e
00000300: 5fe7 db3e fc8c ed3e 4b0f c53e 1605 1c3e
00000310: e7c9 3e3e cef5 943d 5560 d53c 3e40 113e
00000320: 9530 213e 821a 903e e8eb 3e3e f120 2b3e
00000330: d292 3ebd 013d 123e b4c5 0d3d 2c70 4ebd
00000340: dd96 c13d 6049 9d3d 57b2 0abe 58bd a73d
00000350: cfb1 013e 2055 22bc ce2b f73d dba5 cd3d
00000360: a39f e23d 6924 7a3a 1886 403d 3873 ad3d
00000370: 5cdd dc3b ce03 623d 9b02 303e 5b50 263e
00000380: 8adf 8a3e 576c 833e f8e6 813e 3f0d 8e3e
00000390: 2b77 c93e 2660 c53e 9b21 c13e 73a7 4c3e
000003a0: 7e45 f9bd 760b 843d 20ca 46bd 4088 903d
000003b0: 0da1 273e 839a cfbd d4c8 b93d 2e85 84ba
000003c0: 6480 8fbd aa5d efbd c4e6 753d 7319 c13d
000003d0: 865c 49bd c748 17be fcab 3bbd 1955 203d
000003e0: 7dad 68bd 204c bdbd 7c9d 28bc a1b8 6bbe
000003f0: 2621 edbc e270 b7bd 0acd d6bd f992 c73d
-0.09779968 0.15051782 -0.19498634 0.11277574 -0.13766009 0.034835182 -0.07765244 0.035438813
0.02331518 0.033089202 0.19000436 -0.16223098 -0.009632135 0.05088455 0.071705215 0.024269545
0.101762384 -0.16115928 0.035056453 -0.09228236 0.072094426 -0.11146106 0.008258665 0.014395593
-0.064471036 -0.097068354 -0.14577796 -0.11461131 -0.14642991 0.23453906 -0.0895413 0.0073772497
0.08167029 0.04475247 0.02005171 0.046658114 -0.09361579 -0.04370434 -0.21103427 0.004401326
0.03786903 -0.20807333 0.033149686 -0.31888828 -0.08823998 -0.1467172 0.10201017 -0.16906072
-0.04950722 -0.0801669 0.13342546 0.13330154 0.16261792 0.05271432 0.07530777 0.12784728
0.049916256 0.0781391 -0.020304177 0.06587587 -0.13859756 0.09209995 0.066045284 -0.15525094
-0.04460088 -0.09205864 -0.03910153 -0.077532075 -0.078885235 0.1246296 -0.06728457 -0.06101666
0.04541693 0.030103581 -0.13271958 0.06852276 -0.028602082 0.08147511 0.08204122 -0.029107362
0.054799438 -0.15131514 -0.16764812 -0.12526487 0.09216876 -0.077457115 0.017147573 -0.033330914
0.030431887 0.11023519 -0.02069235 -0.1125278 0.11484923 -0.040925253 0.124509685 0.06385104
-0.053892516 -0.07138334 -0.023024142 -0.13354631 0.011918728 -0.15077151 -0.23242196 -0.10712786
0.016049083 0.0360096 -0.10741409 0.03828292 -0.15993091 0.010571679 -0.10568804 0.015996704
-0.046318166 -0.19896388 -0.1825592 0.0031711261 -0.09750397 0.023396889 -0.0207547 -0.11402142
-0.15296288 -0.017769108 -0.08783123 0.20036215 0.24402192 -0.067494646 0.089694984 0.11810844
-0.11933405 -0.20002538 -0.12507123 -0.069211975 -0.05037756 -0.02577105 -0.053703327 -0.13464433
-0.19774215 -0.02656288 -0.06297211 -0.07337587 -0.25189433 -0.13465086 0.12629455 -0.1603856
-0.15787673 -0.20718539 -0.14192696 -0.12508209 -0.018860335 -0.12422241 -0.06269239 -0.17786887
-0.017944384 0.07910903 0.057086583 -0.095737204 -0.08821913 0.023910742 -0.12111457 -0.14495555
-0.15288906 -0.09548632 -0.22957076 0.02845321 -0.11527479 -0.16010936 -0.026554529 -0.042039916
-0.1451101 -0.117359444 -0.014610495 -0.08650537 -0.17727041 -0.0830783 0.36916655 -0.08230554
0.39637408 0.08578557 -0.09742423 0.32758263 -0.090663515 0.18786232 -0.15084235 0.5183585
0.32929036 -0.14770527 0.52963644 0.61415344 0.530367 0.33157513 0.52347845 0.37823606
0.4294996 0.46396625 0.3848823 0.15236315 0.18631707 0.07273446 0.026046911 0.14184663
0.15741189 0.28145224 0.18644679 0.16711785 -0.046526738 0.14281084 0.034612373 -0.050399944
0.09452603 0.07680011 -0.13544594 0.08190411 0.12665485 -0.009907991 0.12068902 0.100414
0.110656045 0.00095421687 0.04700288 0.08469242 0.0067402553 0.05517941 0.17188494 0.1624159
0.27123672 0.25668594 0.25371528 0.2774448 0.3934873 0.38549918 0.3772095 0.19985752
-0.12171458 0.064474985 -0.048532605 0.070572376 0.1637003 -0.10136893 0.09071508 -0.0010110491
-0.070069104 -0.11687787 0.06003453 0.09428682 -0.049160503 -0.14773856 -0.045818314 0.039143655
-0.056806076 -0.09243035 -0.010291453 -0.23019649 -0.02894647 -0.089570776 -0.10488327 0.0974483

shared_bottom.0.bias f4 [128]
00000000: ae34 b6bd 55b9 e0bd 3f98 36be 16ad be3e
00000010: 1f9a 9fbd 2d95 523c 5872 10bd bb3b 23be
00000020: b061 17be c5c4 81bd 00c4 1cbb 5625 0ebe
00000030: cb99 29bd 717d 5fba b85b 933e 2892 14bc
00000040: c596 33be b400 7fbc d224 a33b 3a25 48bd
00000050: e3f6 0abd 4572 39bd 358b 8c3d 8e97 d4bd
00000060: e3ac bebd 029c 9e3e 331b 3fbe 5988 da3b
00000070: eb04 123e 5d7e 7f3e f4d8 71be 2d8b 43be
00000080: e01a f7bd 9346 7abd 0cf3 c0bd 9a9e 4dbe
00000090: 2c43 1cbe fd0d d3bd 4a29 e6bd 8913 98bd
000000a0: 1780 51be a92e d43c 2034 9ebd 9085 963d
000000b0: a7a1 46be 1758 16be 4344 d83c c268 ecbd
000000c0: ad93 a9bd 4e6a c4bd 4d26 0dbe 349d 5f3c
000000d0: 78ee b3bd 6fdf f639 9dc6 f43c 7446 88bd
000000e0: a710 65bd 02fa 0bbd f058 a53c 413c 59bd
000000f0: 0911 b5bd a6f0 28be 228f 1dbe 9c28 35bd
00000100: 6ae5 02be 78dc 43bc 2481 e0bd 8912 5ebe
00000110: c519 953b ad62 0d3f cbda f63e c420 893d
00000120: 98dc b1bc be1c 76bd 74b1 313c 70cf ecba
00000130: 058a 1fbe 1330 51bd 8da7 c33e 2aba 5cbd
00000140: 240b 353d e56c 0fbe e274 c0bb c0d5 05bc
00000150: 9c88 1bbe fe5e 1cbe 448d 18bd e141 4a3e
00000160: e774 0c3e 7445 ce3d 2e17 c8bc 1856 0e3e
00000170: 1767 463d 28c6 b5bd a40b 1dbe a61b 723e
00000180: f323 6fbe da85 483d 2faf 6ebe 30e7 6a3e
00000190: 7b67 b5bd 23cd 8cbc 69b3 09be ab9a d0ba
000001a0: 2131 093f f419 b5bd 2145 973e bdda 71be
000001b0: 60b0 833c 3bfe e13e 81e5 c43c 610d b33a
000001c0: 38ee 363d 6a55 35be 53f9 7dbd b318 56bd
000001d0: 5c44 3e3e 126a ebbd b6a2 87bd ad09 783d
000001e0: 6417 a6bd c47e d1bd c27a 0abe 659c babc
000001f0: 07d6 92bc 3554 b9bd 31c4 2dbd 36c7 6fbc
-0.088967666 -0.10972849 -0.17831515 0.3724143 -0.07793068 0.012852949 -0.035265297 -0.15940754
-0.14783359 -0.06336359 -0.0023920536 -0.1388143 -0.041406434 -0.0008525467 0.28780913 -0.0090680495
-0.17537983 -0.0155641325 0.0049787546 -0.048863627 -0.033926856 -0.04527499 0.06862489 -0.10380469
-0.09310319 0.309784 -0.1866272 0.006669086 0.14259689 0.24950548 -0.23617917 -0.1909606
-0.12065673 -0.06110246 -0.094213575 -0.20080033 -0.15259999 -0.103054024 -0.11238344 -0.07425601
-0.20459019 0.025901156 -0.07724786 0.07349694 -0.19397603 -0.14682041 0.026399737 -0.115434185
-0.0828012 -0.095905885 -0.13784142 0.01364832 -0.08785719 0.00047087247 0.029879862 -0.06654063
-0.055924084 -0.034173973 0.02018401 -0.05303598 -0.0884114 -0.1649805 -0.15386632 -0.04422818
-0.12782827 -0.011954419 -0.109621316 -0.21686758 0.004550191 0.5522869 0.482138 0.06695703
-0.021711633 -0.060086004 0.010845531 -0.0018067192 -0.15579994 -0.051071238 0.3821377 -0.053888477
0.044200078 -0.14006384 -0.0058733085 -0.008168638 -0.15188831 -0.15270612 -0.037244096 0.19751693
0.1371647 0.10071841 -0.024425115 0.1390003 0.048438158 -0.08875686 -0.15336472 0.2364336
-0.23353557 0.048955776 -0.23309015 0.22939754 -0.08857628 -0.01718766 -0.13447346 -0.0015915235
0.5359059 -0.08842841 0.2954493 -0.23618598 0.016075313 0.44139275 0.024035217 0.0013660603
0.044660777 -0.17708364 -0.062005352 -0.05226965 0.18580765 -0.11494841 -0.066228315 0.060556103
-0.0810993 -0.10229257 -0.13523391 -0.022779653 -0.017924322 -0.09049264 -0.04242343 -0.014634898

emotion_branch.0.weight f4 [64, 128]
00000000: 6118 4ebd 2234 b83d 5daa a0bd 0016 b4bd
00000010: 5d73 073d c3fd 1fbd 4024 b2bd 33a2 2cbd
00000020: ca43 babb ce9b babd fc5b 293d 93aa d53c
00000030: 95b0 56bd a3bf 48bd 637a 8dbd 289f 7bbd
00000040: fa55 0bbd 63be 93bd eab6 cb3c 7b99 5f3d
00000050: 85cb 39bd 4477 943d 6ce7 84bd 01d4 1abd
00000060: f16e bc3b 89dc 38bd 2b08 12bd 39d8 953c
00000070: d256 8d3d dd82 153d c14a 5e3d 13cc b8bd
00000080: 8132 ea3b 93f3 493d 9cf4 64bd 207d a0bd
00000090: 3d3d b03d 688a 4f3d 0041 d6bd daa7 5f3c
000000a0: 28f6 443d fc31 63bd 4119 853c c952 76bd
000000b0: 24a5 89bc d1bf 703d a3a5 1d3d 483a 4e3a
000000c0: b9ba 29bc 98db 04bd 730e 24bd d3ed 9dbb
000000d0: 98b9 633d f77e 9f3c b21c 253c 4fc9 62bd
000000e0: 2d35 983b 46b7 34bc e0ca 8cbc 06a2 173d
000000f0: 430d d0bc a35d 893d 5bd6 90bd d931 96bc
00000100: ca36 46bd 9768 dcbc 81d5 88bc beea cf3c
00000110: a371 79bd 2c75 97bd 9621 c6bd 4dd2 bbbc
00000120: e792 13bd c51b 47bd 7ee9 91bd cb03 e13c
00000130: 21c4 833d a7a1 1d3d ad7f 76bd ee3c 0dbd
00000140: 016c f43c 26f4 8bbd 2370 a0bc 8f1d efbd
00000150: b092 d83c 50a4 093d 1940 1dbd 2398 92bd
00000160: f8e0 b4bd 2ed4 05bd d277 a13d 9244 13bb
00000170: 09e0 8fbd 0d33 b6bd c788 80bd 97e6 85bd
00000180: f922 42bd c1b4 09bd a9bd b2bc 6898 b2bd
00000190: bb7f 34bd cccf 8fbd 4077 aa3d 8a35 8d3d
000001a0: f288 a7bd 8ec0 bebd 9260 ebbd c1b8 7a3b
000001b0: c3d5 883c c756 c4bc a282 b9bd a8ef 813d
000001c0: bc3e 743d 90c9 773d 79e2 d4bd 5627 3c3d
000001d0: 6c85 cebd 7973 acbd e013 98bc a440 68bd
000001e0: a68e 95bd ae98 623d bf42 683d 08b8 63bc
000001f0: 57fc 333d 6f64 5c3c bcd1 9f3c 67c0 1ebd
00000200: a8a1 36bd 9c88 04bb 5b7e 6e3d 3a8d 28bd
00000210: 7442 b1bd 1a8d 46bd 7ff7 1cbd 4a60 83bd
00000220: 871f 09bc 1c8a 243d f39c 313d 45ae 46ba
00000230: 60b1 7cbc b9b2 293d 4194 60bc 9ff2 a5bd
00000240: c757 b0bd e605 55bd 031d 05bd 03ef 2e3d
00000250: 81df 3fbd da99 123d 257b b6bc c0a3 e5bc
00000260: 6064 6fbd 6391 fb3b 6013 27bd f91a 3b3d
00000270: 964e 75bd 6020 d3bc d511 903d 0453 293d
00000280: b368 e4bc 5246 09bc 503f e23b 433e 2ebd
00000290: acbd 72bd 21f8 8ebd 2055 b03c 99f7 a43b
000002a0: 87eb 673c 7bd6 223d 8a4d 723c 4a8a 07bd
000002b0: 87a0 b9bd eaf7 d2bb a5e0 b2bd bbfd 99bd
000002c0: 6f70 8e3c e4e9 67bd 9d88 4cbd 407c e3bc
000002d0: 9936 6abb 964e 95bd 2ff7 f9bd 8270 013d
000002e0: 7152 a6bc 8f9d 20bc 935d a23d d7a8 273d
000002f0: ac3b 713d e1a1 183c f4c4 bd3b 2ca3 64bd
00000300: 9722 46b8 8fda 3b3d 5865 0e3c 4883 1f3d
00000310: 2350 853d b2a5 90bd 75f1 54bd 8176 31bd
00000320: 1ce8 0fbd 4e7b 793d e7ef 00be 7ad8 bdbc
00000330: 6a23 85bb 6a7c 843a 45ce 3fbd ca50 b2bd
00000340: c548 7dbc a0e2 99bd 8d13 dc3c fb5a 23bd
00000350: d478 d33a 5477 a93c 6f90 b13b cbee a9bd
00000360: c02b ba39 e4b0 aebc 6da4 10bd 66da 533c
00000370: dce2 3d3c d6f8 5a3d c10e 1a3d 8c7f f7bc
00000380: ec04 90bd ee6e 423d 5c33 8dbd a16c 7abd
00000390: fd69 483b 4d98 783d d3e9 953d ccfd 4b3d
000003a0: 0ca4 2dbd 7f43 90bc 506d 85bc 76a9 e4bc
000003b0: 8b60 9fbd ff11 a2bd 9ab2 82bc c786 e9bd
000003c0: d907 aa3c 3b06 e53c 681e b23b d8ef 81bc
000003d0: 1bc1 44bd c781 57bc 0572 98bc 5e77 883d
000003e0: 2963 823d ce0c 193d 309e 043d 031d c3bc
000003f0: 45ed 12bd 06ea 263d de8a 1e3d 17eb 16bd
-0.05031622 0.089943185 -0.07844994 -0.08793259 0.033069003 -0.039060365 -0.086983204 -0.042146873
-0.0056843506 -0.09111749 0.04134749 0.026082313 -0.052414495 -0.049010884 -0.06908109 -0.06143108
-0.03401754 -0.07214048 0.024867494 0.05458973 -0.045360107 0.072493106 -0.06489453 -0.03779984
0.00575053 -0.045132194 -0.03565232 0.01829158 0.06901325 0.036501754 0.05427051 -0.09023299
0.007147134 0.049304556 -0.05589734 -0.07836366 0.0860543 0.050669104 -0.104616165 0.013650859
0.048086315 -0.05546759 0.016247394 -0.060137544 -0.016802378 0.05877668 0.03848804 0.0007866961
-0.01035946 -0.032435983 -0.040052842 -0.0048196106 0.055596918 0.019469721 0.010077642 -0.055367764
0.004645011 -0.011030024 -0.017186582 0.037019752 -0.025396949 0.06707313 -0.07072135 -0.018334316
-0.048392095 -0.026905341 -0.01670337 0.025380488 -0.060899388 -0.07395396 -0.09674375 -0.022927428
-0.03602877 -0.048610467 -0.07124613 0.027467629 0.06433893 0.03848424 -0.060180355 -0.034481935
0.029836657 -0.06833677 -0.019584721 -0.1167556 0.026437134 0.033603966 -0.038391206 -0.07157924
-0.08831972 -0.032673053 0.07884182 -0.002247129 -0.07025153 -0.08896456 -0.06276088 -0.06538122
-0.047396634 -0.033619646 -0.021818953 -0.087204754 -0.044067126 -0.07022056 0.083235264 0.068949774
-0.08180417 -0.09314071 -0.11493029 0.0038257095 0.016703492 -0.02396716 -0.09058119 0.06344539
0.05963014 0.06049496 -0.10394759 0.04593595 -0.10084042 -0.08420462 -0.018564165 -0.05670227
-0.07302599 0.055321388 0.05670428 -0.013898857 0.043941822 0.01345168 0.019509189 -0.038757708
-0.04458776 -0.0020223027 0.05822597 -0.04115031 -0.08655253 -0.04847441 -0.03832197 -0.0641485
-0.008369333 0.040170774 0.04336257 -0.0007579069 -0.015423149 0.04143021 -0.0137072215 -0.08102917
-0.08610492 -0.05200758 -0.03249837 0.042708408 -0.04684401 0.035791256 -0.022275517 -0.028032184
-0.058445334 0.0076772436 -0.04078996 0.04568002 -0.0598894 -0.025772274 0.07034651 0.041338935
-0.027881956 -0.008378582 0.00690452 -0.042539846 -0.059262916 -0.069809206 0.021524966 0.0050343988
0.014155275 0.039755326 0.014788995 -0.033090867 -0.09063821 -0.006438245 -0.08734254 -0.07519098
0.017387597 -0.05661954 -0.049934972 -0.027769208 -0.003573811 -0.0729038 -0.1220535 0.031601436
-0.020302983 -0.00980319 0.07928004 0.040932503 0.0588948 0.009315939 0.005791301 -0.055819675
-4.7239093e-05 0.04586273 0.008691154 0.03894356 0.065094255 -0.07062854 -0.051988084 -0.043325905
-0.035133466 0.06090861 -0.12591515 -0.023174513 -0.0040630596 0.0010107879 -0.046827573 -0.087068155
-0.015459244 -0.075139284 0.026864791 -0.039881688 0.0016134032 0.020686783 0.005418829 -0.08297499
0.0003550928 -0.021324582 -0.03531306 0.012930488 0.011589732 0.053459965 0.037611727 -0.030212186
-0.07032189 0.047469072 -0.06894562 -0.061138753 0.0030580752 0.06069212 0.07319989 0.049802586
-0.042392775 -0.01761031 -0.016287476 -0.027912837 -0.07782086 -0.07913589 -0.015954304 -0.1140266
0.020755695 0.027957072 0.0054357536 -0.015861437 -0.048035722 -0.0131535 -0.018609056 0.066633925
0.063665695 0.037365727 0.03237742 -0.023817545 -0.03587081 0.040750526 0.038706653 -0.036845293

emotion_branch.0.bias f4 [64]
00000000: 8ab6 bbbd e71f 0bbd 20f0 15bd c8fa c53a
00000010: 439c 0abe 6948 8cbd 9253 bfbd 1874 2abe
00000020: 41a9 51be 98b0 34be 509c 00bd cdee 1abe
00000030: 7be0 b9bc 1ec4 46be 507e eabd f112 6bbd
00000040: 575a bbbd 7146 3abe 5ba1 cfbc 1ac1 ea3b
00000050: 0145 72bd 2a37 46be 73b9 38be 65fe 58be
00000060: 587d c3bd cb1e 87bd d838 febc 253e 05bd
00000070: f939 d0bd 311e 36be 1a0e 03be a948 c2bd
00000080: c0e9 5cbd 5da7 c3bd f59f 56be c3ad 8e3c
00000090: eed7 23be 874a ccbd 418d cfbd c8c0 4cbe
000000a0: a038 0ebe f117 b73b eeb7 a7bd cf61 c6bd
000000b0: 59c5 dbbd 7688 4fbe ae8c 8cbd 6270 11be
000000c0: b672 08be 8ffa c7bc ea92 0bbe 695f 9dbd
000000d0: ce40 7bbe 4bf5 f1bd bbe1 17be c644 6fbe
000000e0: 6068 06be cfc9 24be 8922 8bbd fa95 debd
000000f0: c958 a0bd afb7 54be a820 e6bd 52ad f1bd
-0.09165676 -0.03396597 -0.036605954 0.0015104646 -0.13536172 -0.06849749 -0.09342112 -0.16645849
-0.20474721 -0.1764549 -0.03139907 -0.15130158 -0.022690048 -0.1941075 -0.114498734 -0.05739111
-0.0914809 -0.18190934 -0.025345495 0.007164133 -0.05914784 -0.19356981 -0.18039493 -0.21190794
-0.09545392 -0.0659767 -0.031032965 -0.03252997 -0.101673074 -0.17784955 -0.12798348 -0.09486515
-0.05393386 -0.095534064 -0.20959456 0.01741684 -0.1600034 -0.099751525 -0.10134364 -0.19995415
-0.13888788 0.005587571 -0.08189379 -0.09686624 -0.107310005 -0.202669 -0.0686277 -0.14203027
-0.13325009 -0.024411468 -0.13630262 -0.07684214 -0.2453644 -0.11814364 -0.14832203 -0.23366079
-0.13125753 -0.16092609 -0.067936964 -0.108684495 -0.078294344 -0.20773195 -0.112366974 -0.11800636

emotion_branch.2.weight f4 [8, 64]
00000000: 3001 753c f47b dd3c 5d10 cd3d e1ab 583d
00000010: 0dd8 ee3c 1110 e5bc 0910 fc3c a150 c3bb
00000020: 91a9 fd3c a09d 63bc 6bc9 883d 9b5f f13c
00000030: 061d a53d 832b 13bd 757b 67ba 2764 0b3c
00000040: 51ee b0bd 9799 69bd 3641 5d3c 5674 34bd
00000050: bb78 ea3c 80e1 5c3d d71f 39bd 2f2e fcbd
00000060: 92cf a2bd f83f 8c3c 2b7f 5fbb 75d5 953d
00000070: 6fea b9bd 4a93 113d dc71 93bd 4618 123c
00000080: 1bfb 92bd c0a0 f53c 3462 863d 04bf d73b
00000090: 40a4 7cbd 75f7 063c 3ea4 4dbc e08d 90bc
000000a0: beeb 4abc 5b1e 843d bc0b 26be 8590 023d
000000b0: 85c0 9d3b 1c68 32bd ea8c d73c a3f2 9cbd
000000c0: 30ff e5bb 54ab 873d d849 8ebb 5f1c c5bd
000000d0: bec8 a73c ecea 803d e20b bcbc fa1c 8cbd
000000e0: 3bca 883d 8c7a b23c 01d8 05bc bf4b a3bc
000000f0: 8773 5a3d a0d8 253c 77fd a5bb fdf0 5b3c
00000100: 258c f8bd 35f6 bbbd d5e6 0abc d4f7 ff3c
00000110: 3263 2e3d 6907 203d 58f3 1b3d fa30 02bd
00000120: 083b 963d c4d9 1cbd 470d e0bd e387 463d
00000130: 42c4 2fbd d7a4 abbd f615 e2bb a043 293d
00000140: ec47 87bd 873c dd3c 377d e03c 5ff8 d0bc
00000150: ab03 d73c fdf2 083d 8907 293d 12ea 3d3d
00000160: 70f6 073d e0fd 513d 9d79 ca3c 9bee 943d
00000170: c7e7 873d c37f 6d3d eda2 d3bc f08e 17bd
00000180: f6b3 203d f254 5d3d b726 62bd 460f 95ba
00000190: 8211 0ebd 00fd 0c3d a85e d1bc 77f7 d73c
000001a0: 9d2e 51bd 2a12 823d 8641 d23c 0939 5abd
000001b0: 2711 813c 3ddd 81bc 23a2 86bd 6b0f fc3c
000001c0: df21 b7bd da24 d03d c9f7 d5bc a939 aebc
000001d0: 4763 353c 46d3 75bd dc47 523d b0fb e9bd
000001e0: 6e52 a53d cd57 253d 686e 7bbd 9c5a 7cbc
000001f0: c9bd 4b3d e368 c2bd 735b 2b3b 6c18 4fbd
00000200: da62 0bbc 26b5 7a3b 1ece f9bc 06cf 0ebd
00000210: f730 523d fffc 893c e803 2c3d 665e abbd
00000220: 317c 843d 0a34 d0bd 1531 f5bc cbab 4a3d
00000230: 0557 61bd ab1f 76bd a308 77bd b7be c03d
00000240: f2a6 9b3d bb13 b63c 64b2 dabc e7c3 453d
00000250: e5de 84bd b6cf 9abd 2604 803d cbf2 463c
00000260: 8ecf 493d 071e eabc 700b 3abd c759 c83d
00000270: 532a 133c 4111 533d 0633 11bd 2444 3b3d
00000280: 303b 233d 397e 7a3d 919f b43d 4476 01be
00000290: 04db 7d3b 42ac 0f3d 7887 23bd 3798 64bd
000002a0: b593 7a3d ff17 90bd e852 fbbc 7909 8cbc
000002b0: 7ead fcbd 2fd0 853d ec6c cb3a 7e26 77bd
000002c0: 9e4a 383d 1327 7dbd 78f1 8bbd ff4e 31bc
000002d0: ed62 22bd 4ce1 323c e3b6 863c 454e d1bc
000002e0: 9405 04bd 3049 2f3d 538c ae3d 7ce7 e3bb
000002f0: 5c5d 90bd ff6f b33c 71db 423d 75ac 9cbd
00000300: 512f eabd ea6d 6fbd c0b8 843d a6a8 a53d
00000310: 4560 33bd 47fa f83b cf33 abbc 2433 823c
00000320: 94d1 4dbd a79b 54bd e738 aa3c f9a0 37bc
00000330: 0e75 333d d976 b53b 629b 5ebd 3eb5 803d
00000340: 0678 963d 1011 413d 3b46 da3c 18b0 213c
00000350: 467c 823d da4d 933c cdde 743b 55ef 243c
00000360: 0636 e2bc 76ea 38bd a81d 24bd 296d cbbd
00000370: e142 333d 767a 583d ff9b e2bc d93d 9ebd
00000380: 4d33 3b3d 04ac 75bd 8fcb b5bd 2228 2e3d
00000390: f045 96bc 89a3 afbd 224f a03c 354e b23c
000003a0: 0748 d13d 9500 18bd fb12 0638 72f2 59bd
000003b0: 3932 8c3d 2e17 6bbd 8e1e 9dbd 2a7b 933c
000003c0: 62b5 8bbd 10a5 acbd 5524 123d a099 1b3d
000003d0: b2e4 b7bd a11f b6bd 3306 3bbd d216 e3bc
000003e0: d9f3 823d 24cf 173d acc1 09bd d91f 673c
000003f0: 3a90 483d 992c a1ba 9653 343d e442 8c3c
0.014953896 0.027036645 0.10012887 0.05289829 0.029155755 -0.027961763 0.030769365 -0.0059605394
0.030964645 -0.013892561 0.066790424 0.029464534 0.080621764 -0.035930168 -0.0008830347 0.008507765
-0.08639205 -0.05703124 0.013504317 -0.04405626 0.028622022 0.05392599 -0.04519638 -0.12313496
-0.07949747 0.017120346 -0.0034102898 0.07316104 -0.09077918 0.035540856 -0.07199451 0.00891692
-0.07176801 0.029983878 0.065616995 0.00658405 -0.06168008 0.008237709 -0.012551365 -0.017645776
-0.012385307 0.06451102 -0.16215414 0.031876106 0.00481421 -0.043556318 0.02631231 -0.07663467
-0.007018946 0.06624475 -0.004342299 -0.09624552 0.020481464 0.06294808 -0.022954885 -0.06841464
0.066791974 0.02178695 -0.008169175 -0.01993358 0.05333283 0.010122448 -0.0050656158 0.013424155
-0.121361054 -0.0917782 -0.008477886 0.031246103 0.04257507 0.039069567 0.038073868 -0.03178499
0.07335478 -0.038293615 -0.109400325 0.048469435 -0.042911775 -0.0838105 -0.0068995906 0.041324258
-0.06605515 0.0270064 0.027403457 -0.025509058 0.026246866 0.033434857 0.04126695 0.046365805
0.033194005 0.051267505 0.024716193 0.07272073 0.06636005 0.05798317 -0.025834525 -0.03700155
0.039234124 0.05403609 -0.055212703 -0.001137235 -0.034684666 0.034420967 -0.02555783 0.026363118
-0.051069845 0.06351121 0.02566601 -0.05327705 0.01575525 -0.015852565 -0.06573894 0.03076907
-0.08942007 0.10163279 -0.02611913 -0.021267729 0.011071033 -0.06001594 0.05133806 -0.11424959
0.08072363 0.040366936 -0.06138459 -0.015402462 0.04974154 -0.09492662 0.0026147037 -0.0505604
-0.008507455 0.0038254946 -0.030493792 -0.0348654 0.051316228 0.01684427 0.041995913 -0.083676144
0.06469 -0.10166176 -0.02993063 0.04948024 -0.05501463 -0.060088795 -0.06031097 0.09411376
0.07600202 0.022226205 -0.026696391 0.04828253 -0.06487826 -0.07559149 0.06250791 0.012142847
0.049270205 -0.028578771 -0.045421064 0.09782749 0.008982259 0.051530126 -0.03544905 0.04571928
0.039851367 0.06115553 0.088194974 -0.12642771 0.003873528 0.035076387 -0.039924115 -0.055809226
0.06117602 -0.07035827 -0.030679181 -0.01709436 -0.123377785 0.065338485 0.0015520132 -0.060339443
0.044993035 -0.061804842 -0.06833166 -0.010822057 -0.039645124 0.010917973 0.016444629 -0.025550017
-0.032231882 0.042794406 0.085228585 -0.0069550853 -0.07049057 0.02190399 0.047572557 -0.07650081
-0.11434806 -0.05845443 0.06480551 0.08088808 -0.04379298 0.0075981948 -0.020898728 0.015893526
-0.050248697 -0.051906254 0.020779086 -0.0112078125 0.043812804 0.0055378494 -0.054347403 0.06284569
0.073471114 0.047135413 0.026644817 0.009868644 0.063713595 0.017981458 0.0037364245 0.010066827
-0.027613651 -0.045145474 -0.040067345 -0.0993293 0.043764953 0.052851163 -0.027662275 -0.0772664
0.04570322 -0.0599785 -0.08876716 0.042518742 -0.018343896 -0.08576114 0.019568983 0.021765808
0.10218816 -0.03710993 3.1965767e-05 -0.05320973 0.06845517 -0.057395153 -0.076718435 0.018003065
-0.068217054 -0.08429921 0.03567918 0.037988305 -0.08979167 -0.088927515 -0.04566021 -0.027720843
0.063941665 0.03706278 -0.033631966 0.014106714 0.04896567 -0.0012296616 0.044025026 0.01712174

emotion_branch.2.bias f4 [8]
00000000: 4fea 23bf 5040 c73e 59e1 d5be 943c d6be
00000010: 05e5 6fbf ab30 353f 5fc9 86be e59a 84be
-0.640294 0.38916254 -0.4177349 -0.41843092 -0.9370883 0.70777386 -0.2632551 -0.25899425

focus_branch.0.weight f4 [64, 128]
00000000: fff0 86bd bb6e 2c3d 533a 793d ff3b b5bc
00000010: 931f a8bd 4478 7b3d 8638 54bd c088 acbd
00000020: 54c3 dd3c 33c1 5c3d 58c5 23bd 060f 6a3c
00000030: 55e2 3abd 16ec 5a3c a632 c4bc bc7d 833b
00000040: bc75 a7bc 61fa adbd c9b0 0d3c 2c53 fe3c
00000050: 4170 37bb fd73 453d 2d38 b23c 47ad 92bd
00000060: 3099 fa3c f2c0 9ebc 190d 78bd a1bb 7bbd
00000070: e3d8 c3bd 7fa0 80bd f70f 98bb d9f5 98bd
00000080: 2879 48bc 8d35 3a3d e477 c6bc bc9a 823d
00000090: 8886 45bd 93c1 b4bd 64dc 0bbe 2be4 9d3c
000000a0: af29 fbbc 9e2e 3a3d 08da 6e3d 9f11 373b
000000b0: a44b f7bc 17cd abbd 0c80 36bd ac1e 433d
000000c0: 2137 03bd d60d 803b 9f96 ba3c 28a7 8bbd
000000d0: 4080 9e3b e044 aebd a39d 72bd 0ee5 66bd
000000e0: c9c1 b43c 10c3 033d 5444 493d 01a6 8a3c
000000f0: b4a9 e23a 9bf1 ccbd 85eb 98bd b4bc 80bb
00000100: c5a8 563d 21b3 fcbd e8a1 cdbd a1d7 6d3d
00000110: 54e4 2d3d 4665 51bd 0db6 25bd 4d60 8c3d
00000120: 0ce8 92bc 5c88 5a3d db29 cdbd fa6d bcbd
00000130: d3d9 85bd 7b82 033d 4347 dbbc 0061 edbb
00000140: 33bc 2abd 2277 9bbd 36fb 8e3c ab6f 2bbc
00000150: 35e7 6bbb 72ff 31bd 4835 d6bd 9d44 73bd
00000160: 5ed4 cd3c 7f1c ebbc d152 2abd 6e9d 983b
00000170: b70e 863d 5ff1 283d e738 c8bd 7973 41bd
00000180: 77b5 bbbc 4422 103d 0d8b b7bd 78ea c2bd
00000190: 66a3 9abc ce7f 33bc 1370 82bd a6d5 0c3d
000001a0: 94c8 4fbd 4d22 c83c 3ab2 d3bc f98a aabd
000001b0: 2fff 4e3d b742 54bd ec4c 063b c84d 50bd
000001c0: 1e11 54bd 878f afbd 209b a7bb 8fb4 c3bd
000001d0: af19 883c 71da 86bd 0b29 843d 087b 493c
000001e0: b963 13bd 2d1a babd cb52 76bd f4d0 11be
000001f0: 85e5 ff3c fd86 76bc a7ac 19bd 1ec5 6abd
00000200: 6d1f bcbd ccb6 edbd eb10 fb3b 6536 12bd
00000210: ed2d f0bd 71c8 81bd e9e0 82bb d175 86bd
00000220: dade 553c 6e27 21bd e06c 22bd 9b0e b8bc
00000230: 2428 9b3c 98ef 46bd 010c 72bc 9da8 1bbe
00000240: df3f b5bd f003 cdbd d3ac 6cbd 7f58 823d
00000250: 4dc5 1bbb 7f44 7bbd 8981 87bd 88c0 87bd
00000260: 189c debb a84d 06bd 1a5c 23bd 09fe 4e3d
00000270: bd82 cebd a817 a1bd bffa 81bd 6583 92bd
00000280: d9b7 f2bd 5ebc 1f3d c74d 96bd 547c a83c
00000290: 4036 13bd cd46 313c f547 8ebd e65d 74bd
000002a0: 8432 7dbd e147 993d b616 9b38 433e 4ebc
000002b0: 9fe6 723d 7528 84bc 671b af3d 0d76 81bd
000002c0: d10a 56bc d064 a13c 1051 a5bd 37e7 22bc
000002d0: fb5b 9ebd 8b6c 9a3d 1333 89bd 0c8f 22bd
000002e0: 9a27 f3bc 4bf0 803c d777 eaba 86b9 083d
000002f0: b545 6fbd 68f8 3bbd d34e 573d d183 1ebe
00000300: 64c2 753d d369 523c af34 b8bd 1144 093d
00000310: 0887 1dbd 5d40 94bd 6dad 8abd fc6d bdbc
00000320: cb58 5e3d 252a 9ebd 83c6 dcbb 7736 81bc
00000330: 321d cebc 8a9d 4dbc f176 f2bd d875 d2bd
00000340: 2fee 183d b047 a4bc 37b6 0f3d c457 5fbd
00000350: 3c45 e0bc 7353 a0bd 4b9b c2bd b3ba 02be
00000360: fd58 cfbd ab94 b7bd 0a1d 6d3d 2c44 ba3c
00000370: c611 20bd 2f3f a53c 9265 8d3d d7f2 9bbd
00000380: c0e4 50bd cba1 8f3d 2d65 ce3c d1f3 ef3a
00000390: d327 5dbd ace0 853d 4536 d13a 3fe3 4cbd
000003a0: 0835 69bd 0caf 98bd 85fb 6dba a092 edbc
000003b0: 1b90 313d 175b 17bd 5bcd dabd 0f5f b23d
000003c0: 4b97 a7bd 9440 c7bd b132 e03c 08a9 ba39
000003d0: 3000 d3bd deea a8bb 9a12 63bd c0d3 c0bb
000003e0: ea29 52bd e76c ec3c 5dd7 163d 6fe4 debd
000003f0: 53c1 9bbd ac5a fd3c 4c1b 19bd 3ca1 fdbc
-0.06588935 0.04209779 0.060846638 -0.022123335 -0.08209147 0.06139399 -0.051811717 -0.084245205
0.027070679 0.053895187 -0.039983124 0.014285808 -0.045626003 0.013361951 -0.023949932 0.0040127914
-0.020441882 -0.084950216 0.008648106 0.031045519 -0.0027990493 0.04820632 0.021755302 -0.07161956
0.030590624 -0.019379113 -0.060559366 -0.061458234 -0.09562852 -0.06280612 -0.004640575 -0.07468767
-0.012235917 0.045461226 -0.02422709 0.063771695 -0.048224002 -0.08825984 -0.13658291 0.019273838
-0.030659525 0.045454614 0.0583134 0.0027934087 -0.030187435 -0.08388727 -0.04455571 0.047636673
-0.032034997 0.0039078994 0.0227769 -0.06818992 0.004837066 -0.085092306 -0.059232365 -0.056370787
0.02206506 0.032168448 0.04913743 0.01692486 0.0017293007 -0.1000702 -0.07466797 -0.003928745
0.052407045 -0.123388536 -0.10040647 0.058066968 0.04245408 -0.051121973 -0.04045682 0.068543054
-0.017932914 0.0533527 -0.10017749 -0.09200664 -0.06535687 0.032106858 -0.026767379 -0.0072442293
-0.041683387 -0.07591082 0.017453771 -0.010463635 -0.0035995964 -0.043456502 -0.10459381 -0.059391607
0.025125679 -0.028700111 -0.041582886 0.004657439 0.065457754 0.041245814 -0.09776478 -0.047229264
-0.022913678 0.03518893 -0.08962069 -0.095173776 -0.018876743 -0.010955764 -0.06369033 0.03438344
-0.050728396 0.024430418 -0.025841821 -0.08327288 0.05053633 -0.051821437 0.0020492626 -0.050855428
-0.051774137 -0.085722975 -0.005114928 -0.09555923 0.01661381 -0.06584633 0.06453141 0.012297399
-0.035983775 -0.09087024 -0.06013755 -0.14239866 0.031237373 -0.015046832 -0.03751817 -0.05731689
-0.091856815 -0.11607131 0.007661929 -0.035696406 -0.1172751 -0.06337059 -0.0039940965 -0.065654404
0.01305362 -0.039344244 -0.039654613 -0.022467902 0.018940039 -0.04856834 -0.01477337 -0.1520104
-0.08850073 -0.10010517 -0.057782006 0.063645355 -0.0023768723 -0.06134462 -0.06616504 -0.06628519
-0.00679351 -0.032788903 -0.039882757 0.050535236 -0.1008353 -0.0786584 -0.06346654 -0.07153968
-0.118514724 0.038998 -0.073390536 0.020567097 -0.03594041 0.010820103 -0.069473185 -0.05965986
-0.061815754 0.07484413 7.395206e-05 -0.012588087 0.05930197 -0.016132573 0.085501485 -0.063213445
-0.013064102 0.019701391 -0.08072102 -0.009942821 -0.07732388 0.07540234 -0.06699195 -0.0396872
-0.02968197 0.01573958 -0.0017888498 0.033380054 -0.058416087 -0.045891196 0.052565407 -0.15479971
0.05999984 0.012842613 -0.089944236 0.03351218 -0.038458854 -0.07238839 -0.067713596 -0.023123734
0.0542839 -0.07722882 -0.0067375316 -0.015773041 -0.025160406 -0.012549767 -0.118390925 -0.10276383
0.037336525 -0.020053715 0.035085883 -0.05452706 -0.027376764 -0.07828417 -0.09502276 -0.12766533
-0.10124395 -0.08963903 0.057889022 0.022737585 -0.03907945 0.02017173 0.069041386 -0.076146774
-0.050999403 0.070132814 0.025194729 0.0018306916 -0.053993057 0.065369934 0.0015961608 -0.050021406
-0.05693534 -0.074552625 -0.0009078312 -0.02900058 0.04335032 -0.036952104 -0.106837 0.08709537
-0.08183154 -0.09729114 0.027367922 0.00035602623 -0.1030277 -0.0051549515 -0.05543766 -0.0058846176
-0.051309504 0.028860522 0.03682648 -0.10883414 -0.07605233 0.030927025 -0.037379548 -0.030960672

focus_branch.0.bias f4 [64]
00000000: 86be e23c 0ebf 38be 550f 4ebe 847d 47bd
00000010: 5252 a83d 23a4 55be 8aef 7ebd c14d aa3b
00000020: 36ae f9bd 1b10 82bd cd76 e4bc 4acb 45bd
00000030: 1d18 d6bc 1e98 22be e9dc dcbd b21e b13d
00000040: 9bd3 61be 5f2a a6bd 8f44 0ebe 0da7 84be
00000050: 8509 febd 0e5b 3cbe ff62 b5bd 03f8 25be
00000060: 9c9c bcbd 394b ecbd f898 2abe d0cb 0cbe
00000070: 7fdf adbd 1fa1 183d 305f 95bd 7960 39be
00000080: 2403 26be f385 8abd 14e0 7dbe bec8 0bbe
00000090: c68c 2abd 5159 c7bd f3c0 28be 0ba0 52be
000000a0: 1f3c 2abd f926 df3c 781a aebd 1467 eebd
000000b0: 0d64 3abe 7296 71be ae84 8fbd 2954 aa3d
000000c0: b961 eabd 7962 48bd 16a9 42be 12d8 a1be
000000d0: f1a0 d0bb 53a5 1f3b d82b 16bd 9de7 1dbe
000000e0: f9a2 53be a2cc acbc 4da8 22bd e5da 0ebe
000000f0: d937 713c 1e74 54bd 7014 5c39 61bf a6bd
0.02767874 -0.18041632 -0.20123036 -0.048703685 0.08218826 -0.20863394 -0.06224016 0.0051972573
-0.12191431 -0.06350728 -0.02788868 -0.048289575 -0.026134545 -0.1587834 -0.10784323 0.08648433
-0.22053377 -0.081135504 -0.1389334 -0.259087 -0.124041595 -0.1839411 -0.08856773 -0.1620789
-0.09209558 -0.11537785 -0.16659915 -0.13749623 -0.08489894 0.037263032 -0.07293546 -0.18103208
-0.16212136 -0.0676383 -0.2479251 -0.13650796 -0.04163816 -0.09733833 -0.16479854 -0.20568864
-0.041561242 0.027240263 -0.08501142 -0.11640754 -0.18202229 -0.23592547 -0.070077285 0.083168335
-0.1144442 -0.048922036 -0.19009814 -0.3161016 -0.006366842 0.0024360016 -0.036662906 -0.15420385
-0.20667638 -0.02109367 -0.039711285 -0.13950689 0.014722788 -0.05186855 0.00020988449 -0.081419714

focus_branch.2.weight f4 [2, 64]
00000000: ee7e b63d 068a 373d 303d 763d fbeb 8abd
00000010: cc98 b4bd 36f0 bbbd 99b6 393d 2669 313d
00000020: 88f8 973c dd32 2bbd ae80 e1bc 6b02 3b3d
00000030: 72d2 843d f63d 39bd 6e5c 363c 789c c1bd
00000040: fa2e 2bbd 4ade 2cbd 70eb 54bd 3432 7ebd
00000050: 3cae 6e3d 57ea 12bd 2028 1e3d 4349 c8bd
00000060: 7a2f 08bd c6ee 9a3d 6ed9 cebc eb57 d2bd
00000070: bf54 d13c d836 2abd 0661 a9bc ebd3 bbbd
00000080: 8a8d 4f3d 8698 68bd 02b3 9bbc 2155 e0bc
00000090: 24d1 1f3d 7ebf db3d c77b 993d f3cc 78bd
000000a0: 291e 1c3d 3976 013d 2198 68bd abef 813b
000000b0: bd09 b93d d3ff fb3d f277 1fbb 5ba4 c0bc
000000c0: 8ddd 853d 6e75 013d 4c73 35bd 50dd 09bd
000000d0: 856e 9bbd 3b27 86bc e79b 7ebc b9f0 983d
000000e0: baab 49bc 11e9 8b3c 288d 9e3b 9c79 703d
000000f0: 1e3f 0339 c27d 2d3d 0c65 d5bd 937a 653d
00000100: a4f4 bebd f9d4 473d ef12 433d 98da 6ebd
00000110: feda 07bd f075 34bb 411b 993d 62be 1a3d
00000120: a49f 93bc ee66 85bd d5d8 96bd 4d0d f33c
00000130: 849a de3d 865a 933d f069 2f3d fd7b 1cbd
00000140: f4c1 adbd 3198 cdbc eb4c 123d 4638 5ebd
00000150: 5556 d23d fdab b7bd 7f89 0e3c 80b7 e8bd
00000160: 1027 bb3c 7775 083d a8e6 acbd 6390 5ebd
00000170: 4191 563b 0028 cdbd 0c17 9cbd e2a9 f1bc
00000180: 54f5 aa3d 0673 36bd ee00 76bd 13b3 babc
00000190: 833e 3f3d 7bc2 873d c1ef f13d 6d22 5cbc
000001a0: f506 c33d f6ae e1bc 5393 363d e771 8c3d
000001b0: 135a 103d 385c 953d 143f e0bc c350 a33c
000001c0: c13c 9f3c ae08 8cbc 5e75 febc 5948 d9bc
000001d0: 6b44 a9bd 2d1b 8ebc 6eb5 81bd ac27 f83c
000001e0: 2145 3a3c 423b a3bb b718 093d 74e3 853d
000001f0: d320 ffbc 3cf9 af3d 273b 46bd 6e36 1d3b
0.08910929 0.044809364 0.060116947 -0.06783291 -0.08818206 -0.09176676 0.045340154 0.043313168
0.018551126 -0.041796554 -0.02752718 0.045656603 0.06485452 -0.045225106 0.011130435 -0.09453672
-0.041792847 -0.04220418 -0.051982343 -0.062059596 0.05827163 -0.035868015 0.038612485 -0.097795986
-0.033248402 0.07565074 -0.025250163 -0.10270675 0.025553105 -0.04155621 -0.020676147 -0.091712795
0.05067209 -0.056786083 -0.019006256 -0.027384343 0.03901781 0.107298836 0.07494312 -0.06074233
0.0381147 0.031606887 -0.056785706 0.003965338 0.090350606 0.12304654 -0.0024332968 -0.02351587
0.06536398 0.03160613 -0.04429941 -0.033658326 -0.07589439 -0.016376128 -0.0155401 0.07467789
-0.012309009 0.017078908 0.0048386045 0.058709726 0.00012516647 0.04235626 -0.10419664 0.0560251
-0.09324005 0.04878709 0.04762548 -0.058313936 -0.03316783 -0.0027536117 0.074759014 0.03777922
-0.018020459 -0.06513773 -0.07365576 0.029669428 0.10869315 0.07195 0.04282564 -0.038204182
-0.08484259 -0.025096985 0.035717886 -0.054252885 0.10270373 -0.08968351 0.008699774 -0.11363125
0.022845775 0.03331515 -0.08442432 -0.054336917 0.0032740387 -0.10017395 -0.07621583 -0.029499952
0.08347574 -0.04454329 -0.06005948 -0.022790467 0.046690475 0.06628891 0.118133076 -0.013435942
0.09522811 -0.027549248 0.044574093 0.06857663 0.03524215 0.0729298 -0.027373828 0.019935971
0.01943815 -0.017093983 -0.031061824 -0.026523756 -0.08265003 -0.017346943 -0.06333433 0.030292355
0.011369021 -0.0049814293 0.033470836 0.06537524 -0.031143581 0.085924596 -0.048396256 0.0023988741

focus_branch.2.bias f4 [2]
00000000: e1d6 03bf f025 b43e
-0.51499754 0.35185194
