pth/shared_bottom_mlp_model.pth (torch, 68431 bytes, 8 tensors)

shared_layers.0.weight f4 [128, 58]
-0.13183741 -3.2987487 -3.908051 0.11585288 2.053146 -4.010418 -0.082835644 -1.1966187
3.3681164 -2.4314902 -4.041898 -1.3878739 -7.7038155 -1.7724129 -7.7497535 -2.2639275
1.6924334 -0.4856771 1.2391764 -0.5791259 1.0481097 1.5180923 13.692464 2.3198779
-8.504234 -17.48559 8.672712 7.9991717 -1.0034623 -8.752543 0.020909145 -0.46756795
-5.4185743 5.5452113 4.086351 -21.371672 -7.4947767 -9.563882 5.875864 0.038918942
0.26286754 -1.494066 -1.6086302 -0.49442336 -0.3282422 0.091408506 0.114200465 -0.19971742
0.076395355 -2.8203912 -22.282812 -10.906747 17.909712 0.80309737 5.764029 7.3928633
2.6183476 -8.589163 -0.21358985 -0.08688671 -0.380652 -0.07516529 -0.20054199 -0.32164362
-0.123636074 -0.2966585 -0.31140077 -0.1145714 -0.20020564 -0.3655154 -0.41422278 -0.18844713
-0.4900206 -0.20705283 -0.1913571 -0.24651523 0.04734538 -0.120390944 0.006961639 -0.28487816
-0.41258353 -0.21340604 -0.33262673 -0.06071913 -0.17182617 0.09100241 -0.19379677 -0.73045
-0.3379849 -0.47477254 0.24619533 -0.32314134 -0.2547889 -0.019998917 0.58218414 0.7266917
0.32609636 0.055302963 0.11791907 -0.07427828 -0.2152847 -0.44378743 -0.2961637 -0.032928582
-0.29941928 0.101611614 -0.009075781 -0.07782651 -0.37384245 -0.12869604 0.042751476 -0.2594272
-0.17490382 -0.16408762 -0.1742673 -0.037904117 -0.18991767 0.0025317583 -0.66521513 0.009073406
-0.041842975 -0.5303285 0.06611462 -0.31232446 0.005812056 -0.052967433 -0.16011393 9.273426e-06
-0.2918913 -0.10831495 -0.37031287 0.018167084 -0.08265296 -0.18718411 -0.056422662 -0.19168477
-0.15874705 0.045541685 -0.12636945 0.50078225 -0.22308119 0.41308126 -0.18616058 -0.19801457
-0.48595127 0.36346042 0.3663304 -0.062665306 -0.026634855 -0.19052348 -0.28203872 -0.31044793
-0.03071686 -0.1689543 -0.24608472 0.1262986 0.21910481 -0.13341053 -0.21305521 -0.117592916
-0.15107992 -0.53162754 0.50197166 0.011139121 -0.06849938 -0.3780192 -0.17578322 -0.5290105
-0.2838628 -0.20538266 -0.19370902 -0.17169917 -0.1747406 -0.42867664 0.024512352 -0.09230102
0.0063115843 0.07505353 -0.10229066 -0.13201289 -0.032227226 -0.17946288 -0.056831792 -0.10290927
-0.14266084 -0.10483825 -0.12363069 0.059335016 -0.16164601 0.0707359 -0.1507794 -0.1201388
-0.0010051115 -0.14054006 -0.15512584 0.0003647703 0.050905656 -0.08579798 0.04567674 -0.09403616
0.019213103 -0.0037304584 0.033074852 -0.18113823 -8.0898404e-05 -0.014149718 0.08728298 0.094133124
0.05190932 -0.0113333985 -0.022753924 0.09952511 0.11882427 -0.059321523 0.041846365 0.017249601
-0.053437535 0.027650157 0.008735299 0.12958866 -0.10666456 0.12492147 -0.07817089 -0.21178341
0.02984123 -5.573439e-05 0.034242403 -0.024587763 -0.057808444 -0.13311908 -0.001482183 0.059465304
-0.1618284 -0.1614501 -0.001744055 0.115162 -0.1533194 -0.048731036 -0.03218531 -0.17515413
-0.081446804 0.011968289 -0.0011497516 -0.057799652 -0.017859684 -0.0467073 0.03556221 0.06950302
-0.03777051 0.034776405 -0.13441096 0.010504149 -0.099765584 0.06612286 -0.032871358 -0.18571366
00000000: 6300 07be b31e 53c0 821d 7ac0 4644 ed3d
00000010: be66 0340 5855 80c0 bca5 a9bd cd2a 99bf
00000020: 388f 5740 899d 1bc0 3a57 81c0 daa5 b1bf
00000030: a885 f6c0 6dde e2bf fbfd f7c0 30e4 10c0
00000040: a8a1 d83f abaa f8be 559d 9e3f 9841 14bf
00000050: 7528 863f d950 c23f 5514 5b41 e178 1440
00000060: 5811 08c1 7de2 8bc1 6ec3 0a41 37f9 ff40
00000070: 7471 80bf 6b0a 0cc1 a849 ab3c 1165 efbe
00000080: f664 adc0 5f72 b140 63c3 8240 2ff9 aac1
00000090: 36d5 efc0 a905 19c1 1407 bc40 7869 1f3d
000000a0: 9396 863e 8e3d bfbf 98e7 cdbf 0f25 fdbe
000000b0: 5d0f a8be 6234 bb3d efe1 e93d b982 4cbe
000000c0: 2b75 9c3d 4a81 34c0 3343 b2c1 0982 2ec1
000000d0: 1747 8f41 ca97 4d3f ed72 b840 5692 ec40
000000e0: 0293 2740 366d 09c1 4cb7 5abe a9f1 b1bd
000000f0: d2e4 c2be 42f0 99bd e15a 4dbe 79ae a4be
00000100: e934 fdbd 9fe3 97be ec6f 9fbe 69a4 eabd
00000110: b502 4dbe d624 bbbe 0215 d4be 49f8 40be
00000120: fbe3 fabe a805 54be 1ef3 43be 7d6e 7cbe
00000130: 3bed 413d 878f f6bd 761e e43b 8ddb 91be
00000140: 263e d3be 1d87 5abe 0d4e aabe 9fb4 78bd
00000150: 33f3 2fbe 795f ba3d a972 46be c5fe 3abf
00000160: 5b0c adbe 6315 f3be a11a 7c3e c872 a5be
00000170: b173 82be c5d4 a3bc 050a 153f 7808 3a3f
00000180: 1af6 a63e 5c85 623d 8e7f f13d 361f 98bd
00000190: 9873 5cbe 1b38 e3be c5a2 97be 1fe0 06bd
000001a0: 7c4d 99be c019 d03d 96b2 14bc 8163 9fbd
000001b0: 4768 bfbe e5c8 03be 2c1c 2f3d a4d3 84be
000001c0: fd19 33be 9606 28be 2173 32be 5941 1bbd
000001d0: c779 42be dbeb 253b 8a4b 2abf a0a8 143c
000001e0: 8a63 2bbd 9cc3 07bf 1a67 873d fee8 9fbe
000001f0: 0f73 be3b 61f4 58bd e8f4 23be 1095 1b37
00000200: c772 95be 3ad4 ddbd a699 bdbe 23d3 943c
00000210: f545 a9bd 31ad 3fbe 731b 67bd 0349 44be
00000220: 968e 22be eb89 3a3d fe66 01be 4433 003f
00000230: 656f 64be 637f d33e e1a0 3ebe 55c4 4abe
00000240: 9bce f8be 7c17 ba3e a88f bb3e ab56 80bd
00000250: 5731 dabc 9618 43be 6167 90be 08f3 9ebe
00000260: eda1 fbbc 5b02 2dbe a2fd 7bbe 6c54 013e
00000270: 035d 603e c59c 08be 252b 5abe 8ed4 f0bd
00000280: b2b4 1abe be18 08bf 3781 003f dc80 363c
00000290: 6749 8cbd bc8b c1be 8400 34be 3b6d 07bf
000002a0: 7756 91be d54f 52be a85b 46be e8d1 2fbe
000002b0: 33ef 32be 817b dbbe 21ce c83c 5108 bdbd
000002c0: 68d1 ce3b aab5 993d c47d d1bd 632e 07be
000002d0: b200 04bd 1ec5 37be 74c8 68bd 18c2 d2bd
000002e0: af15 12be 70b5 d6bd 1632 fdbd 4609 733d
000002f0: 8886 25be fcdd 903d ea65 1abe 550b f6bd
00000300: f2bd 83ba bce9 0fbe 4fd9 1ebe a43e bf39
00000310: 7382 503d dab6 afbd 8917 3b3d 0896 c0bd
00000320: cc64 9d3c b57a 74bb 7f79 073d 4d7c 39be
00000330: 00a8 a9b8 38d4 67bc 6bc1 b23d dec8 c03d
00000340: de9e 543d b8af 39bc 7066 babc d2d3 cb3d
00000350: 245a f33d 20fb 72bd 1867 2b3d 094f 8d3c
00000360: 51e1 5abd 9582 e23c 801e 0f3c e4b2 043e
00000370: f372 dabd d4d6 ff3d 0f18 a0bd c0dd 58be
00000380: 9875 f43c 58c4 69b8 c341 0c3d 476c c9bc
00000390: 8cc8 6cbd 5e50 08be cf45 c2ba e491 733d
000003a0: 58b6 25be 2d53 25be c698 e4ba 0eda eb3d
000003b0: c3ff 1cbe 329a 47bd bed4 03bd 9b5b 33be
000003c0: 95cd a6bd a416 443c 43b3 96ba 54bf 6cbd
000003d0: 794e 92bc 2750 3fbd aea9 113d 9957 8e3d
000003e0: 40b5 1abd b471 0e3d 07a3 09be 9819 2c3c
000003f0: e651 ccbd 6c6b 873d 1ea4 06bd b92b 3ebe

shared_layers.0.bias f4 [128]
0.14899439 -0.13355356 -0.26491237 -0.07776299 -0.07009047 0.005332348 -0.14512321 -0.2876869
-0.10942638 -0.12798901 0.010765274 0.039686214 -1.6831867 -1.7415875 -0.13130686 -0.031880733
-0.12652105 -0.10238279 0.3590377 -0.16812688 -0.010576779 -0.36902967 -0.032787744 0.0032858935
-0.060138512 -0.039722133 -0.15086113 -0.10917445 -0.089507736 -0.08156303 -0.15557963 -0.0898284
0.004958035 -0.058773004 -0.17201234 -0.05487511 -0.21653616 -0.13141441 -0.061362993 0.007845321
-0.0852774 -0.042917352 -0.1795548 -0.15684748 0.042198528 -0.014676419 -0.14253783 0.09039896
-0.121003464 -0.7961869 -0.083405346 -0.13372049 -0.16643505 3.8363196e-05 -0.16380796 -0.022612229
-1.1140131 -0.05922696 -0.12992221 -0.17013815 -0.0827321 -0.017977595 -0.1343398 -0.13666001
-0.13373572 -0.06485077 -0.21951963 -0.006450919 -0.00058517547 2.0927212 -0.021543903 -0.049787056
-0.14976016 -0.102422975 -0.11902263 -0.11671507 -0.17118208 -0.07280062 -0.20945005 -0.15702853
-0.066179626 -0.03508939 -0.16003177 0.016868586 0.7078538 -0.13751346 -0.036947224 -0.041278817
-0.20169201 0.023519034 -0.11578224 -0.06885145 -0.025602024 -0.16046283 -0.036021374 -0.08002665
-0.1133807 0.016318128 -0.13627416 -0.040196672 -0.07286222 -0.73290217 -0.14888342 -0.2772187
-0.24429063 -0.15874477 -0.016134746 -0.06506592 -0.08350092 -0.013164715 -0.055441454 -0.12504233
-0.11657505 -0.15974902 -0.22977482 -0.0063204058 -0.5048576 0.0034117838 -0.1738656 -0.0857189
0.03962026 -0.042072285 -0.41751474 -1.2161359 -0.11720737 -0.15646648 -0.26826873 -0.17302246
00000000: fc91 183e 44c2 08be 98a2 87be 3442 9fbd
00000010: 988b 8fbd faba ae3b 2e9b 14be b34b 93be
00000020: f01a e0bd 8d0f 03be d560 303c 038e 223d
00000030: a972 d7bf 57ec debf 4e75 06be 5f95 02bd
00000040: bc8e 01be 11ae d1bd cad3 b73e 7429 2cbe
00000050: 3a4a 2dbc 75f1 bcbe 714c 06bd 2558 573b
00000060: cd53 76bd adb3 22bd 577b 1abe db96 dfbd
00000070: d54f b7bd 850a a7bd 4450 1fbe f4f7 b7bd
00000080: 0377 a23b f6bb 70bd 0124 30be b9c4 60bd
00000090: a8bb 5dbe 8091 06be c357 7bbd a989 003c
000000a0: eba5 aebd 1bca 2fbd 37dd 37be a09c 20be
000000b0: 5dd8 2c3d 5d75 70bc 70f5 11be 1723 b93d
000000c0: aad0 f7bd e8d2 4bbf 6cd0 aabd 06ee 08be
000000d0: f36d 2abe 2be8 2038 46bd 27be 483d b9bc
000000e0: fb97 8ebf f897 72bd 540a 05be b238 2ebe
000000f0: 726f a9bd c045 93bc 5f90 09be 9af0 0bbe
00000100: 04f2 08be 7bd0 84bd c1c9 60be 3b62 d3bb
00000110: 7666 19ba 25ef 0540 d77c b0bc 83ed 4bbd
00000120: ba5a 19be 23c3 d1bd 23c2 f3bd 5008 efbd
00000130: 5b4a 2fbe 7e18 95bd 137a 56be 16cc 20be
00000140: 2f89 87bd e4b9 0fbd 5edf 23be fd2f 8a3c
00000150: e835 353f 54d0 0cbe f955 17bd fa13 29bd
00000160: 5a88 4ebe fdaa c03c 3d1f edbd fd01 8dbd
00000170: 56bb d1bc 5e50 24be 268b 13bd 03e5 a3bd
00000180: 2434 e8bd 98ad 853c 748b 0bbe 44a5 24bd
00000190: ca38 95bd 7a9f 3bbf e574 18be 9cef 8dbe
000001a0: 5327 7abe fd8d 22be 042d 84bc 4841 85bd
000001b0: 8802 abbd d1b0 57bc 9416 63bd 190b 00be
000001c0: e6be eebd 3f95 23be 174a 6bbe 681b cfbb
000001d0: 593e 01bf 3c98 5f3b d309 32be 648d afbd
000001e0: db48 223d fd53 2cbd 7ec4 d5be 57aa 9bbf
000001f0: 6b0a f0bd c038 20be 855a 89be cd2c 31be

shared_layers.3.weight f4 [64, 128]
-0.004724839 -0.23610699 -0.03279901 -0.0424897 -0.02304259 -0.020458989 -0.08721401 -0.03382948
0.036851145 -0.08514751 -0.05275656 -0.029271122 -0.024144288 -0.18555334 -0.101918474 0.014099278
-0.0078906445 -0.10806401 -0.025016047 0.03252378 -0.12070081 -0.03746518 -0.067790836 0.06897045
-0.07693228 -0.07779205 -0.009280443 -0.0029760823 0.04132185 -0.07182872 -0.08756399 -0.12869683
0.08356657 -0.012476213 -0.07886688 -0.08696756 -0.07016364 0.011621972 -0.14701031 0.068312086
-0.016588593 -0.059471898 0.002330243 -0.020356424 -0.1168438 -0.040376455 0.018716983 -0.019554358
-0.049597126 -0.08837862 -0.030992001 0.03574352 -0.07306572 -0.003977309 0.047054462 -0.036914706
-0.10951403 0.033874378 -0.09288711 0.07875284 -0.056298565 -0.018750608 -0.031692855 -0.031159163
-0.0014272501 0.040572725 -0.12337287 -0.012191834 -0.031377845 -0.04470015 -0.0059175417 -0.1093765
0.0049797497 -0.017143399 0.082420476 -0.02655571 -0.07912068 0.035896808 0.04871329 -0.072937176
-0.13037212 -0.120034814 -0.08285691 0.06500884 -0.23875627 -0.10845753 -0.08310224 0.012533942
0.02221115 -0.08708184 0.028724603 -0.055878986 -0.11044795 -0.028430387 0.08330958 0.0844003
-0.012195714 -0.10017373 -0.042231437 -0.13577798 0.014986642 -0.07834791 -0.04370462 -0.06520994
-0.00063763204 -0.05972118 -0.035114076 0.03311248 -0.08729103 -0.077416174 -0.09467683 0.08805477
-0.04569202 -0.0034002364 -0.056707986 0.06488698 -0.07324807 -0.00091056526 -0.11720742 0.06010004
-0.053245135 0.04785634 -0.0910183 -0.085387364 -0.09080881 -0.025549874 -0.07022665 0.07877693
-0.08695835 -0.25170836 0.013004169 -0.124577515 0.019834733 -0.08183896 -0.005266207 -0.115811735
-0.023174226 -0.1096119 -0.098268196 -0.04826158 -0.156899 -0.30170822 -0.0330219 0.041751213
-0.060050983 -0.12129571 -0.08574993 -0.0016220286 -0.074045636 -0.09965603 0.10973577 -0.0668334
0.011376018 -0.038534258 0.07705133 0.007381212 -0.017139418 0.0661518 -0.042365845 0.03726938
0.032516807 0.018144555 -0.044882607 -0.018392317 -0.004009792 -0.048165206 -0.09158362 -0.13058923
-0.13374574 -0.02575253 -0.0006718286 0.07827098 -0.04788798 -0.07446651 -0.10786176 -0.011848388
-0.088096425 -0.17708616 -0.009224179 -0.11715443 -0.08983247 -0.0030404108 0.04666903 -0.0055867964
-0.017955868 -0.03612874 -0.088098295 -0.09502512 -0.037982486 -0.0044752806 -0.023684604 -0.105189465
-0.051206283 0.07552719 0.029743776 -0.027342258 -0.18891405 -0.2627472 -0.0023856603 -0.0021228048
-0.07113402 0.025427768 -0.032019503 -0.084470816 0.05143439 -0.0148516735 0.09073222 -0.028210122
-0.18701701 -0.14726849 -0.18837284 -0.12110945 -0.14088134 0.0072062532 0.0033994191 -0.15745856
0.10099655 -0.010818462 -0.3173136 -0.053399455 0.03361694 -0.087790295 0.0024181828 0.012386025
0.024251487 0.030356932 0.057032872 -0.0071565066 -0.025789661 -0.09145313 -0.12840599 -0.028830064
-0.13575949 0.03730389 0.041237958 -0.027117135 0.25216985 0.040588837 0.114292964 -0.2328179
-0.23305468 0.035940263 -0.13633814 0.033933584 -0.12415322 0.12838814 -0.17424999 0.026383929
-0.11049933 -0.013158099 -0.0010128948 -0.20780048 -0.04375661 -0.02559071 0.006228757 -0.12967826
00000000: d2d2 9abb 08c6 71be 4158 06bd ae09 2ebd
00000010: d0c3 bcbc 9c99 a7bc 429d b2bd c890 0abd
00000020: 3af1 163d d161 aebd 4317 58bd fec9 efbc
00000030: 3eca c5bc b201 3ebe a2ba d0bd a800 673c
00000040: c347 01bc aa50 ddbd 74ee ccbc a837 053d
00000050: fc31 f7bd 1775 19bd ecd5 8abd 6140 8d3d
00000060: ac8e 9dbd 7051 9fbd 000d 18bc 600a 43bb
00000070: 1a41 293d f01a 93bd c054 b3bd 1ac9 03be
00000080: f324 ab3d 0869 4cbc f584 a1bd 0c1c b2bd
00000090: f4b1 8fbd 156a 3e3c df89 16be 35e7 8b3d
000000a0: cde4 87bc ce98 73bd fdb6 183b 84c2 a6bc
000000b0: cd4b efbd c861 25bd 5c54 993c 7630 a0bc
000000c0: 5b26 4bbd daff b4bd f0e2 fdbc cc67 123d
000000d0: 7ba3 95bd 1654 82bb 2ebc 403d e033 17bd
000000e0: e448 e0bd dcbf 0a3d 993b bebd 2b49 a13d
000000f0: 5399 66bd e09a 99bc 5ed0 01bd 8041 ffbc
00000100: 9112 bbba 962f 263d eaaa fcbd 42c0 47bc
00000110: 0e86 00bd 8117 37bd f0e7 c1bb c900 e0bd
00000120: 2b2d a33b 5070 8cbc 11cc a83d 5c8b d9bc
00000130: 060a a2bd 8808 133d 9687 473d 1660 95bd
00000140: 4580 05be d0d4 f5bd e2b0 a9bd 5b23 853d
00000150: 867c 74be fb1e debd 8231 aabd 2a5b 4d3c
00000160: 28f4 b53c f757 b2bd dc4f eb3c 5de1 64bd
00000170: 8932 e2bd d8e6 e8bc 379e aa3d 11da ac3d
00000180: 88d0 47bc e227 cdbd dffa 2cbd 6209 0bbe
00000190: 888a 753c de74 a0bd 9e03 33bd ca8c 85bd
000001a0: c326 27ba 329e 74bd c7d3 0fbd f4a0 073d
000001b0: a4c5 b2bd 5f8c 9ebd ede5 c1bd 0f56 b43d
000001c0: 8e27 3bbd 80d6 5ebb a246 68bd 77e3 843d
000001d0: 1603 96bd 00b3 6eba 720a f0bd 762b 763d
000001e0: 9217 5abd 0205 443d cd67 babd 92df aebd
000001f0: f8f9 b9bd f84d d1bc fdd2 8fbd cd55 a13d
00000200: 3817 b2bd ebdf 80be 700f 553c 7f22 ffbd
00000210: 737c a23c 2f9b a7bd 2590 acbb b42e edbd
00000220: e0d7 bdbc 347c e0bd d640 c9bd efad 45bd
00000230: 22aa 20be 8079 9abe f941 07bd 5203 2b3d
00000240: 05f8 75bd e369 f8bd a99d afbd 409a d4ba
00000250: 3da5 97bd 7618 ccbd 26bd e03d f3df 88bd
00000260: 7a62 3a3c 19d6 1dbd 16cd 9d3d 18de f13b
00000270: f767 8cbc 987a 873d cf87 2dbd c7a7 183d
00000280: 5830 053d e4a3 943c d3d6 37bd 7cab 96bc
00000290: 9364 83bb e148 45bd 3190 bbbd 2fb9 05be
000002a0: a5f4 08be f8f6 d2bc a71d 30ba 894c a03d
000002b0: 3026 44bd e681 98bd a0e6 dcbd be1f 42bc
000002c0: e66b b4bd 1356 35be 0321 17bc a9ee efbd
000002d0: 16fa b7bd a141 47bb 0628 3f3d 7211 b7bb
000002e0: 2f18 93bc bbfb 13bd e16c b4bd 889c c2bd
000002f0: 8693 1bbd 60a5 92bb 3706 c2bc 936d d7bd
00000300: aebd 51bd 00ae 9a3d 38a9 f33c dffc dfbc
00000310: af72 41be cd86 86be bd58 1cbb c11e 0bbb
00000320: b7ae 91bd e54d d03c e226 03bd 09ff acbd
00000330: deac 523d 6f54 73bc d0d1 b93d ea18 e7bc
00000340: 6381 3fbe 8dcd 16be cfe4 40be 3b08 f8bd
00000350: 3343 10be 6f22 ec3b cac8 5e3b d13c 21be
00000360: 47d7 ce3d eb3f 31bc ee76 a2be 63b9 5abd
00000370: ebb1 093d 66cb b3bd 607a 1e3b c1ee 4a3c
00000380: 0eab c63c 1aaf f83c 4d9b 693d 2181 eabb
00000390: d744 d3bc c74b bbbd dc7c 03be 072d ecbc
000003a0: 8904 0bbe f7cb 183d 22e9 283d c124 debc
000003b0: 681c 813e 7b40 263d 6e12 ea3d d167 6ebe
000003c0: e3a5 6ebe 1936 133d 3a9c 0bbe f1fd 0a3d
000003d0: 0b44 febd 2e78 033e 976e 32be 1c23 d83c
000003e0: 794d e2bd 1195 57bc 1cc3 84ba a6c9 54be
000003f0: 223a 33bd 9ca3 d1bc 9a1a cc3b 61ca 04be

shared_layers.3.bias f4 [64]
-0.11676176 -0.06265606 -0.6197224 -0.23653504 -1.6318327 -0.43752995 -1.7639272 -2.1309173
-0.31378233 -0.27359983 -0.0028248783 -1.4844028 -0.66791356 -0.33851156 -0.59592324 -0.7163042
-0.8645279 -0.56052154 -0.48405367 -0.31178996 -0.80282134 -1.5974554 -0.72758716 -0.7799363
-0.8247564 -0.48648232 -0.5522244 -0.9867752 -0.44020993 -1.4916388 -0.6479312 -0.10194178
-0.22063774 -0.24422285 -1.8636315 -0.27145982 -2.321687 -1.181758 -0.21170354 0.13761474
-0.022150567 -0.8094651 -0.21473771 -0.28410372 -0.8952431 -0.45391166 -0.22961971 -0.7449343
-0.12047654 -0.34884363 -0.9487637 -0.78317606 -0.81919205 -1.2754697 0.08953861 -2.9926918
-0.5434161 -1.3207774 -0.84834415 -0.35400867 -0.031238224 -0.71034324 -0.21255638 -1.1177748
00000000: ca20 efbd d251 80bd 21a6 1ebf 3e36 72be
00000010: e5df d0bf ed03 e0be 5ec8 e1bf f360 08c0
00000020: 14a8 a0be 4715 8cbe 9821 39bb e900 bebf
00000030: 62fc 2abf 6351 adbe 6d8e 18bf b65f 37bf
00000040: b351 5dbf 577e 0fbf e2d5 f7be efa2 9fbe
00000050: b385 4dbf 6b79 ccbf 2743 3abf e8a9 47bf
00000060: 3c23 53bf 3614 f9be 945e 0dbf 4d9d 7cbf
00000070: 3263 e1be 05ee bebf d2de 25bf dac6 d0bd
00000080: dcee 61be 8e15 7abe 7a8b eebf c8fc 8abe
00000090: 8596 14c0 d943 97bf d0c8 58be e1ea 0c3e
000000a0: 1b75 b5bc 1b39 4fbf 34e4 5bbe 0b76 91be
000000b0: a72e 65bf 1c67 e8be 6e21 6bbe 04b4 3ebf
000000c0: 67bc f6bd a29b b2be 2ee2 72bf 3a7e 48bf
000000d0: 92b6 51bf 9742 a3bf 0560 b73d 4388 3fc0
000000e0: 511d 0bbf 3c0f a9bf 152d 59bf a040 b5be
000000f0: 4ee7 ffbc 0ed9 35bf 61a8 59be 3f13 8fbf

emotion_head.weight f4 [8, 64]
-0.04600714 -0.08391304 -6.531611 -0.054650303 -0.24361292 -0.29095748 -0.87371814 -1.791766
-0.1467763 -0.1928122 -1.1558148 -0.3876336 -0.35320202 -0.25602326 -0.8639699 -0.375681
0.10714153 -0.31366158 -0.22454123 -1.3517317 -1.2607183 -2.2366195 -0.3886604 -3.0839627
-0.7559209 -0.055314302 -0.24141687 -0.3792917 -0.17559959 -0.9440024 -0.6703275 -0.10340263
-0.33654913 -1.6075215 -2.5902593 -0.37025574 -3.951646 -0.034920156 -0.938759 0.13048357
-0.07173478 -1.7266183 -0.1439597 -0.076947615 -0.37294522 -0.28445974 0.077754416 -0.51543784
-1.8051043 -0.5894028 -0.09556157 0.2818763 -0.13451804 -1.0747416 -0.12674996 -2.0235791
-0.48820814 0.4039829 -1.1985868 -0.8217999 -0.24498013 0.0692325 -0.0035777006 -0.3676762
-0.26967612 -0.1353262 -0.0057245186 -0.04041142 -3.7969074 0.13611978 -0.3405122 -1.6747955
0.25933406 -0.27262238 -0.56514114 -6.467383 0.057457678 -0.3742264 -0.8740634 -0.9169863
-2.8300762 -2.943443 -0.33410892 -0.3027391 -0.2956695 -0.5253272 0.076392464 0.14036229
0.06540306 -0.10819461 -1.3708206 -0.20044497 0.055036344 -7.9776273 -1.7217257 0.035651505
-0.07570844 -1.2270819 -5.6058025 0.063857436 -10.361641 -1.5454851 0.041426312 -1.0423995
-0.9382387 -0.19964862 0.14559895 -0.07999113 -0.869589 0.061250683 0.12471607 -0.12176089
-0.3045692 -0.46614563 0.004980396 -0.55179316 -1.3604461 -0.15617713 -1.2034924 -0.5043265
-0.053141102 -1.9051695 -0.06260117 -0.09337008 -0.81423753 -0.26644468 0.17174189 -0.6561253
-0.278528 0.07357333 -1.9185201 -0.104216106 -1.8302773 -0.51944655 -0.80938137 -1.8786615
-0.6962027 -0.17190959 -0.9559577 -6.778366 -0.07943983 -0.27947512 -0.16792764 -0.29504046
-0.38014805 -1.3307225 -0.40731403 0.582573 -1.4293294 -1.7439178 -0.81450045 -0.8298297
0.16723761 -0.23134066 0.6729262 -0.21762957 -0.11088974 -10.499676 0.15226136 -0.07081341
-0.16942933 -2.5058324 -5.0930696 -0.35351413 -7.3251777 -1.2446755 0.43900448 0.16130409
0.061460983 -0.07224615 0.18012927 -0.038342323 -0.10802889 0.22035868 0.02264447 -1.0020747
-1.7260981 -0.28805766 -0.4250937 -0.43702084 -1.6167973 -1.8843184 -0.12983838 -1.4646015
-0.6221847 0.2794954 -0.7395888 -0.1967075 -0.23498552 -0.056439772 0.014504605 -0.9618668
0.10713243 0.018412968 -1.4940985 -0.23599614 -0.27808368 -0.26552445 -0.7294936 0.13267015
0.28391019 -0.09597825 -1.3585249 -0.07429653 -0.28005964 -0.21807292 -1.3262177 -0.16417895
-0.08950402 -0.118937746 -0.16252707 -0.56624264 0.6052484 -0.9668918 -1.3955189 -0.38391632
-0.46541375 -0.32658407 -1.0911208 -0.28602767 0.33425838 -0.50429195 -0.6656408 -0.038419105
-0.12654412 0.04385113 -0.9698833 -0.11958278 -1.4622848 -0.4188969 -0.36342832 -0.40786982
0.059389304 -0.8857196 0.026288187 -0.022505753 -1.0246431 -0.16331899 -0.034500554 -0.049021315
-1.3897693 -0.50520355 -0.16226748 -0.29711783 0.29583064 -0.8015395 -0.6108726 -0.6404349
-0.3454212 -0.7122651 -0.18596326 0.11066684 0.07123091 -0.10508828 0.019422917 -1.5532751
00000000: fc71 3cbd 9ada abbd f502 d1c0 ffd8 5fbd
00000010: aa75 79be 61f8 94be feab 5fbf 9758 e5bf
00000020: 874c 16be 9070 45be bdf1 93bf e977 c6be
00000030: e5d6 b4be 7b15 83be 222d 5dbf 4359 c0be
00000040: 056d db3d 4098 a0be 23ee 65be 8b05 adbf
00000050: 385f a1bf c624 0fc0 7ffe c6be a55f 45c0
00000060: 0884 41bf 4091 62bd fc35 77be 8632 c2be
00000070: 61d0 33be 24aa 71bf 959a 2bbf c2c4 d3bd
00000080: 2b50 acbe 44c3 cdbf cfc6 25c0 2992 bdbe
00000090: c5e7 7cc0 7008 0fbd 8352 70bf 7c9d 053e
000000a0: afe9 92bd d401 ddbf 2c6a 13be b696 9dbd
000000b0: adf2 bebe b5a4 91be b53d 9f3d bcf3 03bf
000000c0: a80d e7bf 1ae3 16bf c9b5 c3bd 1752 903e
000000d0: 19bf 09be 2291 89bf beca 01be 5282 01c0
000000e0: 6bf6 f9be d9d6 ce3e 4b6b 99bf 7a61 52bf
000000f0: 12dc 7abe c5c9 8d3d db77 6abb 0e40 bcbe
00000100: fd12 8abe f492 0abe be94 bbbb 7286 25bd
00000110: 8800 73c0 fc62 0b3e 9d57 aebe b35f d6bf
00000120: 6fc7 843e 2995 8bbe 17ad 10bf cdf4 cec0
00000130: be58 6b3d 9a9a bfbe 9ec2 5fbf 9dbf 6abf
00000140: f81f 35c0 5f61 3cc0 5310 abbe 9f00 9bbe
00000150: fe61 97be d87b 06bf a773 9c3d 22bb 0f3e
00000160: 0af2 853d 2395 ddbd 0d77 afbf 7241 4dbe
00000170: ca6d 613d b948 ffc0 8261 dcbf 5007 123d
00000180: 070d 9bbd 0511 9dbf bc62 b3c0 b0c7 823d
00000190: 48c9 25c1 75d2 c5bf a3ae 293d 596d 85bf
000001a0: 6930 70bf b070 4cbe e417 153e 64d2 a3bd
000001b0: 629d 5ebf ffe1 7a3d 246b ff3d c65d f9bd
000001c0: 7ff0 9bbe a4aa eebe 9732 a33b 5142 0dbf
000001d0: 1923 aebf e6ec 1fbe 0a0c 9abf 8b1b 01bf
000001e0: 7caa 59bd 98dc f3bf 0b35 80bd d038 bfbd
000001f0: df71 50bf 706b 88be 1bdd 2f3e d4f7 27bf
00000200: 399b 8ebe 9dad 963d 1192 f5bf 416f d5bd
00000210: 8746 eabf 73fa 04bf 9e33 4fbf fb77 f0bf
00000220: 573a 32bf 1109 30be a5b9 74bf 60e8 d8c0
00000230: 59b1 a2bd 5d17 8fbe 39f5 2bbe 8b0f 97be
00000240: c4a2 c2be 1d55 aabf 778b d0be 8123 153f
00000250: 44f4 b6bf b338 dfbf 1a83 50bf b86f 54bf
00000260: 5640 2b3e 91e4 6cbe e444 2c3f 49da 5ebe
00000270: 291a e3bd acfe 27c1 67ea 1b3e 9f06 91bd
00000280: e27e 2dbe 8f5f 20c0 6dfa a2c0 ceff b4be
00000290: db67 eac0 8751 9fbf 32c5 e03e e62c 253e
000002a0: 83be 7b3d caf5 93bd cf73 383e d70c 1dbd
000002b0: 403e ddbd b5a5 613e e580 b93c fc43 80bf
000002c0: c8f0 dcbf 4b7c 93be e2a5 d9be 32c1 dfbe
000002d0: 37f3 cebf 5831 f1bf 5af4 04be 1078 bbbf
000002e0: 7f47 1fbf 051a 8f3e b155 3dbf b16d 49be
000002f0: 0ba0 70be 642d 67bd b9a4 6d3c e73c 76bf
00000300: 3f68 db3d cbd6 963c 9f3e bfbf f9a8 71be
00000310: fc60 8ebe d2f2 87be 18c0 3abf afda 073e
00000320: ad5c 913e 3f90 c4bd 25e4 adbf c728 98bd
00000330: fa63 8fbe 824e 5fbe 80c1 a9bf 871e 28be
00000340: e24d b7bd a295 f3bd 7f6d 26be 47f5 10bf
00000350: 8ff1 1a3f 3986 77bf 5da0 b2bf ae90 c4be
00000360: b64a eebe 0736 a7be d9a9 8bbf 3872 92be
00000370: ea23 ab3e 4719 01bf 6f67 2abf 5a5d 1dbd
00000380: c894 01be 3e9d 333d 464a 78bf d1e7 f4bd
00000390: 262c bbbf a879 d6be 4713 babe 50d4 d0be
000003a0: 3342 733d 85be 62bf 535a d73c fc5d b8bc
000003b0: 8127 83bf 183d 27be 7450 0dbd 93ca 48bd
000003c0: f6e3 b1bf 0555 01bf 7229 26be d41f 98be
000003d0: 1d77 973e b131 4dbf 2662 1cbf 8bf3 23bf
000003e0: 0cdb b0be 0157 36bf 276d 3ebe 4ca5 e23d
000003f0: 83e1 913d 8638 d7bd cf1c 9f3c b8d1 c6bf

emotion_head.bias f4 [8]
-0.78994536 0.47307792 -0.5221212 -0.3574099 -0.8474007 0.8123674 -0.15293461 -0.21243653
00000000: dc39 4abf 4537 f23e bca9 05bf 6efe b6be
00000010: 41ef 58bf 4ff7 4f3f e49a 1cbe f688 59be

focus_head.weight f4 [2, 64]
-0.012971354 0.05508969 0.35175738 0.051009346 -0.34396788 -0.03610104 -0.0632423 -0.2683318
0.16167185 0.013365267 -0.07942188 -0.048480764 0.25441772 0.015138339 0.09239998 -0.52837515
-0.04742251 -0.15484136 -0.11120893 -0.08030982 -0.052791905 -0.11744547 -0.1776624 0.007043827
0.022422997 -0.14738905 0.15444943 0.07538944 -0.29928252 -0.38964048 -0.119706325 0.024157712
0.029408267 0.11733805 0.05647989 0.032471642 0.121644825 -0.40611237 0.102607526 -0.11292071
0.19960937 -0.4612653 -0.041144054 0.08113271 -0.0776098 -0.3793066 -0.087055214 -0.31659153
0.08747333 0.12944028 -0.10763623 0.34064195 0.08419365 -0.11477304 -0.04856643 -0.49066582
-0.5828142 -0.2619796 0.13278931 -0.07778184 -0.090469055 0.2600423 0.11816626 0.011158624
0.18529613 0.088806234 -0.3813677 -0.108300336 0.3608297 0.0969445 -0.052443046 0.3470558
-0.124391004 -0.04119185 -0.031349543 0.036511738 -0.29205725 -0.032207448 0.0035185243 0.5309305
0.052888725 0.1792958 0.14885595 0.06915757 0.06980953 -0.03569487 0.024996987 0.01994738
-0.14798133 0.23664892 -0.11035402 -0.14951734 0.34967926 0.3540068 0.035452183 -0.15124834
0.04163781 0.07442306 -0.15614082 -0.015927726 -0.1258082 0.5571848 -0.018010331 -0.0076618376
-0.011976034 0.24074912 -0.2011958 -0.108044304 0.008312023 0.18043724 -0.032514643 0.33581725
0.022279082 -0.16460936 -0.08210725 -0.2290462 -0.0005814597 0.10649751 -0.04981592 0.49728566
0.5024117 0.17498668 -0.11618904 0.017641231 0.04046969 -0.30454856 -0.11977983 0.06128991
00000000: cd85 54bc baa5 613d 8b19 b43e 2def 503d
00000010: 8f1c b0be afde 13bd 2e85 81bd c962 89be
00000020: 4e8d 253e fef9 5a3c f0a7 a2bd c493 46bd
00000030: 0a43 823e cc06 783c 333c bd3d 9843 07bf
00000040: 1b3e 42bd bc8e 1ebe 82c1 e3bd 7a79 a4bd
00000050: 533c 58bd 4087 f0bd 22ed 35be e7cf e63b
00000060: 6fb0 b73c 28ed 16be fe27 1e3e c765 9a3d
00000070: 8f3b 99be f57e c7be 9728 f5bd 65e6 c53c
00000080: 9be9 f03c ee4e f03d 7557 673d fc00 053d
00000090: ec20 f93d f6ed cfbe e523 d23d f942 e7bd
000000a0: 6666 4c3e f72a ecbe ab86 28bd e828 a63d
000000b0: e3f1 9ebd 7a34 c2be 014a b2bd 4918 a2be
000000c0: 3825 b33d fe8b 043e 6270 dcbd 9f68 ae3e
000000d0: b86d ac3d 210e ebbd 98ed 46bd 8d38 fbbe
000000e0: 5033 15bf 3122 86be ecf9 073e 164c 9fbd
000000f0: d747 b9bd 4424 853e 2701 f23d a9d2 363c
00000100: 45be 3d3e 0be0 b53d a142 c3be 91cc ddbd
00000110: acbe b83e d78a c63d 85ce 56bd 4cb1 b13e
00000120: b6c0 febd c9b8 28bd 6168 00bd 558d 153d
00000130: 8788 95be f5eb 03bd 0b97 663b 10eb 073f
00000140: d9a1 583d 5199 373e b26d 183e 7ca2 8d3d
00000150: 4df8 8e3d c934 12bd 7bc6 cc3c b068 a33c
00000160: 6b88 17be 1854 723e 4a01 e2bd 131b 19be
00000170: 2909 b33e 6140 b53e 4f36 113d d8e0 1abe
00000180: 698c 2a3d 1e6b 983d 61e3 1fbe dd7a 82bc
00000190: ddd3 00be aaa3 0e3f 678a 93bc 2710 fbbb
000001a0: 2137 44bc f086 763e 4606 4ebe 5546 ddbd
000001b0: 272f 083c 8ac4 383e 132e 05bd 3df0 ab3e
000001c0: 9f82 b63c 5b8f 28be d927 a8bd 168b 6abe
000001d0: 1a6d 18ba 5e1b da3d c70b 4cbd 3a9c fe3e
000001e0: 0e9e 003f b52f 333e 85f4 edbd 5884 903c
000001f0: 8cc3 253d caed 9bbe 214f f5bd 210b 7b3d

focus_head.bias f4 [2]
-0.3516261 0.42226106
00000000: 5608 b4be 9a32 d83e
