pth/shared_bottom_mlp_model.pth (torch, 68431 bytes, 8 tensors)

shared_layers.0.weight f4 [128, 58]
00000000: 7156 8e3f c385 c93e 4a04 e63d 5cb9 413d
00000010: 9a34 223f f16e a03d f072 3f3c 6aaa 973c
00000020: 7196 11bf 87e6 04bd b9e4 cd3d fce2 60bf
00000030: 322f 493e f7d0 3bbf 7114 34bf df10 143f
00000040: 2845 973f 0029 12bf d547 ecbe b2ce 1bbf
00000050: 2e53 26bf 7a7b 473f 0a8e cf3e 5cf2 273f
00000060: ccbf 413e c273 27be eff3 aabe 2ede 56be
00000070: 9d25 403e da7a 0f3f 5a04 533e 772a 2c3d
00000080: 2c7b bd3e 5041 0e3e 2d29 863e 6e74 bb3e
00000090: 15b0 d23c db3c 1cbd 36c9 6a3e 9627 ee3d
000000a0: 98d3 e9bd b394 46be ee4f ccbe 3f8f f9be
000000b0: 28e6 ebbe 2eda 553e 3af7 f43e 524b fc3d
000000c0: 7f62 363f b9ae 433f 45b4 4c3f ba3c 823f
000000d0: 4a81 583f 8793 373f 84de 5d3f a36d 823f
000000e0: 778d 733f e984 5c3f c554 32be baa1 2cbd
000000f0: 6405 d0bd fa06 39bd d84e 723d 1207 bd3d
00000100: a0fb 9a3c 0910 22be 215d e8bd a0f4 323d
00000110: 9821 a5bd 5b40 f6bd d8f2 073d f6ca d4bd
00000120: 85f9 9abd 4f48 4e3d 3ac3 24be 0b61 44be
00000130: 7e1f 1bbe 6847 eb3b 46c3 04bd 4c53 b2bc
00000140: 743f ddbc 2684 8ebd 0bd5 1d3e 9d79 83bc
00000150: 491d 2cbc 92da 23bd 3795 babc 00db 5a3d
00000160: 2ff2 193e df4e debd fb95 273e c65e 1a3e
00000170: 7c79 a1bd b490 e13d 4d85 7abd 452c d6bc
00000180: b8dc e23c 8e47 e33d b07f b73d 106d f8bd
00000190: 1c6e efbb 1e8d d7bd 1cdf 8d3d 5521 2abe
000001a0: 9d1c 9b3d 3eb0 3f3d ab2a 033d 8c69 5dbd
000001b0: 9789 34bc b45d e7bd 0ebc 773c 30b1 babd
000001c0: 4622 803d 8ddb bbbb 6dcc 84bd c653 c8bc
000001d0: 5ae8 b3be 8a50 5ebd b405 92bd 8076 dabd
000001e0: dad6 f43d 25b1 41be d32a b8bd c5c4 183e
000001f0: 1274 38bd dfde 74be f857 a03e b980 e03d
00000200: 5301 09be 8faf 4fbe 2dfa 19be 37db febd
00000210: 1757 e4bd fd3e a2bd 37b8 aebc ca18 8fbe
00000220: 8f2b 03be c014 70be 122f 27be 2b2d 043e
00000230: 8fad 0fbe 39fa 53bc 045d e13c d9ad 323d
00000240: cd71 03be 02ad 80bd e196 4d3d b26d bc3c
00000250: aafc 213e c122 613e 37d5 443e 1998 a73d
00000260: 65de 34be abd9 f1bd 0dcf 593d 505b ffbd
00000270: 8602 9f3c a763 433e 4411 5c3e 804a 24be
00000280: 5cf1 85be 8b41 3b3e 0a99 07be e065 46bd
00000290: 8ec3 95be c45c 4bbe 1796 11be 8f94 8cbd
000002a0: 1e9e 873b f9a9 0bbe 347d 5ebe 7a4c 20be
000002b0: a600 26be 76a4 5a39 8e12 79bd 4211 55bd
000002c0: 2cf6 c63d b4e7 2a3d 9844 f83c d860 923d
000002d0: ac72 a73d 8256 33bd 00a5 9ebd c09c a23d
000002e0: 9686 fabd 1009 8b3c 33a8 90bd eb5c ea39
000002f0: 7cc4 0a3e 8adc 34bd 16ed 9f3d bf12 c43d
00000300: 4057 0d3e 1323 ea3c 1d57 573d b39d 0d3d
00000310: d2d5 953c a2a5 dabc 30bf a23c a455 033d
00000320: 28e3 e03d caf0 bd3d 8ef5 bcbd f030 56bd
00000330: 0cc2 fa3d ae01 b93d f867 8f3d 4066 a83b
00000340: 60b0 fcbb 350b 94bd 38f3 cc3d 60ed 29bc
00000350: b081 c43c b847 42bc 965e 09bd 4446 08bd
00000360: 9823 813d adfc 133d 853a 8e3d 8ead 03be
00000370: 3aa7 37bd d69f 9a3d fe8a 733d 1567 c5bc
00000380: 75fb 00be 474b fbbd afc5 5fbc 5c86 d0bc
00000390: 0984 e03c eade 0abe f378 93bd 9584 c8bd
000003a0: b9c9 7abe 801e 1a3e 3fe3 4bbe f002 1c3c
000003b0: c3af 6dbb d274 69bc 04d0 823d e198 c83c
000003c0: 4594 82bd 0790 56be b99b debc 4dfe a8bd
000003d0: f874 e2bd 5d75 56be 3b74 99bd 2e35 9cbe
000003e0: 532f 11be 48cc 52be f044 1ebd b1d8 42be
000003f0: 1801 703d 8eaf 9abe f201 343c eb37 3e3e
1.112013 0.39359865 0.11231287 0.047295913 0.63361514 0.078336604 0.011685118 0.018513877
-0.5687018 -0.03244641 0.10053391 -0.8784635 0.1964691 -0.7336573 -0.7034369 0.57838243
1.181798 -0.5709381 -0.46148553 -0.60862267 -0.6497067 0.77922785 0.40538055 0.65604186
0.18920821 -0.16352752 -0.33389232 -0.20983192 0.18764348 0.5604683 0.20607129 0.042032685
0.37008035 0.13892102 0.2620329 0.36612266 0.025718728 -0.038143974 0.22928318 0.11628644
-0.114173114 -0.19392662 -0.39904732 -0.487421 -0.46074033 0.2088401 0.4784487 0.12319054
0.71244043 0.7643848 0.7996257 1.0174782 0.8457228 0.71709484 0.86667657 1.0189708
0.95137733 0.86140305 -0.1741515 -0.042146422 -0.10157278 -0.04517267 0.059157223 0.09229864
0.018918812 -0.1582643 -0.11345888 0.043690324 -0.08063048 -0.120239936 0.03319058 -0.10390274
-0.07567123 0.050361928 -0.16090098 -0.19177644 -0.15148732 0.007180143 -0.03241279 -0.021768235
-0.027007796 -0.06958799 0.154133 -0.0160492 -0.010505029 -0.040003367 -0.02277623 0.05343151
0.15033792 -0.10854887 0.16365807 0.15075216 -0.078844994 0.11013928 -0.06116228 -0.026144156
0.027693138 0.11097632 0.08959901 -0.12130177 -0.007306827 -0.10524963 0.0692732 -0.16614278
0.07573817 0.046798937 0.032023113 -0.054055735 -0.011019132 -0.11297169 0.015120519 -0.09115827
0.06256537 -0.0057329596 -0.064843036 -0.024454009 -0.35138208 -0.054276027 -0.07129994 -0.10667133
0.11955042 -0.18915232 -0.08992543 0.14918812 -0.04503257 -0.23913144 0.31317115 0.10962052
-0.13379411 -0.20281814 -0.1503684 -0.12444156 -0.111494236 -0.0792217 -0.021328075 -0.279486
-0.12809585 -0.23445415 -0.1632655 0.12907855 -0.14031051 -0.012938076 0.027510174 0.043622825
-0.1283638 -0.062829986 0.050192717 0.023001526 0.1581904 0.21985914 0.1922196 0.08183307
-0.17662962 -0.11809095 0.053175975 -0.12468588 0.019410383 0.19080983 0.21490961 -0.16044044
-0.26160705 0.18286721 -0.13241974 -0.048437 -0.2925076 -0.19859606 -0.14217411 -0.06864273
0.004138722 -0.13639058 -0.21727449 -0.15654173 -0.16211185 0.00020851367 -0.06080871 -0.05201841
0.09714922 0.041724876 0.030306146 0.07147378 0.08176169 -0.043783672 -0.07746315 0.07940054
-0.122327015 0.016972095 -0.070633315 0.00044701187 0.13551515 -0.044155635 0.078088924 0.09573888
0.13802814 0.028581178 0.052573312 0.03457422 0.018290434 -0.026690308 0.019866556 0.032064095
0.109808266 0.092744425 -0.09226523 -0.052292764 0.12244043 0.090335235 0.07002252 0.0051391423
-0.007711455 -0.072287 0.10007328 -0.010371536 0.023987621 -0.011857919 -0.03353747 -0.033270136
0.06305617 0.036129642 0.069447555 -0.12859175 -0.044837214 0.075500175 0.059458725 -0.024097005
-0.12595923 -0.122702174 -0.013657971 -0.025454693 0.02740671 -0.13561597 -0.072008036 -0.09790913
-0.24491014 0.15050697 -0.19910906 0.009522185 -0.0036268092 -0.014249044 0.06387332 0.02448696
-0.063759364 -0.2095338 -0.027173864 -0.08251629 -0.11057466 -0.20943208 -0.07492872 -0.30509323
-0.14178209 -0.2058574 -0.038639963 -0.19027974 0.058594793 -0.30212063 0.010986792 0.18576019

shared_layers.0.bias f4 [128]
00000000: a511 1d3f 2932 e6bd 38e0 13be 1dc0 ddbc
00000010: 1404 cabd 5ea8 febd f061 3e3d 490d 42be
00000020: 3104 2dbf b2bd 2bbe c137 01be 5d35 93be
00000030: 9972 82bd ee41 583f fcfa 6cbe 8a30 03be
00000040: 1aa1 563f 64cf b63f dde6 563c fd76 3c3c
00000050: 4913 d2bd 5ac6 81be 3823 52be 7710 98be
00000060: efdd 7fbe 8c68 17bf 32d3 943c 97b3 3fbd
00000070: 24b3 d0bd 5f3a 0e3c 6705 0abe 5755 b6be
00000080: c560 15bd 3bad 05be 798d 3dbe 2e3e 87be
00000090: 321f 22bd a258 ff3e dd84 193c 9564 b9bb
000000a0: 2572 673c 48f9 673f 079c 82be 8108 16bd
000000b0: fe20 c1bd 087a 03be aaf8 643c 4ea9 0ebd
000000c0: 8217 a2bc 36b6 cf3f f0d3 1bbf 4c0e cc3f
000000d0: 1bdb 823e 06d0 f5bc cbfb 833e dd24 6bbd
000000e0: 9c97 0fbe 20f2 f53d 5fc6 31bb 4e4b fa3b
000000f0: 4843 5e3f 627c e6bd 9521 8e3f 0ee1 d33e
00000100: bf79 26bc 87ae 9d3e 1fc4 67be b5bb 7fbe
00000110: a550 8abe d799 3d3f 25b0 5fbe 8a8b 083d
00000120: aefc 733e 5565 b5be d105 c2bd d4f3 31be
00000130: 52ef 45bd 6395 1c3e bee4 03be 0451 3ebe
00000140: 9d7a 1b3f 5fc4 c2bd 7228 80be 7c64 74be
00000150: af9b 453f 541a bc3f cc6f 65be 2c66 0fbf
00000160: 2f2b bdbe 49bf eabc 36b4 fdbd 24cf 043e
00000170: e241 a9bd 555b 5fbe adaa a9be 5e52 53be
00000180: 0e06 17be 4434 b3be f857 a13d b99d 99be
00000190: c687 30bd 15d1 b8bb 8f6d adbd ef92 83bd
000001a0: fbab 81bd 6f78 8ebd 080f 86bd 12cc 0d3f
000001b0: f804 85bd c51e 5e3f 196a cc3c 30b5 cabd
000001c0: 38c2 8e3f 87f6 883e 0843 66bd 5dcb 87be
000001d0: 5527 973d bdef 5ebe bd09 50be 0e17 fabd
000001e0: 233d 39be a38a 6a3f 7925 28be 2a59 853f
000001f0: 2606 4ebd fc03 a9bd 899b f3bd f31d ca3e
0.6135505 -0.11240036 -0.14441001 -0.027069146 -0.09864059 -0.12434457 0.04648012 -0.1895038
-0.6758452 -0.16771582 -0.12618925 -0.2875165 -0.06369514 0.844756 -0.23142618 -0.12811485
0.8383957 1.428204 0.0131165655 0.011502978 -0.102575846 -0.25346643 -0.20521247 -0.29700062
-0.24987005 -0.591439 0.018167112 -0.04680213 -0.10190418 0.008680909 -0.13478623 -0.35611984
-0.03646924 -0.13054363 -0.18510999 -0.26414627 -0.03958053 0.4987231 0.009370056 -0.0056577423
0.014126335 0.9061475 -0.25509664 -0.036629204 -0.09430121 -0.1283952 0.013975302 -0.03482943
-0.0197866 1.6227481 -0.60870266 1.5941863 0.2555779 -0.03000642 0.2577804 -0.057408202
-0.14022678 0.12009072 -0.0027126295 0.0076383715 0.86821413 -0.11254193 1.1103998 0.4138264
-0.0101608625 0.30797216 -0.22633408 -0.24973948 -0.27014652 0.74062866 -0.21844538 0.0333362
0.23826858 -0.35428873 -0.09473766 -0.1737817 -0.048323937 0.15291362 -0.12880227 -0.18585593
0.6073397 -0.09510111 -0.25030857 -0.23866457 0.7719068 1.4695535 -0.22405928 -0.56015277
-0.3694701 -0.028655665 -0.12387888 0.12969643 -0.08264519 -0.21812184 -0.33138028 -0.2063689
-0.14748403 -0.35000813 0.07878107 -0.30003145 -0.043098234 -0.005640159 -0.08468162 -0.0642451
-0.06331631 -0.06956565 -0.06545836 0.5538951 -0.06495088 0.867657 0.024952935 -0.0989784
1.1153021 0.26750585 -0.05621627 -0.2652234 0.07380549 -0.2177114 -0.20316215 -0.122114286
-0.18089728 0.9161779 -0.16420545 1.0417836 -0.050298832 -0.08252713 -0.118949 0.39475974

shared_layers.3.weight f4 [64, 128]
00000000: 3fd2 b0bd 58a2 36bd 1fdb 87bd 5895 18bc
00000010: 22cf 0cbe 6501 7c3c 2009 79bb 2c0b 13be
00000020: 8cc4 39be b623 8f3d d141 8cbc 47d2 51bd
00000030: bea1 393d b9e7 f9bd 5c15 19be 4629 03be
00000040: df8e d1bd b088 0abc ad7e 413a 55e7 95ba
00000050: 9f2f bc3c 7182 573d 27fd 043d d448 9bbd
00000060: f27e 6dbb 2040 29bd c91f 91bd 0210 633d
00000070: a91c 4c3c 27f9 9e3d 0178 a6bd 148b 503d
00000080: 30a2 603c e516 883a b3b2 e63c bb45 f8bd
00000090: 5ee2 58bd 4e4f 97bd 1e4b 3c3d 9d0f 0abd
000000a0: d149 1d3d fad4 c3bd 9d06 a93d 8ad5 5a3b
000000b0: 8fda 26bd 1c5c 6dbc 4c29 ba3c dc4a abbc
000000c0: 818f c8bc 0456 25bb 6447 ca3c 7d55 09be
000000d0: 4215 ba3c 75bb 91bd 6b6f abbd 2207 6bbd
000000e0: 4d3c 1ebd a639 cfbc 4842 20bb 8c31 9abc
000000f0: 33e4 543a cf17 a6bd 0f21 673b 5d66 a1bd
00000100: 1d5d 773d aa82 3fbc fc0b 9abd 49ff 893c
00000110: daa2 95bd 73b7 39bd ba9e dc3c ef35 d73c
00000120: eb5a d13c 8e7f d1bd cafc 413d 477b 1cbc
00000130: 118d acbd ffa6 f0bd 795c d6bb efcb d3bb
00000140: ce17 97bb a85f d33c 0e05 3c3d bf38 9cbd
00000150: 3832 8dbc cac1 e4bd 157f 65bc 2c85 c33c
00000160: cc32 e8bd 5ebd c13d e929 34bd f265 96bd
00000170: ae05 18be 39ee 65bd 577a e6bc 368f e3bd
00000180: 16f2 69bd 693c 01be c808 f6bc b921 83bb
00000190: c0a4 8abd 7957 7fbd 72c3 c9bb bcff 15be
000001a0: dad8 1c3d c08f 35bc e39d a13d 6f95 13be
000001b0: 49e7 a03d d3ea 7ebd 01d1 bcbd 9ec5 5bbd
000001c0: d80f 3cbd 726c a2bb f074 94bc b0b9 f43c
000001d0: f137 8abd 7f11 b2bb c963 d0bd 0b63 73bd
000001e0: 44f7 a93b 8485 1abd dae4 643d e268 10be
000001f0: d1f6 903d 3875 49bd 2b78 0ebe 3edf 9bbd
00000200: 21a4 cabe f4a4 ffbd dede a7bc 06ef 3c3d
00000210: 66d3 e2bd d43a cc3b 5826 2cbc 22f6 ca3c
00000220: d4ed ebbe b0cc 743d 1e52 a53d a537 44bc
00000230: ceaa 65bd b11f 14be a6ec f6bd 1c0a 19bd
00000240: 2fce e6bd d2ed 96be 7380 29bc bbd0 d2bd
00000250: b802 003d 29b6 42bc 440a 073c 189a a7bc
00000260: e077 64bd e9e8 94bd d621 3fbd d6ad 1f3d
00000270: 84ac 4e3d b0f6 203d 9bdd adbc c07f 0f3c
00000280: c5a2 c3bd b94c 9c3d d6ac 353d 9945 b33c
00000290: 5856 9dbd 1a7d 16bd 0ddc 403b 76ac f1bd
000002a0: dbdd 76bd a38a bebd 7c23 d8bc ef29 d93c
000002b0: 3836 783c cfd7 733d 0775 6fbe b15c 763c
000002c0: 064a f0ba 7983 3bbe 717f 8c3d 518c 78be
000002d0: a014 9f3b 5894 70bd 1b89 dbbc b1c0 91bd
000002e0: 104d 41bc 5645 03bd 1cb4 06be b08a 25be
000002f0: cef2 a7bb 81f3 8dbd dddd 20bc 500e bbbd
00000300: fba5 cabc 98df 06bd 0190 bebd 2fa0 d1bc
00000310: 9475 21bd d5b3 28be 4870 82be 4314 393c
00000320: eae4 123d de45 d6bc eec9 b7bd a84f ef3d
00000330: ee2f 40bb 0276 5dbe 2216 babd 439d d43b
00000340: 2579 7cbd 902b d6bb 023e 58bd efdb 0f3d
00000350: 69d5 c9bd f64c 00be cc95 78bc f8b5 3f3c
00000360: 7de7 39bd c1a6 b0bd c094 3f3c fe1d 5b3d
00000370: 921d 433d 75e2 a1bd 0984 08be 8d2e 51bd
00000380: 1c6c a53c f94d 0dbe 351b dbbc 0d8c 8a3d
00000390: c557 733d 48cc c7bd d51c 633d abbe e33c
000003a0: 027e b4bc 1a26 363c b6c1 eabd 8cfc 7bbc
000003b0: 4086 9ebd 6367 f0bd c029 f9bd 5874 d03c
000003c0: 876a 74bd a916 b83b 1e7a bcbc e472 b2bc
000003d0: 99d8 af3c 16e1 a3bd 117d 593d e966 43bd
000003e0: 7e28 733d a7f1 fdbd 78fc d33c 3cc3 05be
000003f0: 6a70 6a3d 8081 bb3a 5250 5ebd 19ab 2cbe
-0.08633851 -0.044588417 -0.06633591 -0.00931295 -0.1375089 0.015381192 -0.0037999824 -0.1435973
-0.18141383 0.06989233 -0.017121227 -0.051225927 0.045320265 -0.12202401 -0.14949554 -0.12808713
-0.102323286 -0.00845544 0.0007381242 -0.001143674 0.022971926 0.052614633 0.032467987 -0.0758225
-0.0036238995 -0.04132092 -0.07086141 0.055435188 0.012458005 0.07762366 -0.08128358 0.050913885
0.0137105435 0.00103828 0.028161382 -0.12122675 -0.052950256 -0.07388173 0.045970075 -0.033706296
0.038400475 -0.095621064 0.082532145 0.003339144 -0.040735777 -0.014487293 0.02272477 -0.02090972
-0.02448249 -0.0025228271 0.024692245 -0.13411517 0.022715215 -0.07115833 -0.08370861 -0.05737985
-0.038631726 -0.025296044 -0.002445357 -0.018822454 0.00081211625 -0.0811001 0.0035267507 -0.07880852
0.060391534 -0.011688868 -0.07521817 0.016845362 -0.07306452 -0.045340966 0.026931155 0.026270835
0.025556048 -0.10229407 0.04736022 -0.009550876 -0.08425344 -0.11750602 -0.0065417853 -0.0064635198
-0.004610992 0.025802448 0.045903258 -0.07628011 -0.01723586 -0.11169775 -0.0140073495 0.023867212
-0.11337814 0.09459947 -0.04398528 -0.07343663 -0.14845917 -0.05613539 -0.028134508 -0.111113
-0.057115637 -0.12620701 -0.030033484 -0.004001823 -0.06769705 -0.06233928 -0.006157332 -0.14648336
0.038292743 -0.011081636 0.078914426 -0.14412473 0.07856614 -0.062235665 -0.09219552 -0.05365526
-0.045913547 -0.0049567753 -0.018122166 0.029873699 -0.06748951 -0.0054342146 -0.101752825 -0.059420627
0.005186947 -0.037724987 0.055882312 -0.1410251 0.070783265 -0.049184054 -0.13913028 -0.076109394
-0.39578345 -0.12482634 -0.020492014 0.046126388 -0.11075477 0.006232599 -0.010507189 0.024775568
-0.46079886 0.059765518 0.08072303 -0.011976157 -0.056071095 -0.14465214 -0.12056856 -0.037363157
-0.11269795 -0.29478317 -0.010345566 -0.102937184 0.031252593 -0.011884251 0.008242194 -0.02045922
-0.055778384 -0.072709866 -0.046663128 0.038984142 0.050457492 0.03929776 -0.021223834 0.008758485
-0.0955253 0.07631821 0.044354282 0.021883773 -0.076824844 -0.0367404 0.0029428035 -0.118004724
-0.06027017 -0.093037866 -0.026384108 0.026509253 0.0151496455 0.059531983 -0.23384486 0.015036748
-0.0018332608 -0.18311872 0.06860245 -0.24272276 0.0048547536 -0.05873522 -0.026798775 -0.07116831
-0.011798158 -0.032048546 -0.13154644 -0.16166186 -0.00512538 -0.0693121 -0.009818521 -0.09133589
-0.024737349 -0.03292808 -0.0930481 -0.025589077 -0.039418772 -0.1647485 -0.2547629 0.011296335
0.03586284 -0.026156362 -0.08974062 0.11685115 -0.0029325443 -0.21627048 -0.09086253 0.0064884736
-0.06163897 -0.006535955 -0.05279351 0.035121854 -0.09855158 -0.12529358 -0.015172433 0.0117011
-0.04538678 -0.08625556 0.01169318 0.0534954 0.047635622 -0.079045214 -0.13331617 -0.051069785
0.020193152 -0.13799275 -0.026746372 0.06764994 0.059409875 -0.097557604 0.05544742 0.027800879
-0.022032741 0.011117483 -0.11462729 -0.015380036 -0.0774045 -0.117384695 -0.12166166 0.025446102
-0.059671905 0.0056179357 -0.023007449 -0.0217833 0.021465586 -0.08001916 0.05309779 -0.047705565
0.05936479 -0.12399607 0.025877222 -0.13062757 0.057236113 0.0014305562 -0.05427582 -0.16862144

shared_layers.3.bias f4 [64]
00000000: 3944 edbd e2d2 31bd 262a c9be 90c2 a7bc
00000010: bda4 d2be cbc4 cfbe 081f 76bd 1f08 d6be
00000020: 9c3d 0dbd e686 b3be 9ec6 a1bd af64 20be
00000030: ae69 1cbe 9c18 d0bd 58c3 40be e37a c4be
00000040: a33e 0ebe 1616 f8be 2f51 f5be 496c cabe
00000050: aeb2 00be a513 19be f97c 38bd f322 58bd
00000060: 4061 febd 5723 dfbe 34a9 01bd e028 96be
00000070: a4e3 d9bd a0e5 b3be 60cc adbe 7b68 09bf
00000080: f854 a8be 2d03 88bd 5946 86be e809 12be
00000090: 63e3 cfbe 6bc2 bcbe a4c8 d9be 187e 6bbc
000000a0: 50f8 6fbc 07be b7be 32ed 37be 9e39 aabd
000000b0: 84b8 ddbe 4006 fcbe 1bb4 eebd 74c8 febc
000000c0: c446 c2be d779 aabe 098a bfbe 1c7e 2bbf
000000d0: e82b a2be b1d9 8ebe 8a40 31be c221 d2be
000000e0: 49a1 afbd 93b7 f23b b288 d5bd 3c6d 0cbe
000000f0: fb01 11bf 1620 1dbc f5b9 01bc 6764 a3be
-0.11585278 -0.043414004 -0.3928997 -0.020478517 -0.4114131 -0.4057983 -0.060088187 -0.4180307
-0.034482583 -0.35063857 -0.07899211 -0.15663408 -0.15274689 -0.10160944 -0.18824518 -0.38375005
-0.13891082 -0.4845435 -0.479135 -0.3953574 -0.12568161 -0.149489 -0.04504106 -0.052767705
-0.12420893 -0.4358165 -0.031655505 -0.2932806 -0.10639122 -0.35136127 -0.33944988 -0.5367505
-0.32877326 -0.06641231 -0.26225546 -0.14261591 -0.4060317 -0.3686708 -0.4253589 -0.014373325
-0.014646605 -0.35887167 -0.17961577 -0.08311771 -0.43304837 -0.49223518 -0.11655446 -0.031101443
-0.37944615 -0.3329608 -0.3741 -0.669893 -0.31674123 -0.2790046 -0.17309776 -0.4104138
-0.085756846 0.0074071377 -0.10426463 -0.13713545 -0.56643647 -0.009590169 -0.007917871 -0.31912538

emotion_head.weight f4 [8, 64]
00000000: 6a56 20be 025d 34bb 5815 2dbd 2f57 0dbd
00000010: a411 8abd 0adc 5bbd 83d3 d8bb c820 87be
00000020: 201d ef3b 22d7 f43b 50dc c2bd 5a7c 353d
00000030: be7f 893c be13 b43c e94c 1cbd 774d 12bd
00000040: 891b a63e 609d 95bd b533 91ba 424b e23c
00000050: a774 1fbc d06d 5fbd 0802 a53d ec56 24bd
00000060: 28bd dcbc 645d 3abe 1e12 023d 039e 53be
00000070: 7f01 283e 15fe 1d3e 7365 423c a059 8bbe
00000080: b018 b6bc ccaa 783d f6e6 1e3c 623f acbc
00000090: 4268 98bd cf2d 31be eda8 6cbe ab40 953c
000000a0: 1285 aabd d3a0 4ebe 0348 f93c df5c 07bc
000000b0: 7777 bf3c c005 3f3d d486 21bd e42f 7a3d
000000c0: 538a 7abe 198f bd3d 71c9 023e 0898 0f3d
000000d0: 34ef d7bd 8aec 82be 9588 18bd d903 8cbb
000000e0: cc19 01bd 84cd 02bd 92bb 94bd 0ee5 c73d
000000f0: 6069 8a3e 3cec 4ebd 7415 f5bd 7a2a 9fbb
00000100: 4c1c e43c 553c ca3d df05 ebbd c62b 1dbd
00000110: 46fd 48be 376d ad3e 2335 3dbd e665 9abd
00000120: ba13 17bc fbaf 49bd 726d b83d ed9e c43d
00000130: 5d79 493d 4e92 7d3d e8a9 af3d a652 0b3d
00000140: adc1 20bb 8b40 68bb 4f8e ca3d 095f 0f3e
00000150: 0595 0f3d 11fc 6f3d dfd9 933d c643 90bd
00000160: cae3 d7bd e201 91be 3ce5 7a3c 77f9 bf3e
00000170: 0934 b8bc 5e3a 8b3c 078c 543d 6463 2dbd
00000180: 05d8 20be 3dff 1f3e d971 973d 9573 94bd
00000190: 940b 98bb 67ac a43d 97df 50bd e6ac 5abd
000001a0: 4d25 fe3c a277 ac3d 9b2b 46bd 4f50 de3b
000001b0: bd2b b03d c88f 54be 4812 323e 97a9 56bd
000001c0: 5fb7 1cbd 97ae a13c 23c4 c23e ef02 063e
000001d0: 83e5 aa3d 2f85 a03d 9254 1bbd b993 b63e
000001e0: 83ec f53c 8978 1fbb 3759 3b3e f2b1 6c3b
000001f0: 4da5 743d 23d5 3fbc a1d5 51bd 7a28 683c
00000200: e8e3 d3bd aa5d e43c 11e9 1ebe 7f45 6ebd
00000210: 7059 fdbc 377e af3d 32f6 b6bc 2a09 a73e
00000220: ea39 61bd c207 003d 22d7 53bd 0608 95bd
00000230: 1087 f2bd 1e06 4fbb bf5c 763d 92e8 1bbe
00000240: 241f b7bc 3964 f73c 571e ce3e 95c3 813d
00000250: 2198 bb3c 37dd e83c 93b3 a53c f6cd 14be
00000260: b015 3abd 9b07 b43e 13d0 adbd 802b 923d
00000270: c712 5bbd 5dbc 663c 7191 aa3e 9f80 f9bd
00000280: c553 0bbd 68b3 7fbd 29a1 b3bd a6df e0bb
00000290: 056b 8fbd b7bd 8d3d ca77 413c 1c76 2a3e
000002a0: 85fa 1a3d 5ee9 babc 2ef1 8dbd a68d acba
000002b0: f7af 44bc 7047 94bd b4e2 93bc 5830 913d
000002c0: 9dfd 043d 7081 a43e db85 613d 5e75 873c
000002d0: 6351 47bd 8380 e2bd e83e a53c 7260 09bd
000002e0: 0a31 1d3d f081 7c3c 6c43 753d 6dc4 cb3c
000002f0: 9d19 ab3c 58bc 413c 9844 743d ded0 08be
00000300: bbe5 b13d 39c9 1fbd 9236 83be f461 27bd
00000310: bfe8 793d cebe bb3d c036 ca3d 155d ce3c
00000320: d458 983d 2213 9d3e 5de0 193e 69d0 bd3d
00000330: 379c 84bd dfd4 7a3d 2a7f 073e 24d4 4b3d
00000340: d94d 29bd 140a 81bc c05e 1dbc 0a0a 043d
00000350: 78c7 0f3d 88f3 f8bd 77ce 453d 25ad cf3c
00000360: 8b36 0a3d 018b 5cbe d658 2a3c da49 9e3d
00000370: 9755 a03d d31d 15be b789 513c e061 e43b
00000380: 00ad 3b3a 742b 02bd cb6e 9b3d 1f58 9fbd
00000390: 1fe4 f3bb 1c05 383d 456f ad3e eab9 163d
000003a0: a340 13bd 0fe0 423c b21c 2b3e 36d8 1dbd
000003b0: d941 95bc 9e76 fe3c fb3a 82bd 5f1b 18bd
000003c0: cc2a 213d 49c1 92bc 6ebe 3f3c 58d4 99bc
000003d0: 0084 223c a73c 683a 6c83 90bd 029e 45be
000003e0: eb76 9f3d 2975 ed3d 0884 533d 2db3 d8bb
000003f0: 8b52 913d 1fd2 5d3d 9f1d 733d 92a0 2fbe
-0.15657964 -0.0027521257 -0.042256683 -0.034506973 -0.06741646 -0.053676642 -0.006617011 -0.26392198
0.007297173 0.007471935 -0.095146775 0.044308044 0.016784545 0.02198207 -0.038159285 -0.035718407
0.32442883 -0.073054075 -0.0011078032 0.027623776 -0.009732402 -0.054548085 0.08057028 -0.040121958
-0.026945665 -0.18199688 0.03175556 -0.20665745 0.1640682 0.15428956 0.011865008 -0.27216816
-0.022228569 0.06070976 0.00969862 -0.021026317 -0.074417606 -0.17302631 -0.23111315 0.018219313
-0.083261624 -0.20178537 0.030429846 -0.008261888 0.023372395 0.046636343 -0.039435223 0.06108083
-0.24466829 0.09255809 0.12772156 0.035057098 -0.10543671 -0.2557109 -0.03723963 -0.0042729196
-0.031518742 -0.031934276 -0.07262339 0.097604856 0.2703352 -0.05051826 -0.119669825 -0.0048573585
0.027845524 0.09874789 -0.11475729 -0.038371824 -0.19627866 0.33872387 -0.046193253 -0.07538967
-0.009221012 -0.049240094 0.0900525 0.09600625 0.049188007 0.061907105 0.08577329 0.034014367
-0.0024529502 -0.0035438861 0.098904245 0.14001097 0.035054225 0.05859 0.0721929 -0.07044177
-0.10541494 -0.2832175 0.015313443 0.37495014 -0.02248575 0.016995605 0.051891353 -0.042331114
-0.15707405 0.1562471 0.073947616 -0.07248608 -0.004640052 0.08040696 -0.050994482 -0.053387545
0.031023646 0.08421256 -0.04838143 0.006784476 0.086020924 -0.20757973 0.17389786 -0.052407827
-0.038260814 0.019736571 0.38040265 0.13087057 0.08344557 0.07837903 -0.03792245 0.35659578
0.030020004 -0.002433332 0.18295752 0.0036116806 0.059727956 -0.011708531 -0.051229123 0.014169807
-0.10346204 0.027876694 -0.15518595 -0.058171745 -0.030926436 0.085689954 -0.022334192 0.3262418
-0.05498687 0.0312574 -0.05171884 -0.07276921 -0.118421674 -0.003158934 0.060147043 -0.15225437
-0.022353716 0.030199157 0.40257522 0.063361324 0.02289969 0.028425796 0.02022723 -0.14531693
-0.04543084 0.35162053 -0.08486953 0.07137203 -0.053484704 0.014082995 0.33314088 -0.12182736
-0.034015436 -0.062426955 -0.08770973 -0.0068625985 -0.07002834 0.06920951 0.011808345 0.16646618
0.03783657 -0.022816356 -0.06930767 -0.0013164773 -0.012004844 -0.07240188 -0.018052436 0.07089299
0.032468427 0.32130003 0.055059295 0.016535457 -0.0486616 -0.11059668 0.020171598 -0.033539243
0.038376845 0.015411839 0.05987875 0.024873937 0.020886237 0.01182469 0.05963573 -0.13360927
0.08686396 -0.03901026 -0.2562757 -0.0408649 0.06101298 0.091672525 0.09873724 0.02519087
0.074388176 0.3067866 0.15026994 0.09268267 -0.06475108 0.061238166 0.13232103 0.04976286
-0.041334007 -0.015751876 -0.00960511 0.032236136 0.035102338 -0.12155825 0.048292603 0.025351116
0.033743422 -0.21537401 0.010397157 0.0772893 0.07828825 -0.14562158 0.012789181 0.0069696754
0.0007159263 -0.03177972 0.075894915 -0.0778048 -0.0074429656 0.044926748 0.33873954 0.036798395
-0.035950314 0.01189424 0.16710165 -0.038536273 -0.018219875 0.03106242 -0.06358906 -0.037135478
0.039347455 -0.017914431 0.011703117 -0.018778011 0.009919167 0.00088591356 -0.07056317 -0.19298556
0.07786354 0.11594612 0.051639587 -0.0066131563 0.07095822 0.054155465 0.05935442 -0.17151096

emotion_head.bias f4 [8]
00000000: 2a2e 1cbf 6807 d43e a453 e6be 1514 abbe
00000010: 17d3 43bf b9bc 3e3f 5b1b 96be 5e2f 66be
-0.6100794 0.414119 -0.44985688 -0.3341376 -0.7649397 0.7450672 -0.29317746 -0.22479007

focus_head.weight f4 [2, 64]
00000000: 77d6 01be 3a92 bcbd d07d 0a3d 3b70 53bd
00000010: b7ac 36be 2dfe bebe 7d48 3bbd 3636 7a3e
00000020: 1272 19bd 7901 17bc 0c6d 9bbd f9fb 763d
00000030: c194 cabd 6406 06be 5e45 98bd a64d 4cbd
00000040: ef9c 073e 0e41 743e 2ae0 4c3d aac7 87bc
00000050: 76b3 c5bd e83d 57bd dfeb 07bd 0dbe 8c3d
00000060: 802b 3bbc 59c8 96be 321c 6abd ba67 8bbe
00000070: b753 2fbc 1f97 15be ed33 73be dbcf d13d
00000080: a490 2d3e fe7f 373d 3d90 943d 223e d239
00000090: 681b 82be 23f5 663d f0e0 bbbe 4e28 01bd
000000a0: abe7 e03d 48bc 8dbe 4712 8e3b 8037 d8bb
000000b0: 82d6 98be 69ae a0bd 9a66 02bd 0d67 8fbc
000000c0: 03d7 343c a53f 47be bbe6 01be 85a1 4c3e
000000d0: 3ba6 b3bc 723b a7be 95c8 613d 13fc 0a3e
000000e0: cfd0 7ebd b43a a33c 7b34 4cbe 1d92 42bd
000000f0: 31ec e9bc 5287 09bd 24f1 05be dcd0 7cbd
00000100: 6941 f4bc b693 0abd 88ec 523d c218 a43d
00000110: cb4a d53e 7e97 733e a476 3b3c 68fe aebe
00000120: be82 82bd 8623 543c a08a e7bb f820 123d
00000130: 3d94 ce3d 5b3d 0ebd 9090 48bd 1177 88bc
00000140: 19b5 cbbc 86ef 8dbe 1dec e33d f0f1 28bc
00000150: b01a cfbc 3cfb 3dbc d856 863d d85a 7b3d
00000160: ecf9 fb3c 73b8 703e 64f4 523d 6b74 ba3e
00000170: b89d 073c 3009 b03e d789 8b3e 9f0b 053d
00000180: a7fa 35bd d7dc ecbd c459 403d 8a55 b9bd
00000190: a86d ae3e 0448 ed3d 86e9 833e 2bc0 a6bc
000001a0: 9da3 cfbb c8c9 b53e 8936 1cbb a683 883d
000001b0: b2b7 883e 5352 923c 376e 1a3e 7941 3b3d
000001c0: f082 443e ef95 a43e 5f9f 31bc a425 45be
000001d0: baa2 593d 2bcd 863e 9330 0b3e ef89 d63c
000001e0: 0862 88bd 7224 e3bb f2e0 043e 3988 96bc
000001f0: cdbd 92bc 2197 3cbd 2235 84bc 5b53 6cbb
-0.12679468 -0.09207578 0.03381139 -0.051620703 -0.17839323 -0.37303296 -0.045723427 0.24434742
-0.0374623 -0.00921666 -0.075891584 0.060298894 -0.09891654 -0.13088375 -0.07435106 -0.04987874
0.13243459 0.23852941 0.050018467 -0.0165747 -0.0965337 -0.052549273 -0.03318393 0.06872187
-0.011423945 -0.29449728 -0.057155795 -0.27227575 -0.0107011115 -0.1460843 -0.23750277 0.102447234
0.16949707 0.044799797 0.07254074 0.00040100614 -0.25411534 0.056386124 -0.3669505 -0.03153258
0.10981687 -0.2768271 0.004335675 -0.006598413 -0.29851156 -0.07845766 -0.03183613 -0.017505193
0.011037591 -0.19457872 -0.12685673 0.1998349 -0.02192985 -0.3266254 0.05512293 0.13572721
-0.062210854 0.019925453 -0.19941895 -0.047502626 -0.028555008 -0.033576317 -0.13080269 -0.06172262
-0.029816346 -0.033832274 0.051495105 0.08012535 0.41658625 0.23788258 0.01144186 -0.34178472
-0.06372593 0.012947923 -0.007066086 0.035675973 0.10086868 -0.034726482 -0.04896599 -0.016658338
-0.024866628 -0.27721804 0.111290194 -0.010311589 -0.02528128 -0.0115955435 0.06559533 0.061365932
0.03075882 0.23507862 0.0515026 0.36416945 0.008277349 0.3438201 0.272536 0.032481786
-0.044428494 -0.11565559 0.046960607 -0.090495184 0.34068036 0.115860015 0.25764102 -0.020355305
-0.006336643 0.3550551 -0.0023836216 0.06665735 0.26702648 0.01786152 0.15081106 0.045716736
0.19190574 0.3214564 -0.01084122 -0.1925264 0.053133704 0.26328406 0.13592748 0.026188819
-0.06659323 -0.006931835 0.12976435 -0.018375503 -0.01791277 -0.046042565 -0.016138617 -0.0036060426

focus_head.bias f4 [2]
00000000: 97aa 00bf 5eb8 013f
-0.502603 0.50671947
